models/experiment_POLAR_N128_K64_transformer_d=32_N=2_nomask_lr=0.0003_epochs=200.pth (torch, 510434 bytes, 32 tensors)

embedding f4 [192, 32]
-0.2744438 -0.11802709 -0.008091101 -0.074060485 -0.2054742 -0.10525251 -0.29201627 -0.18836401
-0.06885857 0.018655334 -0.035804212 -0.10143754 0.009015835 0.021390853 -0.07882493 0.085517734
0.2825331 -0.22849458 -0.16289078 0.11759542 0.011300016 0.19234158 0.1279962 -0.014152119
-0.123428136 -0.20039634 0.12210456 -0.05882116 0.12430857 -0.11574536 -0.015424029 -0.10823598
0.00046224997 0.37203 -0.13676491 -0.18746398 0.022647843 -0.123734765 -0.178059 -0.12471211
0.186259 -0.038811404 -0.12282227 -0.040267315 0.21715237 0.037262276 0.009433025 -0.042295907
0.22570625 -0.012312757 -0.19133407 0.17877355 0.017556135 0.23473188 -0.13700005 -0.008621739
-0.1586475 -0.21946023 0.26181948 -0.10235596 0.06627115 -0.09267236 -0.2074352 -0.04964333
-0.0051798625 0.11885716 0.22480163 -0.043321673 -0.1760334 -0.016386457 -0.16344604 -0.16129796
0.037777457 -0.08839643 -0.12139624 0.19113468 0.0067828237 0.1773115 0.049020905 0.030073758
0.015892498 0.28655028 -0.1535443 -0.030541208 -0.20706722 0.20335828 0.04600703 0.07089541
-0.091424726 0.06380699 0.13599056 0.1880048 -0.3043263 -0.14697678 -0.017554026 -0.055157516
-0.21168436 0.18653353 -0.027142722 0.15214409 -0.21365866 0.09596452 -0.22217359 0.039652247
0.22204728 -0.056591872 -0.02583691 0.08544065 0.09710174 0.1371902 -0.005359838 0.001608028
0.0005450179 0.053970642 -0.082790084 0.033451278 -0.10574021 0.25597027 -0.09821149 -0.18427414
-0.34422567 -0.32335812 -0.16179426 -0.09539212 -0.2594654 0.38553476 -0.28963736 0.079600796
0.0072388384 -0.017281547 -0.07062692 -0.01286742 0.02129517 0.096096694 -0.030522488 -0.22945422
0.076883875 -0.24163802 0.2287757 -0.14338987 -0.15207562 -0.006610446 -0.18292703 -0.1676006
0.15421131 0.19982821 0.038771976 0.1204645 0.2863014 -0.15374392 -0.115885384 0.08996499
-0.2080422 -0.09168399 0.15110373 0.28336838 0.023065915 0.14436445 0.30901688 0.08868323
-0.13559614 0.18675143 -0.020265123 -0.020617735 -0.24343619 -0.21095319 0.18394893 0.24758148
0.04167869 -0.14859584 0.037814625 -0.11732642 0.12847677 0.319747 -0.110891744 0.0001342719
0.03499573 -0.004153834 0.16241111 -0.010895105 0.0913087 -0.014976798 0.18409888 0.09145124
-0.03692611 0.060298197 -0.07525111 0.070435196 -0.25055325 -0.0028831603 -0.31176335 0.063678786
0.4851715 -0.2608671 -0.09619358 -0.0061618066 0.20395395 0.1691933 -0.126581 0.32996628
0.025570352 -0.24956675 -0.09756658 -0.51155996 0.13944761 -0.017739046 -0.11094772 0.24938294
-0.13931723 0.18841834 0.28509554 -0.07905822 0.02652754 -0.10350164 -0.116619006 -0.18064605
-0.28919885 -0.037249524 -0.32829806 0.07344508 -0.16109128 -0.023813518 0.34045908 -0.114695296
0.17258173 0.14251432 -0.2404551 -0.11711381 -0.11188518 0.19472376 -0.104022965 -0.20643905
-0.027670085 0.040447097 -0.0902704 0.015737198 0.23535791 -0.13131082 -0.20166372 -0.14491655
0.114576325 0.121199 0.13809381 0.20243034 -0.12543134 0.16094406 -0.109494105 -0.018402785
-0.21432887 -0.03790807 -0.1818245 -0.30588692 -0.15748364 0.025707098 -0.34386125 0.028144954
00000000: e683 8cbe 30b8 f1bd 8a90 04bc 06ad 97bd
00000010: d467 52be a18e d7bd 2883 95be 7fe2 40be
00000020: b905 8dbd 12d3 983c 70a7 12bd 7cbe cfbd
00000030: 27b7 133c df3b af3c f76e a1bd ec23 af3d
00000040: 2ea8 903e 7cfa 69be d7cc 26be ded5 f03d
00000050: b423 393c 31f5 443e 7011 033e 4ade 67bc
00000060: e4c7 fcbd b334 4dbe f511 fa3d 75ee 70bd
00000070: 7e95 fe3d e70b edbd 11b5 7cbc d3aa ddbd
00000080: 245a f239 b77a be3e 1a0c 0cbe 8ff6 3fbe
00000090: f887 b93c a768 fdbd 1955 36be 1069 ffbd
000000a0: aeba 3e3e b5f8 1ebd 3e8a fbbd 57ef 24bd
000000b0: 315d 5e3e 54a0 183d f98c 1a3c 793e 2dbd
000000c0: 8a1f 673e 72bb 49bc 14ed 43be 6a10 373e
000000d0: e2d1 8f3c 8e5d 703e be49 0cbe 3242 0dbc
000000e0: 7e74 22be 2fba 60be 340d 863e 00a0 d1bd
000000f0: 2bb9 873d 02cb bdbd e569 54be ce56 4bbd
00000100: d6bb a9bb 626b f33d 6632 663e 1172 31bd
00000110: 1a42 34be e43c 86bc 665e 27be 4b2b 25be
00000120: 89bc 1a3d 3009 b5bd 989e f8bd cfb8 433e
00000130: 7342 de3b 2591 353e 25ca 483d 3e5d f63c
00000140: fc30 823c b8b6 923e b83a 1dbe 8e31 fabc
00000150: 6e09 54be 273d 503e de71 3c3d 9d31 913d
00000160: e33c bbbd 3dad 823d 1c41 0b3e 5584 403e
00000170: a8d0 9bbe 1581 16be 76cd 8fbc d9ec 61bd
00000180: c9c3 58be a502 3f3e 6a5a debc a9cb 1b3e
00000190: 56c9 5abe 0c89 c43d 7981 63be 656a 223d
000001a0: 5d60 633e e1cc 67bd eda7 d3bc 82fb ae3d
000001b0: 47dd c63d 967b 0c3e 94a1 afbb 77c4 d23a
000001c0: 88df 0e3a 5210 5d3d d98d a9bd 3504 093d
000001d0: 538e d8bd 890e 833e 1b23 c9bd 5cb2 3cbe
000001e0: 593e b0be 328f a5be 65ad 25be f25c c3bd
000001f0: a6d8 84be d064 c53e 594b 94be be05 a33d
00000200: c733 ed3b 0892 8dbc d9a4 90bd dfd1 52bc
00000210: 3573 ae3c 58ce c43d 4c0a fabc 0cf6 6abe
00000220: 4b75 9d3d f56f 77be 2d44 6a3e cbd4 12be
00000230: b6b9 1bbe 719c d8bb 3951 3bbe 7e9f 2bbe
00000240: 92e9 1d3e c49f 4c3e 5dcf 1e3d 17b6 f63d
00000250: 1996 923e 0c6f 1dbe 5155 edbd 913f b83d
00000260: 0409 55be d1c4 bbbd f0ba 1a3e a915 913e
00000270: bbf4 bc3c 46d4 133e 7637 9e3e 8e9f b53d
00000280: b7d9 0abe c43b 3f3e 0b03 a6bc 86e6 a8bc
00000290: 5647 79be 1d04 58be 1c5d 3c3e 0086 7d3e
000002a0: 46b7 2a3d 8229 18be 82e3 1a3d d648 f0bd
000002b0: 6a8f 033e e1b5 a33e 361b e3bd 57cb 0c39
000002c0: af57 0f3d e31c 88bb 194f 263e 6281 32bc
000002d0: 0e00 bb3d 3e61 75bc 6b84 3c3e ca4a bb3d
000002e0: d53f 17bd 3efb 763d 411d 9abd 5440 903d
000002f0: 8448 80be 67f3 3cbb 729f 9fbe 066a 823d
00000300: 6668 f83e 5f90 85be 2401 c5bd fbe8 c9bb
00000310: 4ed9 503e 0241 2d3e 739e 01be 57f1 a83e
00000320: ea78 d13c 6d8e 7fbe fdd0 c7bd 98f5 02bf
00000330: 5bcb 0e3e 7a51 91bc 8f38 e3bd 3e5e 7f3e
00000340: 2da9 0ebe bdf0 403e 0bf8 913e 47e9 a1bd
00000350: 4950 d93c abf8 d3bd f2d5 eebd 47fb 38be
00000360: df11 94be f592 18bd af16 a8be 606a 963d
00000370: 1df5 24be 9114 c3bc a750 ae3e 5ee5 eabd
00000380: 44b9 303e 46ef 113e dd39 76be 5dd9 efbd
00000390: 0f24 e5bd aa65 473e fe09 d5bd c264 53be
000003a0: 60ac e2bc dbab 253d b0df b8bd 4ceb 803c
000003b0: aa01 713e 5876 06be ef80 4ebe 0165 14be
000003c0: fea6 ea3d 2e37 f83d 7768 0d3e e649 4f3e
000003d0: 1371 00be 85ce 243e 723e e0bd 70c1 96bc
000003e0: 0779 5bbe 7e45 1bbd 3430 3abe 369d 9cbe
000003f0: 6443 21be b197 d23c 950e b0be 3f90 e63c

blocks.0.W_QKV f4 [32, 96]
-0.20207718 -0.2495789 -0.2026259 -0.12425501 -0.15719926 -0.037125 0.2075306 -0.21889912
0.12986456 -0.06103447 -0.035130866 -0.2050317 0.15654759 -0.19670033 -0.068878 0.1988216
-0.037513815 -0.12508751 -0.18446635 -0.21951714 0.14208296 -0.091848165 0.07814473 0.02971617
0.012026852 0.26725215 0.008821197 0.019154709 -0.14480358 0.10779373 0.09109981 -0.15186979
-0.2557868 0.33471453 -0.12187098 0.050220866 -0.456468 -0.03690591 -0.12320801 -0.41546106
-0.060697947 -0.41835544 0.51827633 -0.22650665 -0.2548798 0.35940698 0.30739075 -0.14213265
0.32734638 0.18441437 0.060410254 -0.36626956 -0.07479817 -0.4154388 0.288229 0.13416098
0.31428143 -0.0023010687 -0.011397702 0.28758967 -0.10514296 0.3933713 0.18127543 -0.019881945
0.1571244 0.15308863 0.016391022 0.11145521 0.088327564 -0.082979105 -0.1886811 -0.21153031
-0.07455774 -0.1066557 -0.10528489 -0.19126435 0.24078602 0.005105447 0.04175463 0.013500905
0.06616182 0.13301398 -0.07045181 -0.2095216 -0.05150905 0.060186524 0.1516947 -0.0104631465
-0.19326782 0.029156761 0.05210193 -0.14642881 -0.20687427 -0.17380366 0.056332566 -0.21590957
-0.046126317 0.18306336 0.32459548 0.26886478 0.034301426 0.18203919 0.17532992 0.18528561
-0.058737822 0.09239049 0.18706325 -0.03512846 -0.08380048 0.12223064 -0.0380528 -0.27228364
-0.017826654 -0.08984356 -0.1971119 0.33968255 -0.058379054 -0.11257047 0.2091035 -0.070968054
-0.09753621 -0.21942744 -0.12008098 0.052515503 -0.01995026 0.05304617 -0.03944252 0.45562384
0.3698072 0.008554806 0.10214728 -0.44030195 -0.025930643 0.009035208 -0.0678375 0.29392302
0.22351056 0.41232964 -0.34641862 -0.19481018 0.23724537 -0.2453958 -0.3130907 0.33704305
-0.17019854 -0.16912 0.01625174 -0.02385216 -0.3255146 0.19895755 0.24645269 0.08564839
-0.31167197 0.17735083 0.09408577 -0.020508368 0.39199033 -0.10932649 -0.07993603 -0.31610885
-0.004110452 -0.07433556 0.021998597 -0.17438969 0.2728884 -0.12087065 -0.2892034 -0.24809651
0.1630705 -0.2275956 -0.10763555 -0.3610078 -0.00988063 0.18628915 0.20574331 0.010324437
0.07822056 -0.24695358 -0.011423107 0.14679275 0.08663578 -0.059054416 0.086362004 0.21713819
0.060795043 -0.062584855 0.049617235 0.102257155 0.03126053 -0.15758982 0.14020902 -0.2692104
-0.39535 -0.40166733 0.01752184 -0.35399696 0.155531 -0.09254688 -0.056745984 -0.20532575
0.09463866 0.62508315 -0.16213323 -0.29175285 -0.22738798 0.1427826 -0.14096816 0.0041485825
0.33996814 -0.2886659 0.13057928 -0.19050927 0.07170315 -0.24550131 0.02236268 -0.15396419
0.15572855 0.2627678 0.08091411 0.08425671 -0.005574836 0.100082584 -0.03286091 -0.092179514
0.096144855 -0.2725991 0.19226283 0.023473758 0.13748701 0.024012692 0.3633519 0.105833456
0.008625377 0.10507738 -0.2984419 -0.25332776 0.21945454 -0.014734831 -0.10813479 0.03811865
-0.010508831 -0.16675682 -0.18772538 0.2998395 -0.07987702 0.11562258 -0.17053786 -0.29354352
-0.09181117 0.054632686 -0.31988868 -0.20574065 0.044866014 0.07575583 -0.22074984 0.04975465
00000000: 52ed 4ebe 9c91 7fbe 2a7d 4fbe 6979 febd
00000010: d8f8 20be 6210 18bd e782 543e 1727 60be
00000020: 37fb 043e 48ff 79bd 62e5 0fbd d4f3 51be
00000030: 034e 203e d06b 49be e90f 8dbd e497 4b3e
00000040: 16a8 19bd f116 00be bfe4 3cbe 1ac9 60be
00000050: 327e 113e e41a bcbd 580a a03d 536f f33c
00000060: 460c 453c 46d5 883e c886 103c 56ea 9c3c
00000070: 6447 14be f6c2 dc3d 8a92 ba3d c183 1bbe
00000080: 7df6 82be b45f ab3e 7e97 f9bd 65b4 4d3d
00000090: 2cb6 e9be a72a 17bd 7b54 fcbd 50b7 d4be
000000a0: 699e 78bd af32 d6be c2ad 043f 5cf1 67be
000000b0: 9b7f 82be 3104 b83e 5262 9d3e 398b 11be
000000c0: f299 a73e 1fd7 3c3e be70 773d af87 bbbe
000000d0: c82f 99bd 65b4 d4be c092 933e 7f61 093e
000000e0: 7fe9 a03e 87cd 16bb 6dbd 3abc f43e 933e
000000f0: 3155 d7bd f767 c93e 44a0 393e 76df a2bc
00000100: 38e5 203e 44c3 1c3e 7746 863c a142 e43d
00000110: 15e5 b43d f3f0 a9bd 9e35 41be 679b 58be
00000120: bab1 98bd 4e6e dabd 9b9f d7bd cdda 43be
00000130: 9c90 763e 984b a73b e706 2b3d e632 5d3c
00000140: d97f 873d d134 083e 0a49 90bd d58c 56be
00000150: 27fb 52bd 2586 763d db55 1b3e 9e6d 2bbc
00000160: 00e8 45be 29da ee3c d568 553d 6ff1 15be
00000170: d9d6 53be 96f9 31be fabc 663d 6617 5dbe
00000180: f3ee 3cbd f674 3b3e 6131 a63e a5a8 893e
00000190: a77f 0c3d 7b68 3a3e b089 333e 83bb 3d3e
000001a0: 1297 70bd 3a37 bd3d 828d 3f3e dce2 0fbd
000001b0: 969f abbd 0f54 fa3d 41dd 1bbd c368 8bbe
000001c0: 3409 92bc e6ff b7bd b4d7 49be dfea ad3e
000001d0: e01e 6fbd 598b e6bd 3a1f 563e b357 91bd
000001e0: 11c1 c7bd 96b1 60be 04ed f5bd 7f1a 573d
000001f0: ba6e a3bc f146 593d 7b8e 21bd 8747 e93e
00000200: 5f57 bd3e 7529 0c3c 9832 d13d 426f e1be
00000210: 806c d4bc 6908 143c 63ee 8abd 147d 963e
00000220: f4df 643e df1c d33e c85d b1be 527c 47be
00000230: 73f0 723e 0949 7bbe 6d4d a0be e890 ac3e
00000240: 8748 2ebe cb2d 2dbe 5e22 853c 9b65 c3bc
00000250: daa9 a6be 87bb 4b3e 185e 7c3e 6c68 af3d
00000260: 7893 9fbe 759b 353e 0ab0 c03d 2a01 a8bc
00000270: f5b2 c83e 91e6 dfbd 80b5 a3bd 05d9 a1be
00000280: f8b0 86bb 3e3d 98bd 6736 b43c 3693 32be
00000290: 07b8 8b3e 088b f7bd 7812 94be 030d 7ebe
000002a0: f4fb 263e d20e 69be 0770 dcbd 04d6 b8be
000002b0: 5ee2 21bc 95c2 3e3e 60ae 523e d427 293c
000002c0: 1a32 a03d 66e1 7cbe fc27 3bbc d750 163e
000002d0: 1a6e b13d 0be3 71bd 90de b03d 7959 5e3e
000002e0: 3904 793d 7d2c 80bd 713b 4b3d 336c d13d
000002f0: 0b0b 003d 3a5f 21be f492 0f3e f2d5 89be
00000300: 516b cabe 57a7 cdbe f689 8f3c 173f b5be
00000310: 8543 1f3e 3889 bdbd 7a6e 68bd ea40 52be
00000320: ead1 c13d 7305 203f 4106 26be a160 95be
00000330: 65d8 68be 9a35 123e f559 10be d5f0 873b
00000340: 4e10 ae3e 04cc 93be 93b6 053e dd14 43be
00000350: 1ad9 923d b264 7bbe f031 b73c caa8 1dbe
00000360: 4e77 1f3e 8089 863e 4cb6 a53d c88e ac3d
00000370: 1dad b6bb 19f8 cc3d 2999 06bd 9dc8 bcbd
00000380: 98e7 c43d 1c92 8bbe 8ce0 443e 0a4c c03c
00000390: 65c9 0c3e 44b6 c43c 4309 ba3e 36bf d83d
000003a0: 7451 0d3c cf32 d73d 60cd 98be 2db4 81be
000003b0: b1b8 603e 5c6a 71bc c675 ddbd 4d22 1c3d
000003c0: 3b2d 2cbc 4dc2 2abe 153b 40be 9084 993e
000003d0: 9096 a3bd 88cb ec3d 7aa1 2ebe 564b 96be
000003e0: 7f07 bcbd 86c6 5f3d 73c8 a3be adad 52be
000003f0: 6dc5 373d df25 9b3d 3f0c 62be 88cb 4b3d

blocks.0.mha.in_proj_weight f4 [96, 32]
-0.014114442 -0.1300878 0.00086345174 -0.14786349 -0.13071167 0.12109183 0.08491532 0.047235236
-0.14039817 0.054184344 -0.12167037 0.086458124 0.13703533 0.15871988 0.094441056 0.20296964
0.03962281 0.11814546 -0.0024920732 0.12928665 -0.09150627 -0.040701143 -0.18310975 -0.034929253
-0.03473609 -0.078522705 -0.12672853 -0.13658231 -0.04122415 0.08846563 0.12329755 0.11823235
-0.12017893 -0.11051873 0.067278944 0.16087753 -0.20834449 0.06992359 0.10887502 -0.028941015
-0.02679703 0.065001264 0.08654488 0.068372495 -0.07215306 0.088274024 0.00420118 0.10378403
-0.073203616 0.01897903 -0.04973379 0.09298559 0.03702891 -0.06718651 -0.0444109 -0.11527823
-0.11681656 0.085290425 -0.108486444 -0.021848043 0.027222263 0.11969937 0.2039663 0.027253939
-0.07472198 -0.18449011 0.036288533 -0.12011843 0.12386266 -0.17402859 0.08069875 0.056519765
0.14997649 -0.03194377 -0.18033537 0.1585947 0.042538732 -0.2273017 0.19669558 -0.082759544
0.0059542647 0.23129874 -0.06774532 -0.1373049 0.013762401 -0.073396176 8.4281215e-05 -0.0991594
-0.020047553 -0.07393563 -0.0019936378 -0.08965705 0.08500661 -0.037436455 -0.15642571 0.15823315
0.08711982 0.07551988 -0.07320975 -0.018867148 0.17087519 0.06316331 -0.22863877 0.057286907
0.034731306 0.01208426 0.10945421 0.08968588 -0.0983455 0.3113468 -0.093785256 0.07173567
-0.10020234 -0.03506212 0.07034635 -0.007669925 -0.0915999 0.0767336 0.11655865 0.21011128
0.050049998 0.039948225 0.16198435 0.0016911894 -0.004291358 -0.024526307 -0.11378071 -0.21368723
0.11872545 -0.05114191 -0.02208014 -0.08409842 0.051186964 0.09908479 -0.01067983 0.12259079
0.19183116 -0.17738493 -0.03785098 -0.2411738 -0.09468293 0.034096796 0.034059063 -0.07858504
-0.103044994 -0.030214528 -0.072914615 0.15594858 -0.024397781 -0.17349401 0.07461856 -0.020866867
-0.21012816 0.10379217 -0.013822444 -0.07736231 0.14972381 0.20484117 0.07454731 0.16088688
0.104836516 -0.0342581 0.13034675 -0.13812132 -0.07445822 0.12158581 0.03273504 -0.08752199
0.10044789 -0.10493286 0.13892612 0.16327068 0.058703702 0.20933369 0.113822415 0.0065303836
0.12536237 -0.040360987 0.28248382 -0.09120159 -0.09294446 -0.02356205 -0.019210905 0.20431101
0.048349667 0.00672756 -0.082387604 -0.13952711 0.13053833 -0.07481439 -0.17459208 0.05811361
-0.06901802 0.024317218 -0.06551249 -0.21283038 -0.062062792 -0.0140020205 -0.028472137 0.1132643
-0.0010111032 -0.00015424943 0.11211034 -0.16815588 0.035659302 0.15778345 -0.03980005 -0.12863868
0.09368638 0.11858524 -0.05356468 0.1806776 0.0073061776 -0.14233613 -0.112641916 0.07437555
0.0007136186 -0.011646763 -0.17657033 -0.06339091 0.14245826 0.081514485 -0.04963297 0.06499443
-0.27720127 -0.030504221 -0.024526928 -0.13708991 -0.12884723 0.09631125 0.1660866 -0.24105233
-0.057426453 0.16964468 0.14084877 0.056857195 0.10323447 0.015664915 0.09078091 0.1402405
-0.08644823 -0.117643386 0.10866483 -0.0040857405 -0.0148735335 0.14780109 -0.0023887625 -0.06189824
-0.10756919 0.103978634 -0.048069254 -0.1319106 -0.005356943 0.07468701 0.004566543 0.1472874
00000000: 4340 67bc bc35 05be 4459 623a 8769 17be
00000010: 48d9 05be fefe f73d 15e8 ad3d bc79 413d
00000020: 8ac4 0fbe 67f0 5d3d 512e f9bd f510 b13d
00000030: fd52 0c3e 7787 223e 506a c13d 46d7 4f3e
00000040: 874b 223d 3ff6 f13d 0d52 23bb b863 043e
00000050: a467 bbbd 3eb6 26bd 1f81 3bbe fa11 0fbd
00000060: 6e47 0ebd 83d0 a0bd 20c5 01be 3cdc 0bbe
00000070: a8da 28bd 782d b53d 6d83 fc3d cd23 f23d
00000080: 5f20 f6bd a557 e2bd 8bc9 893d 14bd 243e
00000090: 4258 55be 1934 8f3d def9 de3d b515 edbc
000000a0: 7285 dbbc 621f 853d 713e b13d e106 8c3d
000000b0: fcc4 93bd 03c9 b43d 0daa 893b b98c d43d
000000c0: c7eb 95bd e979 9b3c a9b5 4bbd 3b6f be3d
000000d0: a0ab 173d 1599 89bd 34e8 35bd fe16 ecbd
000000e0: 853d efbd bfac ae3d 242e debd abfa b2bc
000000f0: 3901 df3c f124 f53d 8bdc 503e a743 df3c
00000100: d607 99bd faea 3cbe 49a3 143d a700 f6bd
00000110: b5ab fd3d 8d34 32be 6345 a53d 4581 673d
00000120: 7093 193e 78d7 02bd d6a9 38be a666 223e
00000130: 183d 2e3d c7c1 68be 916a 493e d67d a9bd
00000140: fe1b c33b 94d9 6c3e 0fbe 8abd a899 0cbe
00000150: b27b 613c bc50 96bd 22c0 b038 1514 cbbd
00000160: c43a a4bc 906b 97bd b1a7 02bb 1e9e b7bd
00000170: f217 ae3d f856 19bd 102e 20be df07 223e
00000180: e06b b23d 2baa 9a3d feee 95bd 478f 9abc
00000190: e8f9 2e3e c45b 813d 4820 6abe ada5 6a3d
000001a0: 6a42 0e3d 0ffd 453c 8729 e03d 3bad b73d
000001b0: 5e69 c9bd d968 9f3e 7c12 c0bd 27ea 923d
000001c0: e236 cdbd 4c9d 0fbd bf11 903d ff53 fbbb
000001d0: ba98 bbbd 8126 9d3d 4db6 ee3d 6927 573e
000001e0: 3a01 4d3d c0a0 233d 3adf 253e e6aa dd3a
000001f0: 859e 8cbb 65eb c8bc dc05 e9bd d3d0 5abe
00000200: 5426 f33d 2e7a 51bd 69e1 b4bc cb3b acbd
00000210: 6ca9 513d f7ec ca3d 74fa 2ebc e110 fb3d
00000220: 636f 443e 65a4 35be a109 1bbd 44f6 76be
00000230: 20e9 c1bd 15a9 0b3d 8481 0b3d 32f1 a0bd
00000240: 4109 d3bd 7584 f7bc 4254 95bd fcb0 1f3e
00000250: dbdd c7bc 6aa8 31be 9ed1 983d fef0 aabc
00000260: d62b 57be fd90 d43d 8877 62bc 2170 9ebd
00000270: 3351 193e e2c1 513e 43ac 983d 88bf 243e
00000280: 87b4 d63d 3952 0cbd 9e79 053e ad6f 0dbe
00000290: 8d7d 98bd fb01 f93d 2d15 063d bb3e b3bd
000002a0: a0b7 cd3d 0ae7 d6bd a642 0e3e 6e30 273e
000002b0: 4b73 703d 925b 563e ba1b e93d d4fc d53b
000002c0: fe5e 003e 9051 25bd b8a1 903e e6c7 babd
000002d0: aa59 bebd 3305 c1bc 3060 9dbc e836 513e
000002e0: 4d0a 463d dd72 dc3b d5ba a8bd 32e0 0ebe
000002f0: d7ab 053e 4938 99bd 44c8 32be 8908 6e3d
00000300: 5259 8dbd e734 c73c 6a2b 86bd 35f0 59be
00000310: 8e35 7ebd bb68 65bc 663e e9bc 1df7 e73d
00000320: fe86 84ba 04be 21b9 1b9a e53d 0e31 2cbe
00000330: 7d0f 123d fc91 213e 6105 23bd dcb9 03be
00000340: a5de bf3d d1dc f23d a366 5bbd 8c03 393e
00000350: a968 ef3b 90c0 11be ceb0 e6bd 3552 983d
00000360: 2212 3b3a 11d2 3ebc dace 34be 18d3 81bd
00000370: 94e0 113e 11f1 a63d f14b 4bbd cd1b 853d
00000380: 53ed 8dbe fde3 f9bc b2ec c8bc 4c61 0cbe
00000390: 87f0 03be d53e c53d 9b12 2a3e 6cd6 76be
000003a0: 0038 6bbd 56b7 2d3e a93a 103e 17e3 683d
000003b0: 986c d33d b553 803c 57eb b93d 359b 0f3e
000003c0: c50b b1bd 04ef f0bd ab8b de3d ade1 85bb
000003d0: 1fb0 73bc 2b59 173e c98c 1cbb 0289 7dbd
000003e0: 3c4d dcbd c0f2 d43d 44e4 44bd 9313 07be
000003f0: 4b89 afbb 81f5 983d f0a2 953b 82d2 163e

blocks.0.mha.in_proj_bias f4 [96]
-0.25248063 -0.42777002 -0.3968145 -0.3627399 -0.3002391 -0.2760301 0.6793123 -0.20585981
0.36465758 -0.32927373 0.3682798 -0.35346994 -0.022142671 0.10749335 -0.06820534 -0.17871726
-0.12125501 -0.03420244 0.02397952 0.27265513 0.067745864 -0.043296315 0.03080918 -0.121478856
0.0017051892 -0.17939942 0.1838999 -0.009318001 0.41095373 -0.037595037 0.1658349 0.10066569
2.1926195e-05 6.1007715e-05 -0.00013986751 2.6606536e-05 -4.5827586e-05 7.117635e-06 3.902083e-05 2.2823599e-05
6.197004e-05 7.656732e-05 2.6796926e-05 -3.121127e-05 -0.00012449363 -6.819847e-05 0.0001482508 0.00022737937
5.3828126e-06 0.00013473429 6.19228e-05 5.7138575e-05 0.0005792875 -0.0006178238 0.0006316396 0.0007241365
-4.952573e-05 -5.0719547e-05 4.6976867e-05 0.0001328388 1.9160721e-05 0.00011170832 2.0448404e-05 0.0003875554
0.027522905 -0.09936876 -0.3221368 -0.1328822 -0.066613056 0.12045661 -0.02084477 0.13403757
-0.09879363 0.32662293 0.047718693 0.10037228 0.013743832 0.09849691 -0.07880531 0.445676
0.11797191 0.071750775 -0.060738426 0.20901746 0.21827304 0.55170524 0.6532132 0.2642318
-0.3021685 0.24280512 -0.08485495 -0.10167887 -0.034092396 0.110878736 -0.09317482 -0.095796704
00000000: 2445 81be ac04 dbbe 452b cbbe 0bb9 b9be
00000010: f0b8 99be d153 8dbe 69e7 2d3f eacc 52be
00000020: 66b4 ba3e 9196 a8be 2c8f bc3e 03fa b4be
00000030: 8c64 b5bc 7925 dc3d 3eaf 8bbd a801 37be
00000040: 8c54 f8bd dc17 0cbd b370 c43c 7499 8b3e
00000050: 58be 8a3d 7a57 31bd 8963 fc3c e8c9 f8bd
00000060: a880 df3a 7bb4 37be 4150 3c3e 87aa 18bc
00000070: 8768 d23e 41fd 19bd a0d0 293e d029 ce3d
00000080: 25ee b737 89e2 7f38 66a9 12b9 1a31 df37
00000090: ff36 40b8 05d4 ee36 4caa 2338 4e75 bf37
000000a0: e9f5 8138 c492 a038 f6c9 e037 d9e8 02b8
000000b0: 818a 02b9 c605 8fb8 c573 1b39 af6c 6e39
000000c0: 029e b436 7647 0d39 8ddc 8138 14a8 6f38
000000d0: 53db 173a 74f5 21ba 9e94 253a fad3 3d3a
000000e0: d9b9 4fb8 b3bb 54b8 0709 4538 a54a 0b39
000000f0: 56bb a037 f344 ea38 9d88 ab37 ce30 cb39
00000100: b777 e13c d981 cbbd 1def a4be 4512 08be
00000110: 6d6c 88bd f5b1 f63d a7c2 aabc 2541 093e
00000120: 5154 cabd 1f3b a73e ad74 433d fb8f cd3d
00000130: cf2d 613c bfb8 c93d ae64 a1bd a52f e43e
00000140: 429b f13d 12f2 923d dbc8 78bd ac08 563e
00000150: f882 5f3e 8e3c 0d3f fb38 273f 6449 873e
00000160: d4b5 9abe e8a1 783e 6fc8 adbd 033d d0bd
00000170: 78a4 0bbd 6414 e33d 71d2 bebd 1031 c4bd

blocks.0.mha.out_proj.weight f4 [32, 32]
0.15720329 0.28229427 -0.028524537 0.058563598 0.006012716 0.026334224 -0.15838313 0.059440702
0.119862355 -0.09770385 0.21940704 0.23602481 0.0527804 0.005752192 0.043066517 -0.12518525
0.14951655 0.015740978 -0.014686955 -0.035626244 -0.072858445 -0.09149255 -0.16375288 0.030965518
-0.011025403 -0.09498822 -0.059577562 -0.06541071 0.080084085 -0.118178844 0.2071354 -0.089950226
0.10819882 0.20888464 -0.108723156 0.1094016 0.078404404 0.053102892 0.11936681 -0.123987146
-0.055329993 0.075764365 -0.16464552 0.055629995 0.10838822 0.08124581 0.040210266 0.00014084867
-0.041859075 0.14845558 -0.18052539 0.07411678 -0.035373583 0.22564156 0.15359229 -0.02148203
0.0120407045 0.05832011 0.13756429 -0.028410817 -0.0278202 -0.17335974 -0.057147436 0.06979557
-0.1092227 0.14361048 0.07987455 0.21876696 -0.052506868 0.070860445 0.18620652 -0.06862412
0.120050736 -0.19252859 -0.29955265 -0.085457474 -0.08245196 -0.029000355 0.0647118 0.11697828
0.048386138 -0.041267682 0.046960723 0.07193073 0.22007404 0.049431372 0.18929994 -0.023794742
-0.04646591 0.02952398 0.012044627 -0.008875395 0.16985984 0.14370865 0.027765427 -0.06368413
0.32685342 -0.2725261 0.0038986534 -0.38356936 0.04324205 -0.08507718 -0.10608025 -0.049368672
-0.01949184 -0.15615079 0.0466183 0.09646934 -0.07433486 0.043856423 0.14329454 -0.03924733
0.16380379 -0.19300139 -0.061344523 -0.091311336 0.095457226 -0.16109917 -0.081617184 -0.09908735
-0.04083643 -0.15296952 -0.10546874 -0.030162515 -0.06442701 -0.07313566 0.010242391 -0.021797244
0.17067523 0.09479716 0.1773079 0.014451145 -0.04988231 -0.17065646 -0.007176752 0.022737253
-0.16041026 -0.1378945 -0.18257713 -0.26471567 -0.058070973 -0.08784599 -0.025778584 0.037611593
-0.07754115 0.033330273 0.09613477 0.01081374 0.057366252 -0.17142633 -0.01294195 0.01541138
0.012764178 -0.1073654 0.09804795 -0.03811724 0.09220179 0.09912247 0.22796032 -0.048723556
0.33394796 -0.36367032 0.06539156 -0.18626362 -0.048622023 0.16527084 -0.019345691 0.20632638
-0.043111574 0.07201728 -0.023414569 0.20297886 0.1953101 0.18251275 -0.009983045 0.01366852
-0.2722576 0.21438378 0.055288352 -0.046936758 0.14559096 0.09647576 0.060862653 -0.059937734
0.06630659 0.108803265 0.13534905 -0.0343109 -0.08495674 -0.085201114 -0.009654375 0.033133306
0.21860713 -0.07053395 0.07863255 -0.20716499 0.14084512 -0.1772594 -0.028101275 0.053216726
0.032586418 -0.10328683 0.08450837 -0.04494316 -0.009148799 -0.08330546 -0.09680662 -0.008367134
0.09848552 -0.067231424 0.028675493 -0.11519231 -0.06908352 -0.14785984 -0.052199278 0.031971462
-0.022063049 -0.090759665 -0.041391585 0.029322162 -0.20016767 0.031309627 -0.102047354 0.054856215
0.23773445 -0.14620577 0.5613105 -0.46103394 0.32839 -0.44121042 -0.36329725 0.11379897
0.48867372 -0.0405463 0.28866646 0.34819695 -0.07867092 -0.08158304 -0.10661637 -0.04603544
0.10314311 -0.16536771 -0.16043644 -0.11100959 -0.08828572 -0.24927223 -0.24445565 -0.028568719
-0.014625423 0.0929654 -0.06625152 -0.10453986 0.051873364 -0.013936271 0.08560576 -0.0788728
00000000: e6f9 203e e088 903e 4aac e9bc 62e0 6f3d
00000010: 5106 c53b dfba d73c 302f 22be 1878 733d
00000020: 657a f53d f518 c8bd 3dac 603e 7db0 713e
00000030: 4330 583d e27c bc3b 8466 303d 9030 00be
00000040: de1a 193e 39f3 803c 8ea1 70bc d3ec 11bd
00000050: cf36 95bd 7260 bbbd d6ae 27be 66ab fd3c
00000060: e4a3 34bc 2f89 c2bd 9a07 74bd 0df6 85bd
00000070: 2003 a43d c007 f2bd 4d1b 543e d337 b8bd
00000080: 5897 dd3d dbe5 553e 3faa debd f20d e03d
00000090: 7d92 a03d 6b82 593d 9676 f43d f9ec fdbd
000000a0: b4a1 62bd 592a 9b3d d698 28be 47dc 633d
000000b0: a5fa dd3d 3464 a63d 85b3 243d c7b0 1339
000000c0: 6c74 2bbd bd04 183e a6db 38be 8aca 973d
000000d0: e4e3 10bd 950e 673e 4c47 1d3e 15fb afbc
000000e0: 6046 453c 11e1 6e3d a7dd 0c3e cdbd e8bc
000000f0: 30e7 e3bc 3785 31be 6e13 6abd fbf0 8e3d
00000100: 27b0 dfbd a00e 133e 4595 a33d 7204 603e
00000110: 7111 57bd 481f 913d ecac 3e3e cd8a 8cbd
00000120: 29dd f53d 3726 45be f75e 99be 5404 afbd
00000130: 93dc a8bd 2792 edbc 9f87 843d 4f92 ef3d
00000140: 8b30 463d 4d08 29bd e359 403d 6b50 933d
00000150: 175b 613e 8d78 4a3d d8d7 413e 31ed c2bc
00000160: 0a53 3ebd 46dc f13c d456 453c 1b6a 11bc
00000170: bdef 2d3e 5c28 133e 5274 e33c d36c 82bd
00000180: 5559 a73e 8a88 8bbe 8d80 7f3b 3463 c4be
00000190: 931e 313d f23c aebd 9a40 d9bd ce36 4abd
000001a0: 5aad 9fbc fee5 1fbe d5f2 3e3d b891 c53d
000001b0: e03c 98bd cba2 333d cebb 123e cfc1 20bd
000001c0: 2ebc 273e 28a2 45be 6544 7bbd 7001 bbbd
000001d0: 147f c33d 2ef7 24be e926 a7bd 4fee cabd
000001e0: 1a44 27bd 0ba4 1cbe ffff d7bd 6117 f7bc
000001f0: 4ff2 83bd 26c8 95bd b4cf 273c 2290 b2bc
00000200: 7dc5 2e3e 0325 c23d 3490 353e 7fc4 6c3c
00000210: 6551 4cbd 91c0 2ebe f62a ebbb 7a43 ba3c
00000220: 9642 24be 3734 0dbe 80f5 3abe d088 87be
00000230: d4db 6dbd 99e8 b3bd 9c2d d3bc 9d0e 1a3d
00000240: e5cd 9ebd 5385 083d 4ee2 c43d 1d2c 313c
00000250: e0f8 6a3d 628a 2fbe 790a 54bc 0380 7c3c
00000260: d820 513c 64e2 dbbd 5dcd c83d d320 1cbd
00000270: 4bd4 bc3d b900 cb3d 6e6e 693e 5a92 47bd
00000280: 3afb aa3e ff32 babe 03ec 853d e4bb 3ebe
00000290: e327 47bd c23c 293e db7a 9ebc 3947 533e
000002a0: c395 30bd cc7d 933d e9cf bfbc b1d9 4f3e
000002b0: 5fff 473e 9fe4 3a3e ed8f 23bc eef1 5f3c
000002c0: 5965 8bbe 6c87 5b3e 0a76 623d c240 40bd
000002d0: cc15 153e 1595 c53d 1e4b 793d 4581 75bd
000002e0: c0cb 873d 3fd4 de3d f198 0a3e 9689 0cbd
000002f0: cdfd adbd ec7d aebd 622d 1ebc cab6 073d
00000300: 8cda 5f3e 1b74 90bd 1a0a a13d 0f23 54be
00000310: b439 103e 7d83 35be a534 e6bc c8f9 593d
00000320: 5679 053d 0c88 d3bd b912 ad3d 5216 38bd
00000330: d8e4 15bc 0e9c aabd 8d42 c6bd 4e16 09bc
00000340: c7b2 c93d a1b0 89bd dee8 ea3c f2e9 ebbd
00000350: a97b 8dbd 9268 17be e9ce 55bd 82f4 023d
00000360: 91bd b4bc 34e0 b9bd 398a 29bd 0835 f03c
00000370: c1f8 4cbe 863e 003d 34fe d0bd e9b0 603d
00000380: a970 733e f7b6 15be 0cb2 0f3f a40c ecbe
00000390: bc22 a83e 55e6 e1be 1902 babe 6f0f e93d
000003a0: 7133 fa3e e113 26bd 17cc 933e df46 b23e
000003b0: 381e a1bd 0215 a7bd af59 dabd a88f 3cbd
000003c0: b23c d33d 2756 29be 7349 24be ff58 e3bd
000003d0: 25cf b4bd 3841 7fbe 9552 7abe f208 eabc
000003e0: 789f 6fbc a564 be3d e0ae 87bd fe18 d6bd
000003f0: 2a79 543d f554 64bc 1352 af3d 1088 a1bd

blocks.0.mha.out_proj.bias f4 [32]
-0.10636442 0.14405769 -0.035699416 0.024073979 -0.1990573 0.10859771 -0.06980394 -0.12937292
-0.036285456 0.07836859 -0.074362226 -0.24239141 -0.08265096 0.02312011 0.06102877 0.056185238
0.22243781 0.015153106 -0.04557418 0.01862634 -0.26028463 0.13500355 0.21344832 0.06564968
-0.083163865 0.14504479 -0.070995875 0.13908681 -0.014189218 0.056100406 0.11422657 -0.09940255
00000000: 97d5 d9bd dc83 133e 8d39 12bd cb36 c53c
00000010: add5 4bbe 7a68 de3d 5ef5 8ebd 567a 04be
00000020: 0fa0 14bd b67f a03d 394b 98bd 7435 78be
00000030: e844 a9bd 6366 bd3c 4ef9 793d 7e22 663d
00000040: bdc6 633e bc44 783c feab 3abd 4496 983c
00000050: 0744 85be 5f3e 0a3e 3292 5a3e 5773 863d
00000060: d151 aabd 9f86 143e 4966 91bd c66c 0e3e
00000070: e579 68bc 8ac9 653d 9fef e93d 9093 cbbd

blocks.0.ln.weight f4 [192, 32]
1.0 1.0 1.0 1.0 1.0 1.0 1.0 1.0
1.0 1.0 1.0 1.0 1.0 1.0 1.0 1.0
1.0 1.0 1.0 1.0 1.0 1.0 1.0 1.0
1.0 1.0 1.0 1.0 1.0 1.0 1.0 1.0
1.0 1.0 1.0 1.0 1.0 1.0 1.0 1.0
1.0 1.0 1.0 1.0 1.0 1.0 1.0 1.0
1.0 1.0 1.0 1.0 1.0 1.0 1.0 1.0
1.0 1.0 1.0 1.0 1.0 1.0 1.0 1.0
1.0 1.0 1.0 1.0 1.0 1.0 1.0 1.0
1.0 1.0 1.0 1.0 1.0 1.0 1.0 1.0
1.0 1.0 1.0 1.0 1.0 1.0 1.0 1.0
1.0 1.0 1.0 1.0 1.0 1.0 1.0 1.0
1.0 1.0 1.0 1.0 1.0 1.0 1.0 1.0
1.0 1.0 1.0 1.0 1.0 1.0 1.0 1.0
1.0 1.0 1.0 1.0 1.0 1.0 1.0 1.0
1.0 1.0 1.0 1.0 1.0 1.0 1.0 1.0
1.0 1.0 1.0 1.0 1.0 1.0 1.0 1.0
1.0 1.0 1.0 1.0 1.0 1.0 1.0 1.0
1.0 1.0 1.0 1.0 1.0 1.0 1.0 1.0
1.0 1.0 1.0 1.0 1.0 1.0 1.0 1.0
1.0 1.0 1.0 1.0 1.0 1.0 1.0 1.0
1.0 1.0 1.0 1.0 1.0 1.0 1.0 1.0
1.0 1.0 1.0 1.0 1.0 1.0 1.0 1.0
1.0 1.0 1.0 1.0 1.0 1.0 1.0 1.0
1.0 1.0 1.0 1.0 1.0 1.0 1.0 1.0
1.0 1.0 1.0 1.0 1.0 1.0 1.0 1.0
1.0 1.0 1.0 1.0 1.0 1.0 1.0 1.0
1.0 1.0 1.0 1.0 1.0 1.0 1.0 1.0
1.0 1.0 1.0 1.0 1.0 1.0 1.0 1.0
1.0 1.0 1.0 1.0 1.0 1.0 1.0 1.0
1.0 1.0 1.0 1.0 1.0 1.0 1.0 1.0
1.0 1.0 1.0 1.0 1.0 1.0 1.0 1.0
00000000: 0000 803f 0000 803f 0000 803f 0000 803f
00000010: 0000 803f 0000 803f 0000 803f 0000 803f
00000020: 0000 803f 0000 803f 0000 803f 0000 803f
00000030: 0000 803f 0000 803f 0000 803f 0000 803f
00000040: 0000 803f 0000 803f 0000 803f 0000 803f
00000050: 0000 803f 0000 803f 0000 803f 0000 803f
00000060: 0000 803f 0000 803f 0000 803f 0000 803f
00000070: 0000 803f 0000 803f 0000 803f 0000 803f
00000080: 0000 803f 0000 803f 0000 803f 0000 803f
00000090: 0000 803f 0000 803f 0000 803f 0000 803f
000000a0: 0000 803f 0000 803f 0000 803f 0000 803f
000000b0: 0000 803f 0000 803f 0000 803f 0000 803f
000000c0: 0000 803f 0000 803f 0000 803f 0000 803f
000000d0: 0000 803f 0000 803f 0000 803f 0000 803f
000000e0: 0000 803f 0000 803f 0000 803f 0000 803f
000000f0: 0000 803f 0000 803f 0000 803f 0000 803f
00000100: 0000 803f 0000 803f 0000 803f 0000 803f
00000110: 0000 803f 0000 803f 0000 803f 0000 803f
00000120: 0000 803f 0000 803f 0000 803f 0000 803f
00000130: 0000 803f 0000 803f 0000 803f 0000 803f
00000140: 0000 803f 0000 803f 0000 803f 0000 803f
00000150: 0000 803f 0000 803f 0000 803f 0000 803f
00000160: 0000 803f 0000 803f 0000 803f 0000 803f
00000170: 0000 803f 0000 803f 0000 803f 0000 803f
00000180: 0000 803f 0000 803f 0000 803f 0000 803f
00000190: 0000 803f 0000 803f 0000 803f 0000 803f
000001a0: 0000 803f 0000 803f 0000 803f 0000 803f
000001b0: 0000 803f 0000 803f 0000 803f 0000 803f
000001c0: 0000 803f 0000 803f 0000 803f 0000 803f
000001d0: 0000 803f 0000 803f 0000 803f 0000 803f
000001e0: 0000 803f 0000 803f 0000 803f 0000 803f
000001f0: 0000 803f 0000 803f 0000 803f 0000 803f
00000200: 0000 803f 0000 803f 0000 803f 0000 803f
00000210: 0000 803f 0000 803f 0000 803f 0000 803f
00000220: 0000 803f 0000 803f 0000 803f 0000 803f
00000230: 0000 803f 0000 803f 0000 803f 0000 803f
00000240: 0000 803f 0000 803f 0000 803f 0000 803f
00000250: 0000 803f 0000 803f 0000 803f 0000 803f
00000260: 0000 803f 0000 803f 0000 803f 0000 803f
00000270: 0000 803f 0000 803f 0000 803f 0000 803f
00000280: 0000 803f 0000 803f 0000 803f 0000 803f
00000290: 0000 803f 0000 803f 0000 803f 0000 803f
000002a0: 0000 803f 0000 803f 0000 803f 0000 803f
000002b0: 0000 803f 0000 803f 0000 803f 0000 803f
000002c0: 0000 803f 0000 803f 0000 803f 0000 803f
000002d0: 0000 803f 0000 803f 0000 803f 0000 803f
000002e0: 0000 803f 0000 803f 0000 803f 0000 803f
000002f0: 0000 803f 0000 803f 0000 803f 0000 803f
00000300: 0000 803f 0000 803f 0000 803f 0000 803f
00000310: 0000 803f 0000 803f 0000 803f 0000 803f
00000320: 0000 803f 0000 803f 0000 803f 0000 803f
00000330: 0000 803f 0000 803f 0000 803f 0000 803f
00000340: 0000 803f 0000 803f 0000 803f 0000 803f
00000350: 0000 803f 0000 803f 0000 803f 0000 803f
00000360: 0000 803f 0000 803f 0000 803f 0000 803f
00000370: 0000 803f 0000 803f 0000 803f 0000 803f
00000380: 0000 803f 0000 803f 0000 803f 0000 803f
00000390: 0000 803f 0000 803f 0000 803f 0000 803f
000003a0: 0000 803f 0000 803f 0000 803f 0000 803f
000003b0: 0000 803f 0000 803f 0000 803f 0000 803f
000003c0: 0000 803f 0000 803f 0000 803f 0000 803f
000003d0: 0000 803f 0000 803f 0000 803f 0000 803f
000003e0: 0000 803f 0000 803f 0000 803f 0000 803f
000003f0: 0000 803f 0000 803f 0000 803f 0000 803f

blocks.0.ln.bias f4 [192, 32]
0.0 0.0 0.0 0.0 0.0 0.0 0.0 0.0
0.0 0.0 0.0 0.0 0.0 0.0 0.0 0.0
0.0 0.0 0.0 0.0 0.0 0.0 0.0 0.0
0.0 0.0 0.0 0.0 0.0 0.0 0.0 0.0
0.0 0.0 0.0 0.0 0.0 0.0 0.0 0.0
0.0 0.0 0.0 0.0 0.0 0.0 0.0 0.0
0.0 0.0 0.0 0.0 0.0 0.0 0.0 0.0
0.0 0.0 0.0 0.0 0.0 0.0 0.0 0.0
0.0 0.0 0.0 0.0 0.0 0.0 0.0 0.0
0.0 0.0 0.0 0.0 0.0 0.0 0.0 0.0
0.0 0.0 0.0 0.0 0.0 0.0 0.0 0.0
0.0 0.0 0.0 0.0 0.0 0.0 0.0 0.0
0.0 0.0 0.0 0.0 0.0 0.0 0.0 0.0
0.0 0.0 0.0 0.0 0.0 0.0 0.0 0.0
0.0 0.0 0.0 0.0 0.0 0.0 0.0 0.0
0.0 0.0 0.0 0.0 0.0 0.0 0.0 0.0
0.0 0.0 0.0 0.0 0.0 0.0 0.0 0.0
0.0 0.0 0.0 0.0 0.0 0.0 0.0 0.0
0.0 0.0 0.0 0.0 0.0 0.0 0.0 0.0
0.0 0.0 0.0 0.0 0.0 0.0 0.0 0.0
0.0 0.0 0.0 0.0 0.0 0.0 0.0 0.0
0.0 0.0 0.0 0.0 0.0 0.0 0.0 0.0
0.0 0.0 0.0 0.0 0.0 0.0 0.0 0.0
0.0 0.0 0.0 0.0 0.0 0.0 0.0 0.0
0.0 0.0 0.0 0.0 0.0 0.0 0.0 0.0
0.0 0.0 0.0 0.0 0.0 0.0 0.0 0.0
0.0 0.0 0.0 0.0 0.0 0.0 0.0 0.0
0.0 0.0 0.0 0.0 0.0 0.0 0.0 0.0
0.0 0.0 0.0 0.0 0.0 0.0 0.0 0.0
0.0 0.0 0.0 0.0 0.0 0.0 0.0 0.0
0.0 0.0 0.0 0.0 0.0 0.0 0.0 0.0
0.0 0.0 0.0 0.0 0.0 0.0 0.0 0.0
00000000: 0000 0000 0000 0000 0000 0000 0000 0000
00000010: 0000 0000 0000 0000 0000 0000 0000 0000
00000020: 0000 0000 0000 0000 0000 0000 0000 0000
00000030: 0000 0000 0000 0000 0000 0000 0000 0000
00000040: 0000 0000 0000 0000 0000 0000 0000 0000
00000050: 0000 0000 0000 0000 0000 0000 0000 0000
00000060: 0000 0000 0000 0000 0000 0000 0000 0000
00000070: 0000 0000 0000 0000 0000 0000 0000 0000
00000080: 0000 0000 0000 0000 0000 0000 0000 0000
00000090: 0000 0000 0000 0000 0000 0000 0000 0000
000000a0: 0000 0000 0000 0000 0000 0000 0000 0000
000000b0: 0000 0000 0000 0000 0000 0000 0000 0000
000000c0: 0000 0000 0000 0000 0000 0000 0000 0000
000000d0: 0000 0000 0000 0000 0000 0000 0000 0000
000000e0: 0000 0000 0000 0000 0000 0000 0000 0000
000000f0: 0000 0000 0000 0000 0000 0000 0000 0000
00000100: 0000 0000 0000 0000 0000 0000 0000 0000
00000110: 0000 0000 0000 0000 0000 0000 0000 0000
00000120: 0000 0000 0000 0000 0000 0000 0000 0000
00000130: 0000 0000 0000 0000 0000 0000 0000 0000
00000140: 0000 0000 0000 0000 0000 0000 0000 0000
00000150: 0000 0000 0000 0000 0000 0000 0000 0000
00000160: 0000 0000 0000 0000 0000 0000 0000 0000
00000170: 0000 0000 0000 0000 0000 0000 0000 0000
00000180: 0000 0000 0000 0000 0000 0000 0000 0000
00000190: 0000 0000 0000 0000 0000 0000 0000 0000
000001a0: 0000 0000 0000 0000 0000 0000 0000 0000
000001b0: 0000 0000 0000 0000 0000 0000 0000 0000
000001c0: 0000 0000 0000 0000 0000 0000 0000 0000
000001d0: 0000 0000 0000 0000 0000 0000 0000 0000
000001e0: 0000 0000 0000 0000 0000 0000 0000 0000
000001f0: 0000 0000 0000 0000 0000 0000 0000 0000
00000200: 0000 0000 0000 0000 0000 0000 0000 0000
00000210: 0000 0000 0000 0000 0000 0000 0000 0000
00000220: 0000 0000 0000 0000 0000 0000 0000 0000
00000230: 0000 0000 0000 0000 0000 0000 0000 0000
00000240: 0000 0000 0000 0000 0000 0000 0000 0000
00000250: 0000 0000 0000 0000 0000 0000 0000 0000
00000260: 0000 0000 0000 0000 0000 0000 0000 0000
00000270: 0000 0000 0000 0000 0000 0000 0000 0000
00000280: 0000 0000 0000 0000 0000 0000 0000 0000
00000290: 0000 0000 0000 0000 0000 0000 0000 0000
000002a0: 0000 0000 0000 0000 0000 0000 0000 0000
000002b0: 0000 0000 0000 0000 0000 0000 0000 0000
000002c0: 0000 0000 0000 0000 0000 0000 0000 0000
000002d0: 0000 0000 0000 0000 0000 0000 0000 0000
000002e0: 0000 0000 0000 0000 0000 0000 0000 0000
000002f0: 0000 0000 0000 0000 0000 0000 0000 0000
00000300: 0000 0000 0000 0000 0000 0000 0000 0000
00000310: 0000 0000 0000 0000 0000 0000 0000 0000
00000320: 0000 0000 0000 0000 0000 0000 0000 0000
00000330: 0000 0000 0000 0000 0000 0000 0000 0000
00000340: 0000 0000 0000 0000 0000 0000 0000 0000
00000350: 0000 0000 0000 0000 0000 0000 0000 0000
00000360: 0000 0000 0000 0000 0000 0000 0000 0000
00000370: 0000 0000 0000 0000 0000 0000 0000 0000
00000380: 0000 0000 0000 0000 0000 0000 0000 0000
00000390: 0000 0000 0000 0000 0000 0000 0000 0000
000003a0: 0000 0000 0000 0000 0000 0000 0000 0000
000003b0: 0000 0000 0000 0000 0000 0000 0000 0000
000003c0: 0000 0000 0000 0000 0000 0000 0000 0000
000003d0: 0000 0000 0000 0000 0000 0000 0000 0000
000003e0: 0000 0000 0000 0000 0000 0000 0000 0000
000003f0: 0000 0000 0000 0000 0000 0000 0000 0000

blocks.0.ffn.0.weight f4 [192, 32]
0.766941 0.9513245 0.65589964 1.2800013 1.0967898 0.77750146 0.7472786 1.2450222
0.81433916 0.9841572 1.0243846 1.2329572 0.8599917 0.9426181 0.8945451 0.9625827
0.97704643 0.5217148 0.9142345 1.3942492 0.79733336 0.95168215 1.1098093 0.745253
0.95519847 0.698932 1.0376382 0.9087664 0.9505696 0.7586426 0.96939534 0.9290095
1.1139692 0.7605598 1.0257837 0.91174287 0.6468798 0.89600104 0.8111782 0.9394505
0.9442091 1.2364722 0.8225568 1.0540843 0.97858006 1.0409733 1.3487433 0.5010884
0.9859413 0.9033747 0.9556071 1.459479 1.0205709 1.0593797 0.9525916 0.9194255
0.7463787 0.7837709 1.3668226 0.99340224 0.9896838 1.1349002 0.5650997 1.0464185
1.029611 0.69531524 1.3681961 0.9240464 0.7512368 0.88297033 1.0742704 0.64226353
1.28411 0.85328674 0.9233814 1.0582539 0.76061594 0.8998409 0.87284803 1.2056758
1.3740356 1.2857602 1.0581709 0.6370574 1.3439369 0.89566576 1.6768736 0.89353937
0.81642497 0.6885052 1.2104663 1.3038989 0.88519603 0.8398975 1.0136676 1.0020283
0.7081447 0.6357867 1.1617001 0.90337217 0.73783374 0.5824492 1.0912493 0.9327465
1.1042114 0.9579499 1.0284954 0.96397257 1.235958 1.0206325 1.1635498 0.6398292
0.9213079 0.7809156 0.959883 0.8672853 1.6655346 1.0299221 1.4669255 1.2608944
0.92839366 0.97693294 0.958317 1.2063228 0.93704915 0.90079945 0.99898493 0.94505847
1.2022907 0.75993097 1.0470284 1.1645255 1.2801315 0.904619 1.0182301 0.9495496
0.8973653 0.7744575 1.1601433 0.9909681 0.8366884 1.242606 0.7942661 1.163995
0.97039133 0.57958734 0.6803023 0.4723304 0.5033622 0.84025556 1.287784 0.5655457
0.4446538 0.99343723 0.89406615 1.2053372 0.9243158 0.21043415 0.7719794 0.90670866
0.8904174 0.63787955 1.19318 0.9791941 0.8491983 0.7909412 0.70329946 0.6067727
1.0465848 0.80689824 1.1121709 1.2635595 0.79021615 1.2367942 0.98034334 1.0049562
0.78095764 0.23805895 1.0620657 0.61894447 0.50053084 1.0558819 0.9144593 1.1602203
1.0353391 1.1447666 2.218359 0.836306 0.9392132 1.0697689 1.1572424 1.1314838
1.1782799 0.7610039 1.4007113 0.805797 1.4179171 0.9616008 0.3085816 0.8005231
0.9987876 0.56663895 0.9926419 0.7974135 0.8540489 1.0430492 0.7676587 0.5747346
0.83851355 0.89937264 1.005851 0.6787614 0.9021249 1.5787433 1.1255088 0.95293796
0.56132203 1.2652813 0.8207174 0.8828983 1.0071084 0.769608 0.32222578 1.1402282
0.8877687 1.0850642 1.0488051 1.0230929 1.0397451 0.79829687 0.8990382 0.8849376
0.9491529 1.1203216 1.0150096 1.0033196 0.97763646 1.2332584 1.1250615 0.9325707
0.95263493 1.1645429 1.2329477 0.8313462 1.180706 0.9420156 0.9712726 0.9441175
0.95873106 1.1224613 0.9003096 0.9020451 0.9269041 0.8205683 1.2731082 0.71436405
00000000: 3f56 443f 018a 733f 0ae9 273f 15d7 a33f
00000010: 9c63 8c3f 560a 473f a64d 3f3f e35c 9f3f
00000020: 8878 503f baf1 7b3f 091f 833f 8bd1 9d3f
00000030: 6b28 5c3f 6b4f 713f e800 653f d26b 763f
00000040: b71f 7a3f 1a8f 053f 460b 6a3f c276 b23f
00000050: 0a1e 4c3f 71a1 733f 3b0e 8e3f e7c8 3e3f
00000060: e387 743f 35ed 323f 54d1 843f eaa4 683f
00000070: 8858 733f 6736 423f 4b2a 783f 91d3 6d3f
00000080: 8b96 8e3f 0cb4 423f e14c 833f fb67 693f
00000090: ea99 253f 5360 653f 60a9 4f3f d47f 703f
000000a0: b0b7 713f b944 9e3f 1593 523f 3cec 863f
000000b0: 3984 7a3f 9d3e 853f 9fa3 ac3f 5447 003f
000000c0: a666 7c3f 9043 673f aba2 743f 35d0 ba3f
000000d0: 11a2 823f c199 873f 0bdd 733f 785f 6b3f
000000e0: ad12 3f3f 36a5 483f 0bf4 ae3f 9c4f 7e3f
000000f0: eb5b 7d3f 6944 913f 60aa 103f 0bf1 853f
00000100: 4bca 833f 2e00 323f 0d21 af3f 4e8e 6c3f
00000110: 0e51 403f 580a 623f b181 893f 626b 243f
00000120: b75d a43f 0071 5a3f b962 6c3f dd74 873f
00000130: bab7 423f f95b 663f f872 5f3f 9653 9a3f
00000140: 66e0 af3f ca93 a43f 2572 873f 3216 233f
00000150: 2006 ac3f 5a4a 653f cba3 d63f ffbe 643f
00000160: 3a01 513f e041 303f 8ff0 9a3f 29e6 a63f
00000170: 359c 623f 8603 573f dcbf 813f 7742 803f
00000180: f948 353f ebc2 223f 97b2 943f 6643 673f
00000190: ace2 3c3f 641b 153f 0fae 8b3f 7ac8 6e3f
000001a0: cd56 8d3f 343c 753f bda5 833f e8c6 763f
000001b0: df33 9e3f 16a4 823f 33ef 943f d9cb 233f
000001c0: d6da 6b3f 16ea 473f e4ba 753f 6906 5e3f
000001d0: 3d30 d53f 7dd4 833f 37c4 bb3f fd64 a13f
000001e0: 35ab 6d3f 4718 7a3f 4354 753f c968 9a3f
000001f0: 74e2 6f3f cb9a 663f 7abd 7f3f 5aef 713f
00000200: a9e4 993f d68a 423f 0705 863f 2c0f 953f
00000210: 59db a33f 1c95 673f 5d55 823f af15 733f
00000220: bbb9 653f d942 463f 937f 943f 16b0 7d3f
00000230: 3631 563f b70d 9f3f 0655 4b3f cafd 943f
00000240: 916b 783f d65f 143f 4b28 2e3f 4ad5 f13e
00000250: 58dc 003f fd1a 573f 1bd6 a43f 9ac7 103f
00000260: aaa9 e33e e751 7e3f 85e1 643f 7d48 9a3f
00000270: f69f 6c3f 0d7c 573e 71a0 453f 0f1e 683f
00000280: 65f2 633f 134c 233f 1fba 983f 77ac 7a3f
00000290: 0f65 593f 1f7b 4a3f 6f0b 343f 7555 1b3f
000002a0: 7ef6 853f e290 4e3f 9e5b 8e3f 51bc a13f
000002b0: 9b4b 4a3f 464f 9e3f c8f7 7a3f 68a2 803f
000002c0: d7ec 473f bac5 733e c5f1 873f 2573 1e3f
000002d0: ca22 003f 2327 873f 011a 6a3f 1982 943f
000002e0: fe85 843f b687 923f 98f9 0d40 2618 563f
000002f0: 4770 703f 30ee 883f 8520 943f 76d4 903f
00000300: e0d1 963f 27d1 423f 824a b33f b648 4e3f
00000310: 4f7e b53f 782b 763f 68fe 9d3e 15ef 4c3f
00000320: 8bb0 7f3f 400f 113f c81d 7e3f 4b23 4c3f
00000330: f3a2 5a3f a382 853f 4885 443f cf21 133f
00000340: d3a8 563f 493d 663f babf 803f 4fc3 2d3f
00000350: a8f1 663f 4314 ca3f ac10 903f bef3 733f
00000360: cdb2 0f3f bdf4 a13f 891a 523f 9f05 623f
00000370: eee8 803f 0805 453f c7fa a43e fff2 913f
00000380: cf44 633f 62e3 8a3f 3f3f 863f b5f4 823f
00000390: 5e16 853f 2f5d 4c3f 5e27 663f 458b 623f
000003a0: affb 723f b366 8f3f d6eb 813f c76c 803f
000003b0: 6246 7a3f 69db 9d3f 0402 903f f4bc 6e3f
000003c0: e2df 733f be0f 953f 3bd1 9d3f 1bd3 543f
000003d0: 6021 973f ef27 713f 52a5 783f afb1 713f
000003e0: 666f 753f d0ac 8f3f b17a 663f 6dec 663f
000003f0: 9649 6d3f c410 523f 36f5 a23f 90e0 363f

blocks.0.ffn.0.bias f4 [192, 32]
-0.12812226 -0.22149996 -0.009945718 -0.0038208037 -0.009770923 -0.14818297 -0.052824136 -0.16172461
-0.21934886 0.13246188 -0.029878015 -0.4661796 0.16640674 -0.4627193 -0.10895525 -0.010749192
-0.024263617 0.1389014 0.07960856 -0.12940611 -0.0421808 -0.013351251 0.4815272 -0.18030515
-0.16445984 -0.21351168 -0.037672903 0.26079816 -0.31620508 0.09737403 0.09176522 -0.08941163
0.069922715 0.06825914 -0.021768661 0.34489015 0.21044353 0.38059077 0.094507895 -0.05409386
0.06078559 -0.1022874 0.37746766 -0.35075065 0.089601874 0.12591164 0.2535394 -0.29715738
-0.20199119 0.084158145 0.07833041 -0.21911338 -0.1286692 0.107251085 0.40294275 0.08256821
0.5332479 -0.25954688 0.71922636 -0.209606 -0.4089157 -0.4957505 0.13645406 -0.0467898
-0.08434759 -0.30689493 0.5888251 -0.008687506 0.4025006 0.26238307 -0.3045347 0.4237201
-0.07217361 0.011695865 -0.1353286 -0.3822894 0.34779918 -0.14289024 0.17735545 -0.094871335
0.18776664 -0.110069476 0.09958279 -0.031239685 -0.7631476 -0.14989553 0.7591103 -0.06276718
0.18547428 -0.45418465 0.32743493 0.35606596 -0.29632595 -0.11365042 -0.052073725 0.20258805
-0.37802306 -0.39782822 0.1597048 -0.064183556 0.40752736 0.21286269 -0.6053446 0.06842046
0.18886992 -0.05483035 -0.036604874 -0.46167353 0.35055202 -0.068263985 0.43928865 -0.23369233
0.0805888 0.11702212 0.13043974 -0.03457815 -1.1616613 -0.09861634 0.6143763 0.040796075
0.35121986 -0.6520979 0.12916245 0.3263392 -0.17377779 -0.33128995 -0.31893587 0.12729175
-0.29755995 -0.116838664 0.06113955 -0.16080023 -0.045507092 0.0030895723 0.013606996 0.12958902
-0.12247071 -0.45594338 0.038103428 -0.31673047 0.19049709 -0.1398933 -0.1630721 -0.07850828
-0.073101655 0.21594097 0.2506473 0.6397593 0.16314168 -0.02730293 0.45014986 0.42938077
-0.055661578 -0.005601605 0.16054814 0.26280725 -0.21996099 0.6093867 0.16660924 -0.03151368
0.09174045 -0.15594086 0.85772 0.0008551697 0.14521572 0.6350996 0.3975491 0.2461255
0.4577211 -0.2797669 0.0944191 -0.84594357 -0.00746999 0.32776484 -0.18371655 -0.35291472
-0.21148814 -1.0277603 0.5712584 0.29520625 -0.16068864 0.08850563 -0.011526335 0.6254112
-0.17591032 0.054287225 1.2446529 -0.6894417 -0.26789877 -0.46307045 0.2874907 -0.14880587
0.30227068 -0.33653483 0.43029994 -0.030788917 -0.13007858 0.2432944 0.29101253 0.02000495
0.2604618 -0.54280925 0.13276626 -0.23315938 -0.11123186 0.18683264 -0.071167685 -0.30028743
-0.22753948 -0.018225702 0.59411025 0.34813133 -0.12314506 0.3215355 0.26477596 0.1365044
-0.14420514 0.29465804 0.35351765 -0.17248112 -0.025066787 -0.12012116 0.10231631 -0.0518503
0.31058362 -0.24729043 0.15376657 -0.043660793 -0.075775355 0.17962256 0.30306926 -0.08722978
-0.34078044 -0.4866643 -0.26888055 -0.29603103 0.46093777 0.20365256 -0.2529721 -0.102405034
-0.10987178 0.06537955 -0.07473925 0.35779238 -0.29947898 0.14030169 0.42233688 -0.32477796
0.13888755 -0.019350182 0.30928972 0.11966101 -0.27551064 0.11669213 0.38638875 0.30233163
00000000: 7b32 03be e3d0 62be 5df3 22bc 7366 7abb
00000010: 3916 20bc 47bd 17be 1f5e 58bd 239b 25be
00000020: fd9c 60be 16a4 073e bdc2 f4bc 18af eebe
00000030: 8766 2a3e 8be9 ecbe ee23 dfbd 611d 30bc
00000040: 7ec4 c6bc 2b3c 0e3e d009 a33d 0983 04be
00000050: c6c5 2cbd 35bf 5abc bc8a f63e eaa1 38be
00000060: 2968 28be cea2 5abe e74e 1abd 5687 853e
00000070: a2e5 a1be 096c c73d 67ef bb3d 721d b7bd
00000080: a433 8f3d 73cb 8b3d 3154 b2bc 7195 b03e
00000090: 827e 573e cbdc c23e 5b8d c13d 8691 5dbd
000000a0: 50fa 783d 0e7c d1bd 7143 c13e 9795 b3be
000000b0: 3081 b73d fbee 003e ebcf 813e 0325 98be
000000c0: c7d6 4ebe 1b5b ac3d b26b a03d 425f 60be
000000d0: dcc1 03be 75a6 db3d 834e ce3e 8619 a93d
000000e0: ef82 083f 54e3 84be 381f 383f f5a2 56be
000000f0: 665d d1be 02d3 fdbe 9dba 0b3e a9a6 3fbd
00000100: 6ebe acbd 5521 9dbe 3ebd 163f 0b56 0ebc
00000110: 8f14 ce3e 1357 863e f9eb 9bbe d7f1 d83e
00000120: c2cf 93bd 03a0 3f3c 9593 0abe 70bb c3be
00000130: bc12 b23e d251 12be ab9c 353e e74b c2bd
00000140: e645 403e 1b6c e1bd 10f2 cb3d 5eea ffbc
00000150: a45d 43bf 377e 19be 0d55 423f 148c 80bd
00000160: f8ec 3d3e e48a e8be 8da5 a73e 474e b63e
00000170: 09b8 97be 8dc1 e8bd 424b 55bd 3e73 4f3e
00000180: 3d8c c1be 24b0 cbbe a889 233e ab72 83bd
00000190: 6da7 d03e adf8 593e ddf7 1abf 0720 8c3d
000001a0: 1e67 413e ca95 60bd feee 15bd 7960 ecbe
000001b0: 8e7b b33e fdcd 8bbd 71ea e03e 0b4d 6fbe
000001c0: be0b a53d 4ba9 ef3d ff91 053e d1a1 0dbd
000001d0: 51b1 94bf 5df7 c9bd c447 1d3f c919 273d
000001e0: 17d3 b33e e3ef 26bf 2943 043e ee15 a73e
000001f0: cef2 31be d69e a9be 904b a3be c558 023e
00000200: c759 98be 1c49 efbd 776d 7a3d d1a8 24be
00000210: a565 3abd 6c7a 4a3b e1ef 5e3c fcb2 043e
00000220: ecd1 fabd 6971 e9be 5712 1c3d 7f2a a2be
00000230: ab11 433e 3040 0fbe 5ffc 26be f3c8 a0bd
00000240: 52b6 95bd a11f 5d3e d854 803e 44c7 233f
00000250: 9d0e 273e 65aa dfbc 0b7a e63e ccd7 db3e
00000260: 65fd 63bd ab8d b7bb bb66 243e ac8e 863e
00000270: 743d 61be c400 1c3f 9d9b 2a3e 7d14 01bd
00000280: 6be2 bb3d f6ae 1fbe 8a93 5b3f 782d 603a
00000290: 6eb3 143e e395 223f 8e8b cb3e 5308 7c3e
000002a0: 6c5a ea3e 9b3d 8fbe cd5e c13d c28f 58bf
000002b0: d1c6 f4bb cbd0 a73e 3120 3cbe 3db1 b4be
000002c0: 5990 58be a68d 83bf fe3d 123f 4625 973e
000002d0: 908b 24be 7142 b53d f4d8 3cbc f31a 203f
000002e0: d621 34be 485c 5e3d c950 9f3f 407f 30bf
000002f0: 072a 89be 9217 edbe fb31 933e 9160 18be
00000300: 39c3 9a3e 4b4e acbe 4650 dc3e 0a39 fcbc
00000310: 5233 05be 2b22 793e 98ff 943e 6ce1 a33c
00000320: 405b 853e 8cf5 0abf e1f3 073e 55c1 6ebe
00000330: 88cd e3bd 0e51 3f3e 5dc0 91bd 46bf 99be
00000340: 1c00 69be 114e 95bc 9c17 183f 453e b23e
00000350: 7a33 fcbd 4da0 a43e b790 873e cfc7 0b3e
00000360: 83aa 13be 6bdd 963e 4400 b53e e49e 30be
00000370: dd58 cdbc 1502 f6bd 378b d13d fb60 54bd
00000380: d104 9f3e b439 7dbe fc74 1d3e a9d5 32bd
00000390: 1c30 9bbd faee 373e e52b 9b3e 87a5 b2bd
000003a0: c67a aebe 102c f9be b6aa 89be 6191 97be
000003b0: 0900 ec3e 4c8a 503e 8f85 81be bbb9 d1bd
000003c0: 7504 e1bd b7e5 853d e410 99bd 9030 b73e
000003d0: 4f55 99be 3fab 0f3e 8a3c d83e 4c49 a6be
000003e0: 8a38 0e3e 4684 9ebc 395b 9e3e d510 f53d
000003f0: bb0f 8dbe 49fc ee3d bfd4 c53e 36cb 9a3e
