models/experiment_BCH_N63_K45_transformer_d=32_N=2_nomask_lr=0.0003_epochs=200.pth (torch, 275251 bytes, 32 tensors)

embedding f4 [81, 32]
00000000: 84f7 4abe bde1 e8bc 674d 8dbe ec0d 83bd
00000010: 38dd c3bd eab6 98be 6693 8cbe 64ca 863d
00000020: d863 53bd 05cf 45bc b1c2 563d 5227 dbbd
00000030: 71fc ad3d 2d7f 02bd 0eb4 f43c d308 063e
00000040: 91e4 993e 1235 84be 6723 47be c0b4 87bd
00000050: 99c1 09be 6e8e 353e 0a7a 123e 30eb fb3d
00000060: c167 193c 05f0 8ebd 0913 053e d170 85be
00000070: 538b 913e f234 72be adc9 acbd b975 90bd
00000080: 22b2 37be 37a3 9b3e 5889 10be 572c b8be
00000090: 5e02 5a3e 6738 e9bd 8186 c0be 7eae 51be
000000a0: d64c 8f3e 546d 9b3d 3392 6cbe b244 6f3d
000000b0: 0b7a b33e e2c1 6c3e 0c69 32bd bd3f 40bc
000000c0: fa1f 1e3e 3976 6bbd 3c12 d2be 5b8f 5b3d
000000d0: 1123 743d 2ef2 a93e f351 cabd 2263 b73d
000000e0: 8e42 7ebd 8084 6ebe 3477 0b3e c9fa 1cbe
000000f0: 03b8 6e3d 4af1 52be e4ba 89be bebb 03be
00000100: 128d 6dbe aa9f 633e 3810 af3e 8288 7a3e
00000110: 1134 edbd ebcd 20bd 517b 88bd 5abc d6ba
00000120: c808 efbd dfee 9ebd 6caf 7dbe 0ed1 923e
00000130: bda5 31bd 49a8 113e 7b31 97be b827 0a3d
00000140: eb4a d73b 6465 773e 414f bdbe 5097 8fbd
00000150: c5b0 81be dbe6 a03e 5f77 41bc a64f d8bd
00000160: 5c77 a73d a1e3 313e a9d2 f4bd ff55 8e3c
00000170: 2fc3 85be 26c9 51be 2067 253e 2f31 95bd
00000180: b368 883d 36d7 a73e 2a2d c03b 61bf 833e
00000190: 0e7e 96bc 9794 0abe 1c8b 86be 2962 83bc
000001a0: 38d5 f13d 9792 89bd b730 063e 6fd6 233e
000001b0: 3c8b 833d 2e24 023d c321 94bd f269 85bc
000001c0: cb62 c1bd 1809 d8be 44ac 76bc 473f d83c
000001d0: adcf f5bb 3b0f 1e3e 9665 e53b 5d0d 15be
000001e0: 2e13 63be 7465 babe 4bae a9bd ef68 74be
000001f0: 23d2 89be b500 b43e 20a7 cfbe 32b2 ef3d
00000200: ba2c fd3d 89b8 2f3c 9da3 833e 9d46 09bd
00000210: 3f1f 693e 87d1 c2bd 8a10 9abd 9207 debe
00000220: e01a 373d 319b e0be c5db 713d c7fb f93a
00000230: 2bf2 dabd 87fa 01be a0ef a2be 5e90 87bd
00000240: 237f e9bc da29 ae3e ce9e be3e 0394 293e
00000250: b499 c9bb cd0e 9cbe 3a1c 133c 1402 d73e
00000260: 14e3 adba 4464 eebd 8c3a 04ba d56a d13e
00000270: 7522 1c3b 0d27 d1bd 8351 a93e 357a 8c3e
00000280: 263d 38be 350e ab3d c63b 0e3e b4a3 363e
00000290: 257f 7abd 3153 adbd 3d22 743c 5bec a13e
000002a0: e69d 013e b0b7 dbbd 7504 5b3d 4f67 c3bd
000002b0: 1087 de3d 41d9 f93d 9e1d 873b ce68 97be
000002c0: 6f86 043d 775c 45bd b384 363e af21 9abd
000002d0: 3266 733e e75f cd3c 44ab 183e fe2e 91bd
000002e0: cb81 3f3d 6c76 a8bd be53 1dbe b9c5 723e
000002f0: 2d3a 6cbe abde efbd 7015 adbe eb14 863d
00000300: 8c89 d03e 9031 a73d 8e5f fe3c 7f78 313e
00000310: 33aa 263d 74a2 7cbe 68d8 b2bb 9b84 553e
00000320: 623e 6cbe d8f2 7cbe 8b1b d03c 2d18 97be
00000330: 8c92 2d3e e9d6 323d 23a4 aebd 97fe 6d3d
00000340: 9e7b 8cbe 1bf2 26be 8044 923d 3b24 8d3d
00000350: c7fd b43e 7561 81bd 5b27 a23c 42c4 f2bd
00000360: 95a2 97be dd3d 8c3d c834 68be 5017 5c3e
00000370: 2f5f 47bd bb65 123e e00a 7f3e a892 1f3d
00000380: 6b64 2f3e 4320 313e 2726 973c 8c57 9b3d
00000390: 60ac b6bd 179c 6b3e 2c38 71be 1d7e 08be
000003a0: 6e97 efbc f20a 9bbd 0b28 91be da14 55bd
000003b0: d681 2a3e 76d4 c2bd 0311 99bd e1a7 48be
000003c0: a2e1 c43d 382c 903d c54d 80bb 359d 743e
000003d0: f02c ccbd 4644 993e e98c 4fbe b86d 85bb
000003e0: 333c 86be 8207 01be a21d 5dbe 7cd8 7cbe
000003f0: eb24 8bbe 3156 4fbe 2f73 9fbe aecb a83e
-0.19820982 -0.028427953 -0.27598116 -0.0639914 -0.095636785 -0.29827052 -0.27456206 0.06581572
-0.05160889 -0.012073283 0.052431766 -0.10700859 0.08495415 -0.031859566 0.029871013 0.13089304
0.30057195 -0.2582174 -0.19447099 -0.06626272 -0.13452758 0.17730114 0.14304367 0.12300718
0.009363116 -0.06979374 0.12995543 -0.26062635 0.28426608 -0.2365301 -0.08436904 -0.07053704
-0.17939046 0.3039796 -0.14114892 -0.3597133 0.21289966 -0.11387711 -0.37602618 -0.2047672
0.2798831 0.07589212 -0.23102646 0.058415122 0.3505405 0.23120835 -0.04355721 -0.011733946
0.15441886 -0.057485793 -0.41029537 0.05360351 0.059603754 0.3319258 -0.09878912 0.08954455
-0.06207519 -0.23292732 0.13619691 -0.15330042 0.058280956 -0.20599857 -0.269004 -0.12864587
-0.23198345 0.22228876 0.3419206 0.24466136 -0.115821965 -0.03925888 -0.06664146 -0.0016383037
-0.11671597 -0.07760405 -0.2477395 0.2867512 -0.04337095 0.14224352 -0.29529938 0.033729285
0.00657021 0.24159771 -0.36974528 -0.070112824 -0.25330177 0.3142613 -0.011808245 -0.10562067
0.08177063 0.1737199 -0.11954243 0.01737499 -0.26125476 -0.20486888 0.1615262 -0.07284772
0.06660595 0.3278138 0.005864759 0.25731948 -0.018370654 -0.13533245 -0.26278007 -0.016038017
0.118082464 -0.06717413 0.1310452 0.15999769 0.06423041 0.031772785 -0.07233002 -0.01628587
-0.094426714 -0.42194438 -0.01505572 0.02639736 -0.0075015635 0.15435497 0.0070006354 -0.14555879
-0.22175285 -0.36405528 -0.08285197 -0.23868154 -0.26918134 0.3515679 -0.40557194 0.1170391
0.123620465 0.010725149 0.25710765 -0.033514608 0.22765826 -0.095126204 -0.07522686 -0.4336515
0.044703364 -0.43868402 0.05904748 0.0019072228 -0.10690721 -0.12693225 -0.31823444 -0.06619333
-0.028503006 0.34016305 0.37230533 0.16560368 -0.006152356 -0.30480042 0.008978898 0.41993773
-0.0013266527 -0.11640218 -0.00050441246 0.4090182 0.002382425 -0.102125265 0.3307 0.27436987
-0.17992076 0.08352319 0.1388999 0.17835885 -0.06115641 -0.08463133 0.014900741 0.31625637
0.1265789 -0.10728395 0.053471047 -0.09541189 0.10865605 0.12199641 0.0041234037 -0.29572147
0.03235477 -0.048183884 0.17824058 -0.07525956 0.23769453 0.025070144 0.14909083 -0.07089041
0.04675464 -0.08225712 -0.15363976 0.23708238 -0.23069067 -0.117123924 -0.33805418 0.065469585
0.4072994 0.0816375 0.031051423 0.17331122 0.04068966 -0.24671346 -0.0054579265 0.20851366
-0.23070672 -0.24702013 0.025403759 -0.29510632 0.16950434 0.043661986 -0.085274 0.058104124
-0.27438062 -0.16303293 0.071419716 0.06891676 0.35349867 -0.063174166 0.019794157 -0.118538395
-0.29616228 0.06847737 -0.22676384 0.21493268 -0.04867476 0.1429662 0.24906492 0.03895822
0.1712815 0.17297463 0.01845081 0.075850576 -0.08919597 0.23008762 -0.23556584 -0.13329358
-0.029247012 -0.07570447 -0.28350863 -0.05202184 0.16651091 -0.0951318 -0.07473948 -0.1959529
0.096133485 0.07039684 -0.003915521 0.23888095 -0.09969509 0.299349 -0.20268597 -0.0040719174
-0.26217803 -0.1260052 -0.21593335 -0.24691957 -0.27176604 -0.20247723 -0.31142566 0.32967895

blocks.0.W_QKV f4 [32, 96]
00000000: a8d2 b43d 8849 5fbe 7a00 eebc 2dbf 38bd
00000010: 7e0d 483e a7d5 82bb b5e1 463d e888 36be
00000020: 974b b43c 73a8 23be 294f 07be 4aed 01be
00000030: 8e23 6b3e 00d4 1bbe e764 90be 5483 86bc
00000040: 226b 303d 12fd b83d 69af cdbe a2ab 333e
00000050: 395e ebbc 68a8 00be 481a 203d b347 a53d
00000060: e822 eebb a2e4 8b3c 1660 b6bd 051e 2e3d
00000070: 1543 ae3d 4155 dfbd 91e1 2d3d 608a 453e
00000080: c36d 67bc 9d7d 993e 8f50 503e 2f45 1abe
00000090: fd0e 92be e6ae c13d 8e22 c1bd e010 4fbe
000000a0: 1378 613e c7be 74be a851 3c3e f25d 83be
000000b0: da2d 1dbe 38b4 343e 407b 02bc 97f7 46bd
000000c0: 6dbb b53c 8cad 4ebe b964 58be 8aab 2abe
000000d0: 4cc2 43be 8735 7cbe b1ce 363e 5c9a bfbd
000000e0: 281c 10bd a90a 22bd 4438 70be 0962 cd3d
000000f0: ee45 023e ff52 fe3d 6952 ee3c 7689 97be
00000100: caca 0b3e c21f b63d 7a24 5b3d ef83 f83d
00000110: b493 85be 7d1d f6bd 772d 1fbe 8279 3a3c
00000120: 2fdf b93c c032 27be 1682 eabc 9049 0abc
00000130: 070c 723e b4af 57bd 9b91 493e 1da2 443d
00000140: 6b1d 4b3d b6b7 c03d 9a3e 19be bf1c 01be
00000150: f2ab 6dbe b491 053e eba2 1b3d 232b f0bc
00000160: 0145 58be bc96 e23d 21df 07bd 818d 9a3c
00000170: a32d 49be 0fd6 7dbd c004 a63d 92e7 3fbe
00000180: b5ed 753b dd05 cf3c fa80 313e 592f 95bd
00000190: af41 413d d340 813d d3b6 2e3d 7e4d 883e
000001a0: 8f2c 36bd 7dac 853e 42f6 243e efff 92be
000001b0: 9aad 12be ea97 8c3e cb0d 853d b23a 42be
000001c0: 9c48 eb3d 19da fdbd 007a 25be 1a82 323e
000001d0: 4ad0 3bbd e118 9fbe 199d 173e 00cb af3d
000001e0: 88f1 9d3d d059 4cbe c4a9 26be 1ea2 783d
000001f0: 20f7 a6bd db4a c63d d718 e5bd 9bbf 953e
00000200: 3826 e23e 2291 d13e 0e86 633e e8f0 abbe
00000210: eca8 00bf 5b43 27be c9c8 93be 47db 993e
00000220: a470 6dbe 9401 6abd ae5b ecbd 3e0c 8b3d
00000230: c423 aa3e c230 1b3e 1106 b53d ab1f da3d
00000240: f843 1f3d 6bdf 573e 7667 7a3e f8bf 7cbd
00000250: 90a1 cfbe 4c3e 85be 8800 303e 179f d43e
00000260: 2454 3ebe 8bd0 be3e 676a 713c c612 a4bd
00000270: 29fd a83c 25ec 823a f2e8 2cbe e417 d5be
00000280: b826 eabd 4035 43be fd07 29bd 0ed3 01be
00000290: 3db6 ac3d 7291 6cbc 299e a2be a89b 0bbe
000002a0: 5d71 423e 34ef edbd 60d8 2d3d 4827 02be
000002b0: bcb0 69bc c48e 553e 8e20 313e b7d9 833d
000002c0: 22ee f43c ce46 1ebe 0994 dbbc 46d7 d73d
000002d0: fa4a 84bd 6fe1 463d 2e0a adbc a003 8d3e
000002e0: c7a6 a13d 90b3 df3c a89d a7bd 0c37 373e
000002f0: c2aa 86bd c522 2ebe 2f82 393e 592a 29be
00000300: b055 5cbe 7f3c 7bbe bcab d43d d1a5 05be
00000310: e472 d43d 16ae 96bd 7093 fabd acf1 9ebd
00000320: e964 a8bd 1a40 853e 574d a3bd d857 b2be
00000330: c429 793d 0a40 0b3e 804a 9cbe a3e9 38be
00000340: f51e 9b3e d9cc 3abd 435f bcbd c89a fabc
00000350: a18b 91be 4b6d 47be 0935 5abb d565 fb3d
00000360: a6c1 023e da01 cdbd 1b3d 183c e01b 593e
00000370: 48bb 193e f4a7 bd3d 61df de3d 3b55 553d
00000380: 867f 893d ea56 2dbe 6a47 413d abd9 7d3d
00000390: 6dc4 103e d09a 25bd c1ef e43d 7a28 7f3d
000003a0: d09f 2bbd 78f8 c8bc 1c36 0ebe 7629 acbd
000003b0: 1b56 493e 1eaa 963d 89b1 b7bc adf2 01bd
000003c0: 79c6 9b3d 26d7 e4bd 4088 f4bd 047c 903d
000003d0: 153f 793d 9620 713d d1d8 90bd 8e78 12be
000003e0: 2b90 e63c 4462 933d 41b0 b6be beaa 79be
000003f0: aa7a 13bd d8a1 003e d715 4bbe b52d 6b3e
0.08829242 -0.21805394 -0.029052962 -0.045104194 0.19536397 -0.0039927545 0.048555095 -0.17825663
0.0220087 -0.15982227 -0.13213791 -0.12688175 0.22962782 -0.1521759 -0.28201982 -0.016420044
0.04307092 0.09032644 -0.4017289 0.17545941 -0.028731452 -0.12564242 0.039087564 0.08070316
-0.0072673447 0.017076794 -0.08905046 0.042509098 0.08508889 -0.10904933 0.042451445 0.19291067
-0.01412529 0.29978648 0.2034323 -0.15065454 -0.2852706 0.09457187 -0.09430419 -0.20221281
0.22018461 -0.23900901 0.18390524 -0.25657612 -0.15349522 0.17646873 -0.007963955 -0.048575964
0.022184098 -0.2018339 -0.21132173 -0.16667 -0.19117087 -0.24629794 0.17852284 -0.093556136
-0.035183102 -0.039560948 -0.23458964 0.10028464 0.12721989 0.12418174 0.02909203 -0.29597062
0.13651577 0.08892776 0.053501584 0.12134539 -0.2608925 -0.12017343 -0.15544687 0.011381509
0.02268943 -0.16327953 -0.028626483 -0.00844039 0.236374 -0.052657798 0.1968445 0.048006166
0.049588602 0.0941004 -0.14965287 -0.12608622 -0.23210123 0.13043863 0.037997168 -0.029317444
-0.21120073 0.110639066 -0.033171777 0.018866302 -0.19646315 -0.06197172 0.08106375 -0.18740681
0.0037525718 0.02527135 0.17334357 -0.072844215 0.04718178 0.06311192 0.042654824 0.26621622
-0.044476088 0.2610816 0.16109565 -0.28710887 -0.14324036 0.2745965 0.064967714 -0.18967703
0.114884585 -0.123951145 -0.1615982 0.17432442 -0.045852937 -0.3107367 0.14806022 0.08583641
0.07712084 -0.19956136 -0.16275698 0.060701482 -0.08152604 0.09682246 -0.111863784 0.29247746
0.44169784 0.4093104 0.22219107 -0.33582234 -0.50257754 -0.16334288 -0.28864124 0.30050108
-0.231875 -0.05713041 -0.11540924 0.067894444 0.33230412 0.15155318 0.08839048 0.106505714
0.03888318 0.21081321 0.2445353 -0.061706513 -0.4055295 -0.2602409 0.17187703 0.41527626
-0.18586785 0.3726848 0.014734841 -0.08011393 0.020628529 0.000998859 -0.16885737 -0.4161979
-0.11433166 -0.19063282 -0.041267384 -0.12678167 0.08433197 -0.014438974 -0.31761292 -0.13633597
0.18988557 -0.1161789 0.04244268 -0.12710297 -0.014263328 0.20855242 0.17297575 0.0643801
0.029898707 -0.15456697 -0.026803987 0.10539107 -0.06459613 0.048554834 -0.021123018 0.27541828
0.078931384 0.027307302 -0.081843674 0.17892092 -0.06575538 -0.17005451 0.18116067 -0.1652006
-0.21517062 -0.24534796 0.10384318 -0.13051535 0.10373476 -0.07357423 -0.12235153 -0.07760939
-0.08222372 0.26025468 -0.07973736 -0.34832644 0.060830846 0.13598648 -0.3052559 -0.18057875
0.30297056 -0.045605514 -0.09197857 -0.030591384 -0.2842684 -0.19475286 -0.0033295772 0.12275282
0.12769184 -0.10010119 0.009291912 0.2120204 0.15012848 0.0926055 0.1088245 0.052083235
0.06713776 -0.16927686 0.047187246 0.061975162 0.1413743 -0.040430844 0.11178542 0.06229446
-0.041900456 -0.024532542 -0.13887829 -0.084063455 0.19661753 0.07356666 -0.022423523 -0.031725574
0.07606215 -0.11173849 -0.1194005 0.07054904 0.060851175 0.058868967 -0.070726044 -0.143038
0.028144917 0.07196477 -0.35681346 -0.24381539 -0.036005653 0.12561738 -0.1983255 0.22966655

blocks.0.mha.in_proj_weight f4 [96, 32]
00000000: c310 9f3d 0fe3 29be b269 7abc f837 6dbd
00000010: 1fdd 0abe e353 cabc 6eb0 123e a5b8 a03d
00000020: d61b 34be 5f62 9cb9 4e31 ce3c 9a67 c83d
00000030: a7fe 533e 0df1 253e 0d04 0d3e be79 303e
00000040: 47ee 963c 3d0b 843d 78ac 84bd fc0d e23c
00000050: b9bb 3abd 72fe b4bd ac54 42bd ee87 ffbd
00000060: 8840 26bd 8d82 e4bc cb44 f4bd 56d2 52be
00000070: a646 31bc f38f 893d 467b f73d b5f9 f83d
00000080: 7952 c2bd 2143 23be 1bee 973d c55c 083e
00000090: 2afc 28be 8c26 b13d 440c a03d 27e2 633c
000000a0: d73a aebc 2d5b e33d 5e15 133e e7e5 313c
000000b0: 4ddd adbd a73e b63d 18ef 21bd 6a44 6f3d
000000c0: 75bd fabd aedb d73d 9a41 16bc 0fb9 8d3d
000000d0: 0f76 59bb 8cd8 503d 066a 9bbd 3ad0 8cbd
000000e0: 9ae4 2fbc 3d3a 8f3b 6377 aebb 68d9 8b3d
000000f0: b4a4 893d 52de b33d 7b2c 913d 2483 683d
00000100: c4ec fabb 06da 1dbe f47a 503d 4c9d cabc
00000110: 6194 1a3e 8311 5abe 7b97 da3d 2159 093e
00000120: b4ad ad3b 852b f13c 4149 17be a012 333e
00000130: d666 243d 2b3c 2bbe 25e3 4d3e d36c dbbd
00000140: b5e6 91bc 7fd8 7c3e 8d09 e3bd de41 c6bd
00000150: 9196 093c e450 1dbd c9a6 7c3d 2457 b5bd
00000160: 8000 083d e18e a1bd 5be1 5ebd aa80 32be
00000170: ce74 e73d cb86 243a c5e6 44be 756c 103e
00000180: 9947 203e 4d24 0abd ba55 d4bd 7d18 2d3d
00000190: 82a8 663e babb 633d fa07 debd 6bb5 0a3e
000001a0: 6af6 95bd dd5a 0e3c e92c fe3d 0459 0c3e
000001b0: f58d 2dbe 7b82 603e 05ac 14be 4511 af3c
000001c0: 1069 f3bd 65fc bebc 3eb6 08bd e5ee a1bd
000001d0: 3f4a a7bc d669 333d 6c4f 293e c362 8e3d
000001e0: 325d 013e 1ac2 903d 68cc 033e 801c 90bb
000001f0: be80 993c 4976 b03b bcd7 46be 7dfd 35be
00000200: 8f5b 0f3d 4f9d c83d b4cc 083f f398 bebf
00000210: 2d31 8c3f be73 8abd e218 bcbe 2342 a83f
00000220: b636 a13e 520d 0e3f 10fd 46bf defa e2bf
00000230: e2a7 0dbe c5e7 a43f 1e1c b0bf fc48 fbbf
00000240: d00b b63f 34e3 5b3f ec13 b7bf 08d9 c23f
00000250: 76b8 d2bf bfeb 92be 4862 e7be 448e a73f
00000260: 45bb e63a 6d03 59bf 4158 92bf c53e 313f
00000270: ca02 403d 2200 ecbe 0537 9a3f 1da9 a73f
00000280: 9bc3 133e a442 38be 64f8 02bf cd88 bd3f
00000290: 6ebc bcbf b42f 933e ffb4 b83e 1dff b6bf
000002a0: 8f7d 2dbd f1e5 6ebf ae9c 423f 65c7 0240
000002b0: 96e6 0e3d 014c cdbf 8f5b d53f 33ee 0a40
000002c0: 80ec c8bf 2254 84bf b594 df3f bca8 c2bf
000002d0: f886 d93f 2f84 583e 0e30 1a3f d36a b2bf
000002e0: 2d06 a23c cdd9 903f 7bfe c83f 6f44 81bf
000002f0: 9614 723e fef2 4c3f ef20 ccbf 6e3b aebf
00000300: 3703 d8bd ed38 153e fc17 1c3f 50d7 f1bf
00000310: bfad b13f 6ed1 51be a934 eebe 995b cd3f
00000320: ca32 463e f658 733f 253f 15bf cb10 12c0
00000330: d455 b63c 4085 e63f 4917 efbf 186a 22c0
00000340: 04ff 0140 07ec a83f 6ea0 ecbf fd98 d93f
00000350: 61e8 ffbf 266f a8be 99b8 21bf fa87 de3f
00000360: 17e6 40be 674b 91bf 5d9a edbf 8e11 903f
00000370: e8c3 db3d 8e5e 3abf 9b0a c73f 7ca8 c33f
00000380: b71e f7bd d937 1ebe a3bc 1ebf be6c b73f
00000390: 59ba b8bf 0186 903e 2bcc 013f 7e3f bfbf
000003a0: bee6 1dbe d65a 31bf 1513 4e3f 690d 0040
000003b0: 950b 583e 8ad0 c2bf cbf1 db3f 3dee 1640
000003c0: 701e ecbf c5e6 93bf c93a d13f 5eec acbf
000003d0: 2cb9 d83f 1d7e 643e ff60 173f 8b7f bebf
000003e0: 49b0 203c 833c 9b3f e83a cf3f 9999 8abf
000003f0: fc89 3e3d f8ce 433f 8098 a7bf 7e53 92bf
0.07766869 -0.16590522 -0.015283989 -0.057914704 -0.13560914 -0.024698203 0.14325115 0.07847718
-0.17588744 -0.0002982793 0.025169995 0.097853854 0.20702611 0.16205235 0.13771077 0.17233941
0.018424166 0.06447456 -0.06478208 0.027594559 -0.045589183 -0.08837594 -0.04744403 -0.124770984
-0.040588886 -0.027894283 -0.11927184 -0.2058805 -0.010820067 0.06716909 0.120840594 0.12157003
-0.09488387 -0.15943576 0.07418462 0.13316639 -0.16502443 0.0864993 0.078148395 0.013908899
-0.021268291 0.11101375 0.1436362 0.010858036 -0.084894754 0.08898669 -0.03953466 0.058414854
-0.12243167 0.105399475 -0.009170914 0.06920063 -0.003318194 0.050987765 -0.07588582 -0.068756536
-0.010735655 0.004370956 -0.0053242906 0.06828576 0.06720868 0.087826386 0.07088562 0.05676569
-0.007657619 -0.154152 0.050898507 -0.024733208 0.15095665 -0.21295743 0.10673424 0.13412906
0.005300248 0.029439697 -0.14774038 0.17487574 0.040137134 -0.16722171 0.2010618 -0.10714116
-0.017810205 0.24691962 -0.11085806 -0.09680532 0.008397714 -0.03840722 0.061682496 -0.088545114
0.0332036 -0.0788858 -0.054414134 -0.17431894 0.113015756 0.0006276189 -0.19228657 0.14103873
0.15652312 -0.033726025 -0.103679135 0.042259682 0.22525218 0.055598952 -0.10841365 0.13545768
-0.073223904 0.008688656 0.1241091 0.13705832 -0.16948684 0.21924774 -0.14518745 0.02137054
-0.118852735 -0.02331371 -0.033376925 -0.07906894 -0.020421145 0.043802105 0.16534203 0.06952431
0.12633207 0.07068272 0.12870944 -0.0043979287 0.018738147 0.0053851944 -0.19418234 -0.1777248
0.034999426 0.09795629 0.5343735 -1.4890426 1.0952507 -0.06760357 -0.36737734 1.3145183
0.31487054 0.55489075 -0.7772989 -1.7732809 -0.13833573 1.288323 -1.3758581 -1.9631648
1.4222355 0.8589356 -1.4302955 1.5222483 -1.6462543 -0.28695485 -0.4519217 1.3090291
0.0017603418 -0.8477085 -1.1433183 0.69236404 0.04687766 -0.4609385 1.2048041 1.3098484
0.14430086 -0.17994171 -0.51160264 1.4807373 -1.4745004 0.28747332 0.3607559 -1.4296604
-0.04235607 -0.9331961 0.76020324 2.04342 0.034887873 -1.603882 1.6668566 2.1707885
-1.5697174 -1.0338175 1.7467257 -1.5207744 1.6994314 0.21144174 0.60229576 -1.393885
0.019778335 1.1316468 1.5702661 -1.0099009 0.23640665 0.80058277 -1.594755 -1.3611887
-0.10547488 0.14572497 0.609741 -1.8893833 1.3881148 -0.20490047 -0.46524552 1.6043578
0.19355312 0.9505762 -0.58299476 -2.282275 0.022257723 1.8009415 -1.8678981 -2.5377254
2.03119 1.319703 -1.8486459 1.6999813 -1.9992791 -0.328973 -0.631723 1.7385247
-0.18837772 -1.1351136 -1.8562733 1.1255357 0.107307255 -0.7280053 1.5550112 1.5285792
-0.12066405 -0.15450992 -0.62006587 1.433006 -1.4431869 0.28227237 0.5070216 -1.4941251
-0.15420052 -0.6927923 0.80497867 2.0008185 0.21098168 -1.5219891 1.7183164 2.358291
-1.8446789 -1.15548 1.6346065 -1.3509634 1.693151 0.22313733 0.5913238 -1.4882673
0.009807655 1.2127842 1.6189852 -1.0828124 0.04651831 0.76487684 -1.3093414 -1.143173

blocks.0.mha.in_proj_bias f4 [96]
00000000: ed97 e33e ae48 863e 56d9 a23e bfd2 09be
00000010: 9f11 00bc 5673 303d 6776 36bc 99ac d3bc
00000020: 7276 87be 64e8 07be 1ff2 913e 4389 19be
00000030: cc38 9ebe 6d1d 5dbe 3ea0 95be 99a4 8abe
00000040: 0828 d63c fc6f 0ebe 7462 13be 6628 f1bd
00000050: e521 c83c 10d3 ab3d 10bb c4bd 0932 e2be
00000060: 1744 cd3d 83de 89be 81d0 2bbe 69b5 13be
00000070: f38c d33d 35a2 1b3f e940 f6be e1e3 1fbe
00000080: 3802 ad36 b15d 6e38 846c 54b8 4390 8638
00000090: cb66 d8b8 aad6 1e39 2c33 f5b8 69d3 0739
000000a0: b3a0 2438 38af e3b8 b626 55b8 02d3 5638
000000b0: c550 ceb6 c95b 1b38 7377 abb8 73e3 4a38
000000c0: 267c 3339 fa39 4eb9 d5a2 e6b8 eb30 76b9
000000d0: 180b 30b9 dc16 0139 8049 69b8 9339 27b8
000000e0: 0e8e fb37 441d a038 a228 b7b6 f207 9338
000000f0: 0b28 0cb8 790c 82b8 9540 ea38 3e90 14b8
00000100: 7a9a 4bbd ea8d 48bc 02cb ad3d 359c 0e3d
00000110: 9dab 57bc 080c f93c ccc9 143e eec8 2ebd
00000120: 24d5 5a3d cfbf 3dbd c17e aa3c 1d1f 283e
00000130: aced 1ebd e282 3a3d a731 96bd e392 55bd
00000140: db7c 113d e05c 1a3d 73c0 e03d 6680 283e
00000150: dd16 8bbc 2c51 28be 8d5a 7d3d 1c01 f13d
00000160: 30dc 8a3d 738c b93c e564 1ebe f36b 393d
00000170: fcc9 1c3e facd 05be f83d 22be f26f 823d
0.44451848 0.26227325 0.3180644 -0.134593 -0.007816701 0.043078743 -0.011136628 -0.025839137
-0.26457554 -0.13272244 0.28505036 -0.14993767 -0.30902708 -0.21593256 -0.29223818 -0.27078703
0.026142135 -0.13909906 -0.14393026 -0.117752835 0.024430225 0.08389866 -0.09605992 -0.441788
0.10022753 -0.26927575 -0.16778757 -0.14424671 0.10329618 0.60794383 -0.48096398 -0.15614273
5.15606e-06 5.683088e-05 -5.0645802e-05 6.416489e-05 -0.00010318829 0.00015148023 -0.00011692042 0.0001295336
3.925031e-05 -0.000108568405 -5.081921e-05 5.1218092e-05 -6.148681e-06 3.704036e-05 -8.1761646e-05 4.837238e-05
0.00017117019 -0.00019667289 -0.000109975845 -0.00023478612 -0.000167888 0.00012310914 -5.561998e-05 -3.9869523e-05
2.9987681e-05 7.634846e-05 -5.4585553e-06 7.010986e-05 -3.3415894e-05 -6.201206e-05 0.00011170019 -3.5420286e-05
-0.049707867 -0.012240866 0.08485986 0.03481694 -0.013163474 0.030401245 0.14530104 -0.04267209
0.053425923 -0.0463255 0.020812394 0.16418119 -0.03880088 0.045534976 -0.07333689 -0.052142035
0.035519462 0.03768623 0.10974207 0.1645523 -0.016978675 -0.16437215 0.061853934 0.1176779
0.06780279 0.02264998 -0.15468176 0.045268964 0.15311426 -0.13066855 -0.15843952 0.06369008

blocks.0.mha.out_proj.weight f4 [32, 32]
00000000: 9934 283e 4918 c93d e60f 98bc 0bc2 70bc
00000010: 767b d1bb e949 383a e843 b63c a224 3c3e
00000020: 5e3d a53d 2c98 91bd 9658 ea3d 7c54 4e3d
00000030: 70f5 273d 2e50 e43d b705 ad3d b67f 3abd
00000040: 8b0a 9e3d 52b1 ae3d 7b33 5ebd daec 45bd
00000050: 45e9 1fbd 1493 b83d 643d 06be 2ec7 0d3b
00000060: 1155 c0bd 01e8 633c 6a1e 85bd c00d 05be
00000070: a43b 3fbd e9a1 84be c867 e03d e3cb 03bb
00000080: 2145 693e 563f cebd 0f47 523e 0e12 2cbe
00000090: cdc6 9d3d 89a9 d73c 7a6d 6cbd db43 8f3d
000000a0: 0a15 9f3d 0e97 a8bd 3756 19bd db1f e03d
000000b0: b9f8 343e 4575 52bd 24b7 853d c420 b53d
000000c0: 4077 aa3d 8f8d 9ebc 8f64 6fbd eb20 66bd
000000d0: 16d6 a0bd 9f67 e63d 05e7 25be eb14 b53d
000000e0: 50f3 463d 481e 553d d743 813c d6f5 2ebe
000000f0: 11ef b03e f217 f4be f227 6fbe dd9b b3be
00000100: daf3 643e 2ee6 7f3e 51c1 1e3e 7a5b e8bd
00000110: 9afe 1dbe 5a1a 88ba bd4e 1f3d 8143 1fbd
00000120: 3522 173e 930b 54be 7a74 62be 8a4f 28be
00000130: 8587 43be 2267 d5bc 151e 263e 3d78 123e
00000140: ff44 edbd 96f1 69bd ebb3 5ebd 27dc 8e3c
00000150: 9f51 8b3d 0cdc 3d3d 633d c23d b7fd 33be
00000160: fffa 0ebe de54 d1bc 3b6a 38bd 7b40 30bc
00000170: da1f f13e b31e 65bd c4fd 94be 88b0 0f3d
00000180: b987 733e 9129 0e3c 1567 30bd a3f5 2cbe
00000190: 08c5 aa3c 1cb8 71bb 90f7 023d 01f0 8cbd
000001a0: 3a83 96bc 1066 e1bd 23fa 43be f414 db3c
000001b0: 5813 a5bd 6cb7 60be 72ce 9a3e 9690 c4bc
000001c0: 6ca7 393d daeb b2bd 60de ea3b 6d54 68bd
000001d0: 675d 3fbc 015f f3bd e96e 33bd c36b c538
000001e0: dd27 cdbd 4027 323c 43d7 76bd d806 e9bd
000001f0: 6dac f1bd 0bab 49be 3e4c 8cbd 4a33 23be
00000200: ffa5 443d e9d3 01bd f27f 9dbc ce63 febb
00000210: d331 2abe 7d41 193a 0c7c 0abd 3190 38be
00000220: d4c7 37be 803a 49bd 7407 fcbc 3904 4f3c
00000230: 1f54 cbbb b354 82be 1c11 b5bc e76e 96be
00000240: cf9a 37bd 8868 00bd ae1c 3f3d bd75 3b3e
00000250: 997c b03d 8828 1dbe 3e40 233e 314b e2bd
00000260: bed4 c33d 79a0 ccbd e7ee 2e3e 5e1b 2fbd
00000270: c115 1d3d 38b0 ae3e d362 563e 4e08 ecbc
00000280: 70be 763e b2d1 243d 191d 9f3b 9100 0abc
00000290: f4af 77bc 68b2 3b3d cf9e 3a3c 63c9 343e
000002a0: 7754 b53d 99b2 e8bd ed53 293c ef2b 3dbd
000002b0: c1da 003e 076f 993d 4b3d d33d 2914 4a3c
000002c0: 1c2a 21be 4c14 6f3d 423b 9a3d de1d 8abd
000002d0: 151d b33c 35c3 fd3c 78bf 2b3d c255 89bd
000002e0: 7e26 03bd 4e68 efbc 5a5b 953c 1ae7 c9bd
000002f0: 21f7 183e c799 8539 b4d1 afbc 6771 b93c
00000300: cd00 583d 5c3d f93c bd2f ae3d d9dd 36be
00000310: e18b 22bd 26cc 083d 92c2 b63c 1e37 f53d
00000320: 0085 6abd e9ca 7cbd 26b8 b73d f7fd cfbc
00000330: c385 e3bb 901e a1bd 691f 2bbe 6521 d63c
00000340: a55d 5fbe b004 0e3d cd5a c5bd 7b2a cabd
00000350: 1b99 9ebd 0147 04be 192f 553b 1cf8 813d
00000360: cdbd 61bd b414 a13c a522 f9bd f9d7 05be
00000370: 516a 233d 6a85 b0bb d8d0 7cbe 1f98 82be
00000380: 4dc4 0abe 09c7 debb 93c4 6c3d ec5d aabd
00000390: dc8f 19bd 326f 9ebc 7570 a9bc 1585 f93d
000003a0: eacf 073e 7faa f13d d340 e23d 12d1 973d
000003b0: cc5e 6a3e 0ca6 08bc d62d 12be 5202 10be
000003c0: 5117 0dbd df50 4f39 7d48 18bd c9f7 f1bc
000003d0: 3322 02bd ee24 fc3b c95c a4bd 197e b43d
000003e0: c951 33bd 2afc 403d 4e69 2cbe 2024 dbbd
000003f0: cac6 673c e31a 5c3d b984 aebd 9db5 65be
0.16426314 0.09819085 -0.018562268 -0.014694701 -0.0063928915 0.00070300564 0.022249177 0.1837335
0.080683455 -0.071091026 0.11442678 0.05037354 0.04100555 0.111481056 0.08448356 -0.04553195
0.07716855 0.08529915 -0.054248314 -0.048321582 -0.039040823 0.09012428 -0.13109356 0.0021633613
-0.09391225 0.0139102945 -0.06499942 -0.12993526 -0.046687737 -0.25904778 0.10957295 -0.002011054
0.22780277 -0.10070674 0.20534919 -0.16803762 0.07703934 0.026325958 -0.057721592 0.06995364
0.07767685 -0.082319364 -0.037435737 0.10943576 0.17673005 -0.05138137 0.06529072 0.0884414
0.083235264 -0.01935461 -0.05844551 -0.056183737 -0.07853334 0.11250233 -0.16201408 0.088418804
0.048571885 0.05203083 0.015779419 -0.17085966 0.34557393 -0.4767452 -0.23355082 -0.35079852
0.22358647 0.2499015 0.15503432 -0.11345573 -0.15429154 -0.001038383 0.03889345 -0.038882736
0.14759143 -0.2070754 -0.22114745 -0.16436592 -0.19094665 -0.026050154 0.16222413 0.1430368
-0.115854256 -0.05711516 -0.054370802 0.017438961 0.06802677 0.04635243 0.09484365 -0.17577253
-0.13962935 -0.025553163 -0.045023184 -0.010757561 0.47094613 -0.05593748 -0.29099858 0.035080463
0.23782243 0.008676902 -0.043067057 -0.16890578 0.020845905 -0.003688342 0.031974375 -0.068817146
-0.01837312 -0.11005795 -0.19138388 0.02674339 -0.0806033 -0.2194497 0.3023563 -0.023994725
0.04532568 -0.08736391 0.0071676224 -0.05672114 -0.011679984 -0.11883355 -0.043806944 9.413764e-05
-0.10017369 0.010873616 -0.060263883 -0.113782585 -0.11800466 -0.19694154 -0.068504795 -0.15937534
0.04800987 -0.031696234 -0.019226048 -0.0077633625 -0.16620569 0.00058462453 -0.033809707 -0.18023755
-0.17947322 -0.049128056 -0.030765273 0.012635284 -0.0062050964 -0.25455245 -0.022102885 -0.29381487
-0.04482537 -0.03134969 0.04665821 0.18306632 0.08617515 -0.15347493 0.15942475 -0.11049498
0.09562062 -0.09991545 0.17083322 -0.04275071 0.038350824 0.3411882 0.20936136 -0.028812554
0.24096084 0.040239044 0.0048557636 -0.008422987 -0.015117634 0.04582444 0.011390402 0.17654948
0.08854001 -0.1136219 0.010334951 -0.046184476 0.12583448 0.0749188 0.10314425 0.012333908
-0.1573872 0.058368966 0.07530834 -0.06743978 0.021864453 0.030976871 0.041930646 -0.0670581
-0.03201913 -0.029224541 0.018232036 -0.09858532 0.14938022 0.0002548231 -0.021462299 0.022637082
0.05273514 0.030424766 0.08505199 -0.17858066 -0.03968418 0.033397816 0.022309575 0.119734034
-0.057255745 -0.061716948 0.089706704 -0.025389655 -0.006943436 -0.078671575 -0.16711201 0.02613897
-0.21813066 0.03467244 -0.096364595 -0.09871384 -0.07744046 -0.12917711 0.0032529293 0.06346151
-0.05511265 0.019663192 -0.12164811 -0.13070668 0.039896313 -0.005386998 -0.24689043 -0.25506684
-0.13551445 -0.006798629 0.057804655 -0.083186954 -0.03749071 -0.019340131 -0.020683507 0.121835865
0.13262907 0.11800098 0.110475205 0.07412924 0.22887725 -0.00834037 -0.14275298 -0.14063385
-0.034446064 0.00019771185 -0.037178505 -0.029537098 -0.031770896 0.007694832 -0.0802551 0.08813114
-0.04377917 0.047115482 -0.16837046 -0.1070025 0.014146516 0.05373658 -0.085214086 -0.22432561

blocks.0.mha.out_proj.bias f4 [32]
00000000: 2d99 b83d 0a86 cfbc 6b3c 42be 8f02 ddbc
00000010: 5dd4 c1bd b1a2 37be d910 893d 01aa eabb
00000020: 797a 323d 73bf 8ebe 7e1d 8d3c 0378 223c
00000030: 0ae7 1fbd 2e71 dfbd a68b 8abd 05d0 88bc
00000040: c194 b0bd 36c8 1cbe 88b4 e83c a75a 5bbd
00000050: 758a a73d 6281 b43d 8f2a 6abb d723 2cbe
00000060: 73f3 a03d 2153 973c 7528 dcbc 02f0 16be
00000070: 72de dc3d 7447 e3bd 1e3a f23c 9e55 d03d
0.09013591 -0.02533247 -0.1896836 -0.02697876 -0.09464333 -0.17933156 0.066926666 -0.0071613793
0.04357383 -0.2788044 0.017225977 0.009916308 -0.039038695 -0.10910259 -0.06764917 -0.016700754
-0.086221226 -0.1531075 0.028406397 -0.05355325 0.081807055 0.0881374 -0.0035730933 -0.16810547
0.07858934 0.018472256 -0.02687476 -0.14739993 0.107846156 -0.11097613 0.029568728 0.1017258

blocks.0.ln.weight f4 [81, 32]
00000000: 0000 803f 0000 803f 0000 803f 0000 803f
00000010: 0000 803f 0000 803f 0000 803f 0000 803f
00000020: 0000 803f 0000 803f 0000 803f 0000 803f
00000030: 0000 803f 0000 803f 0000 803f 0000 803f
00000040: 0000 803f 0000 803f 0000 803f 0000 803f
00000050: 0000 803f 0000 803f 0000 803f 0000 803f
00000060: 0000 803f 0000 803f 0000 803f 0000 803f
00000070: 0000 803f 0000 803f 0000 803f 0000 803f
00000080: 0000 803f 0000 803f 0000 803f 0000 803f
00000090: 0000 803f 0000 803f 0000 803f 0000 803f
000000a0: 0000 803f 0000 803f 0000 803f 0000 803f
000000b0: 0000 803f 0000 803f 0000 803f 0000 803f
000000c0: 0000 803f 0000 803f 0000 803f 0000 803f
000000d0: 0000 803f 0000 803f 0000 803f 0000 803f
000000e0: 0000 803f 0000 803f 0000 803f 0000 803f
000000f0: 0000 803f 0000 803f 0000 803f 0000 803f
00000100: 0000 803f 0000 803f 0000 803f 0000 803f
00000110: 0000 803f 0000 803f 0000 803f 0000 803f
00000120: 0000 803f 0000 803f 0000 803f 0000 803f
00000130: 0000 803f 0000 803f 0000 803f 0000 803f
00000140: 0000 803f 0000 803f 0000 803f 0000 803f
00000150: 0000 803f 0000 803f 0000 803f 0000 803f
00000160: 0000 803f 0000 803f 0000 803f 0000 803f
00000170: 0000 803f 0000 803f 0000 803f 0000 803f
00000180: 0000 803f 0000 803f 0000 803f 0000 803f
00000190: 0000 803f 0000 803f 0000 803f 0000 803f
000001a0: 0000 803f 0000 803f 0000 803f 0000 803f
000001b0: 0000 803f 0000 803f 0000 803f 0000 803f
000001c0: 0000 803f 0000 803f 0000 803f 0000 803f
000001d0: 0000 803f 0000 803f 0000 803f 0000 803f
000001e0: 0000 803f 0000 803f 0000 803f 0000 803f
000001f0: 0000 803f 0000 803f 0000 803f 0000 803f
00000200: 0000 803f 0000 803f 0000 803f 0000 803f
00000210: 0000 803f 0000 803f 0000 803f 0000 803f
00000220: 0000 803f 0000 803f 0000 803f 0000 803f
00000230: 0000 803f 0000 803f 0000 803f 0000 803f
00000240: 0000 803f 0000 803f 0000 803f 0000 803f
00000250: 0000 803f 0000 803f 0000 803f 0000 803f
00000260: 0000 803f 0000 803f 0000 803f 0000 803f
00000270: 0000 803f 0000 803f 0000 803f 0000 803f
00000280: 0000 803f 0000 803f 0000 803f 0000 803f
00000290: 0000 803f 0000 803f 0000 803f 0000 803f
000002a0: 0000 803f 0000 803f 0000 803f 0000 803f
000002b0: 0000 803f 0000 803f 0000 803f 0000 803f
000002c0: 0000 803f 0000 803f 0000 803f 0000 803f
000002d0: 0000 803f 0000 803f 0000 803f 0000 803f
000002e0: 0000 803f 0000 803f 0000 803f 0000 803f
000002f0: 0000 803f 0000 803f 0000 803f 0000 803f
00000300: 0000 803f 0000 803f 0000 803f 0000 803f
00000310: 0000 803f 0000 803f 0000 803f 0000 803f
00000320: 0000 803f 0000 803f 0000 803f 0000 803f
00000330: 0000 803f 0000 803f 0000 803f 0000 803f
00000340: 0000 803f 0000 803f 0000 803f 0000 803f
00000350: 0000 803f 0000 803f 0000 803f 0000 803f
00000360: 0000 803f 0000 803f 0000 803f 0000 803f
00000370: 0000 803f 0000 803f 0000 803f 0000 803f
00000380: 0000 803f 0000 803f 0000 803f 0000 803f
00000390: 0000 803f 0000 803f 0000 803f 0000 803f
000003a0: 0000 803f 0000 803f 0000 803f 0000 803f
000003b0: 0000 803f 0000 803f 0000 803f 0000 803f
000003c0: 0000 803f 0000 803f 0000 803f 0000 803f
000003d0: 0000 803f 0000 803f 0000 803f 0000 803f
000003e0: 0000 803f 0000 803f 0000 803f 0000 803f
000003f0: 0000 803f 0000 803f 0000 803f 0000 803f
1.0 1.0 1.0 1.0 1.0 1.0 1.0 1.0
1.0 1.0 1.0 1.0 1.0 1.0 1.0 1.0
1.0 1.0 1.0 1.0 1.0 1.0 1.0 1.0
1.0 1.0 1.0 1.0 1.0 1.0 1.0 1.0
1.0 1.0 1.0 1.0 1.0 1.0 1.0 1.0
1.0 1.0 1.0 1.0 1.0 1.0 1.0 1.0
1.0 1.0 1.0 1.0 1.0 1.0 1.0 1.0
1.0 1.0 1.0 1.0 1.0 1.0 1.0 1.0
1.0 1.0 1.0 1.0 1.0 1.0 1.0 1.0
1.0 1.0 1.0 1.0 1.0 1.0 1.0 1.0
1.0 1.0 1.0 1.0 1.0 1.0 1.0 1.0
1.0 1.0 1.0 1.0 1.0 1.0 1.0 1.0
1.0 1.0 1.0 1.0 1.0 1.0 1.0 1.0
1.0 1.0 1.0 1.0 1.0 1.0 1.0 1.0
1.0 1.0 1.0 1.0 1.0 1.0 1.0 1.0
1.0 1.0 1.0 1.0 1.0 1.0 1.0 1.0
1.0 1.0 1.0 1.0 1.0 1.0 1.0 1.0
1.0 1.0 1.0 1.0 1.0 1.0 1.0 1.0
1.0 1.0 1.0 1.0 1.0 1.0 1.0 1.0
1.0 1.0 1.0 1.0 1.0 1.0 1.0 1.0
1.0 1.0 1.0 1.0 1.0 1.0 1.0 1.0
1.0 1.0 1.0 1.0 1.0 1.0 1.0 1.0
1.0 1.0 1.0 1.0 1.0 1.0 1.0 1.0
1.0 1.0 1.0 1.0 1.0 1.0 1.0 1.0
1.0 1.0 1.0 1.0 1.0 1.0 1.0 1.0
1.0 1.0 1.0 1.0 1.0 1.0 1.0 1.0
1.0 1.0 1.0 1.0 1.0 1.0 1.0 1.0
1.0 1.0 1.0 1.0 1.0 1.0 1.0 1.0
1.0 1.0 1.0 1.0 1.0 1.0 1.0 1.0
1.0 1.0 1.0 1.0 1.0 1.0 1.0 1.0
1.0 1.0 1.0 1.0 1.0 1.0 1.0 1.0
1.0 1.0 1.0 1.0 1.0 1.0 1.0 1.0

blocks.0.ln.bias f4 [81, 32]
00000000: 0000 0000 0000 0000 0000 0000 0000 0000
00000010: 0000 0000 0000 0000 0000 0000 0000 0000
00000020: 0000 0000 0000 0000 0000 0000 0000 0000
00000030: 0000 0000 0000 0000 0000 0000 0000 0000
00000040: 0000 0000 0000 0000 0000 0000 0000 0000
00000050: 0000 0000 0000 0000 0000 0000 0000 0000
00000060: 0000 0000 0000 0000 0000 0000 0000 0000
00000070: 0000 0000 0000 0000 0000 0000 0000 0000
00000080: 0000 0000 0000 0000 0000 0000 0000 0000
00000090: 0000 0000 0000 0000 0000 0000 0000 0000
000000a0: 0000 0000 0000 0000 0000 0000 0000 0000
000000b0: 0000 0000 0000 0000 0000 0000 0000 0000
000000c0: 0000 0000 0000 0000 0000 0000 0000 0000
000000d0: 0000 0000 0000 0000 0000 0000 0000 0000
000000e0: 0000 0000 0000 0000 0000 0000 0000 0000
000000f0: 0000 0000 0000 0000 0000 0000 0000 0000
00000100: 0000 0000 0000 0000 0000 0000 0000 0000
00000110: 0000 0000 0000 0000 0000 0000 0000 0000
00000120: 0000 0000 0000 0000 0000 0000 0000 0000
00000130: 0000 0000 0000 0000 0000 0000 0000 0000
00000140: 0000 0000 0000 0000 0000 0000 0000 0000
00000150: 0000 0000 0000 0000 0000 0000 0000 0000
00000160: 0000 0000 0000 0000 0000 0000 0000 0000
00000170: 0000 0000 0000 0000 0000 0000 0000 0000
00000180: 0000 0000 0000 0000 0000 0000 0000 0000
00000190: 0000 0000 0000 0000 0000 0000 0000 0000
000001a0: 0000 0000 0000 0000 0000 0000 0000 0000
000001b0: 0000 0000 0000 0000 0000 0000 0000 0000
000001c0: 0000 0000 0000 0000 0000 0000 0000 0000
000001d0: 0000 0000 0000 0000 0000 0000 0000 0000
000001e0: 0000 0000 0000 0000 0000 0000 0000 0000
000001f0: 0000 0000 0000 0000 0000 0000 0000 0000
00000200: 0000 0000 0000 0000 0000 0000 0000 0000
00000210: 0000 0000 0000 0000 0000 0000 0000 0000
00000220: 0000 0000 0000 0000 0000 0000 0000 0000
00000230: 0000 0000 0000 0000 0000 0000 0000 0000
00000240: 0000 0000 0000 0000 0000 0000 0000 0000
00000250: 0000 0000 0000 0000 0000 0000 0000 0000
00000260: 0000 0000 0000 0000 0000 0000 0000 0000
00000270: 0000 0000 0000 0000 0000 0000 0000 0000
00000280: 0000 0000 0000 0000 0000 0000 0000 0000
00000290: 0000 0000 0000 0000 0000 0000 0000 0000
000002a0: 0000 0000 0000 0000 0000 0000 0000 0000
000002b0: 0000 0000 0000 0000 0000 0000 0000 0000
000002c0: 0000 0000 0000 0000 0000 0000 0000 0000
000002d0: 0000 0000 0000 0000 0000 0000 0000 0000
000002e0: 0000 0000 0000 0000 0000 0000 0000 0000
000002f0: 0000 0000 0000 0000 0000 0000 0000 0000
00000300: 0000 0000 0000 0000 0000 0000 0000 0000
00000310: 0000 0000 0000 0000 0000 0000 0000 0000
00000320: 0000 0000 0000 0000 0000 0000 0000 0000
00000330: 0000 0000 0000 0000 0000 0000 0000 0000
00000340: 0000 0000 0000 0000 0000 0000 0000 0000
00000350: 0000 0000 0000 0000 0000 0000 0000 0000
00000360: 0000 0000 0000 0000 0000 0000 0000 0000
00000370: 0000 0000 0000 0000 0000 0000 0000 0000
00000380: 0000 0000 0000 0000 0000 0000 0000 0000
00000390: 0000 0000 0000 0000 0000 0000 0000 0000
000003a0: 0000 0000 0000 0000 0000 0000 0000 0000
000003b0: 0000 0000 0000 0000 0000 0000 0000 0000
000003c0: 0000 0000 0000 0000 0000 0000 0000 0000
000003d0: 0000 0000 0000 0000 0000 0000 0000 0000
000003e0: 0000 0000 0000 0000 0000 0000 0000 0000
000003f0: 0000 0000 0000 0000 0000 0000 0000 0000
0.0 0.0 0.0 0.0 0.0 0.0 0.0 0.0
0.0 0.0 0.0 0.0 0.0 0.0 0.0 0.0
0.0 0.0 0.0 0.0 0.0 0.0 0.0 0.0
0.0 0.0 0.0 0.0 0.0 0.0 0.0 0.0
0.0 0.0 0.0 0.0 0.0 0.0 0.0 0.0
0.0 0.0 0.0 0.0 0.0 0.0 0.0 0.0
0.0 0.0 0.0 0.0 0.0 0.0 0.0 0.0
0.0 0.0 0.0 0.0 0.0 0.0 0.0 0.0
0.0 0.0 0.0 0.0 0.0 0.0 0.0 0.0
0.0 0.0 0.0 0.0 0.0 0.0 0.0 0.0
0.0 0.0 0.0 0.0 0.0 0.0 0.0 0.0
0.0 0.0 0.0 0.0 0.0 0.0 0.0 0.0
0.0 0.0 0.0 0.0 0.0 0.0 0.0 0.0
0.0 0.0 0.0 0.0 0.0 0.0 0.0 0.0
0.0 0.0 0.0 0.0 0.0 0.0 0.0 0.0
0.0 0.0 0.0 0.0 0.0 0.0 0.0 0.0
0.0 0.0 0.0 0.0 0.0 0.0 0.0 0.0
0.0 0.0 0.0 0.0 0.0 0.0 0.0 0.0
0.0 0.0 0.0 0.0 0.0 0.0 0.0 0.0
0.0 0.0 0.0 0.0 0.0 0.0 0.0 0.0
0.0 0.0 0.0 0.0 0.0 0.0 0.0 0.0
0.0 0.0 0.0 0.0 0.0 0.0 0.0 0.0
0.0 0.0 0.0 0.0 0.0 0.0 0.0 0.0
0.0 0.0 0.0 0.0 0.0 0.0 0.0 0.0
0.0 0.0 0.0 0.0 0.0 0.0 0.0 0.0
0.0 0.0 0.0 0.0 0.0 0.0 0.0 0.0
0.0 0.0 0.0 0.0 0.0 0.0 0.0 0.0
0.0 0.0 0.0 0.0 0.0 0.0 0.0 0.0
0.0 0.0 0.0 0.0 0.0 0.0 0.0 0.0
0.0 0.0 0.0 0.0 0.0 0.0 0.0 0.0
0.0 0.0 0.0 0.0 0.0 0.0 0.0 0.0
0.0 0.0 0.0 0.0 0.0 0.0 0.0 0.0

blocks.0.ffn.0.weight f4 [81, 32]
00000000: f2cf 923f 4e12 e23e 2280 653f 6c6b 823f
00000010: 00d6 853f b8e5 833f 9b73 783f 64d5 773f
00000020: eb62 703f 0fab 823f f79d 4e3f 11e5 503f
00000030: 8019 923f 8eab 593f 45ba 433f a2d3 733f
00000040: f228 823f f511 643f 91ce 713f 0906 703f
00000050: 13d5 893f abb8 733f 5ed4 7d3f 993e 563f
00000060: bdc7 313f 1a07 913f 498d 9c3f f333 753f
00000070: 19cd 733f 0172 843f 9987 903f 473a 573f
00000080: 4d0f 8f3f 877e 613f 729d 563f b4db 8b3f
00000090: efc7 5c3f 2fb4 673f 320e 663f b822 593f
000000a0: 0859 853f e601 863f 6954 643f b411 a33f
000000b0: ddc2 8a3f 5d3e 643f 3ed1 793f fe35 683f
000000c0: eee0 923f 8c99 6f3f b1cc 693f 3404 6f3f
000000d0: 2f19 253f a4be 8f3f cfc8 493f c4f9 7d3f
000000e0: b16a 683f 3ad0 7e3f 184b 5b3f 0414 723f
000000f0: 8f3f 393f 06de 503f 0191 8c3f de70 933f
00000100: c0a5 913f 98a8 803f f781 6c3f 2fed 8b3f
00000110: 66e2 833f 677b 923f fde7 463f aec8 253f
00000120: 62dd 7e3f 27bb 3f3f cf35 893f ae0c ad3f
00000130: 0153 373f 4fc4 813f 9b79 713f 353c 483f
00000140: 3dd1 533f 68c8 8b3f ba13 5c3f 3ef0 3c3f
00000150: ea8b 8a3f 1b5d 593f bab6 693f 6e23 9c3f
00000160: 9bbb 113f 6a5c 6d3f 9a63 443f f90c 823f
00000170: 7fd6 583f c7db 4b3f 932d 753f 2538 ac3f
00000180: e5be 443f e346 4a3f 40c5 a83f a019 643f
00000190: 57b9 6d3f e51f 903f 6d36 9e3f 85dd 403f
000001a0: 3123 4d3f 1932 6d3f 4d1a 793f 4024 aa3f
000001b0: 6d12 803f c325 9a3f 5283 2a3f 2757 863f
000001c0: 4bd8 523f dc39 3c3f a75d 713f b89d 843f
000001d0: 6173 693f 220b 413f edc6 853f 26f3 693f
000001e0: 3419 993f 3609 943f fb65 793f c6d1 b33f
000001f0: 6574 2c3f a687 943f 74f8 4a3f c797 6d3f
00000200: eaca 813f 7510 873f e77f 803f c2d2 af3f
00000210: bcc9 6f3f f6f9 733f ada9 9c3f d25b 593f
00000220: 8a32 903f 8f9b 983f 2df7 483f a89f 643f
00000230: 458f 663f 10ad 923f bd5e 763f 5e4e 983f
00000240: c8b7 c23f 6608 893f 617d 9c3f 9396 3a3f
00000250: d2e1 423f e02d 8b3f 40c8 163f 67a7 8c3f
00000260: 42b4 4d3f 7ee3 233f 4a0e 6c3f d007 893f
00000270: 6205 7c3f a2cd 823f 5421 953f a786 803f
00000280: 5a3e 9a3f 78e1 dc3e 7b5f 813f af8d 7f3f
00000290: 1231 6e3f 9af0 733f 7abe 673f 1cd7 7d3f
000002a0: e4e0 9e3f f3a8 5d3f e8d5 ad3e 8202 9a3f
000002b0: fb30 883f fbce 863f cb4b 1b3f 18f8 a83f
000002c0: ab77 333f a591 923f ba3f 623f 6bee 7a3f
000002d0: f6eb 3c3f 27ee 5f3f 7ca5 753f 780a 663f
000002e0: 25ad 873f aa08 843f 13fb ba3f 0b2d 853f
000002f0: 7274 673f 9f22 843f e2a4 813f b977 5d3f
00000300: 4320 1c3f b084 4a3f 98fd 7b3f 660b 8c3f
00000310: 5e8d a23f e194 853f 40b4 4e3f 0abc 863f
00000320: ebe3 6d3f 3cc5 823f 6863 ef3e c40b 933f
00000330: e1f3 673f 5768 363f b461 8c3f c97d 6f3f
00000340: 555d 633f 925d 903f 0acf a53f b54e 683f
00000350: 42d0 973f d1c2 853f b814 613f 521a 5f3f
00000360: 9a6d 853f d627 673f 5bb0 9b3f 44bf 803f
00000370: 5ff0 993f a83d 813f 7349 313f 4c50 6a3f
00000380: a9fc 653f 3d31 563f e9ec 943f 0eae 823f
00000390: ce09 8d3f 413c 873f 0d44 963f b566 783f
000003a0: c2f5 603f e63d 933f 0608 6c3f 681d 983f
000003b0: 9008 733f 6931 2c3f a1ca 553f ad6f a23f
000003c0: be74 283f f8be 2c3f 17fa 5f3f 6cb3 5f3f
000003d0: 071e 753f 42dc 473f cc7b 613f 0437 4e3f
000003e0: cd61 8e3f 96cd 853f f992 803f 1dea 783f
000003f0: 557c 813f 3f08 5a3f e484 9e3f 01d2 583f
1.146971 0.4415459 0.8964864 1.0189033 1.0455933 1.030448 0.970514 0.96809983
0.93900937 1.0208453 0.80709785 0.8159953 1.1414032 0.85027397 0.764561 0.952448
1.0168746 0.890899 0.9445582 0.9375921 1.076815 0.95203656 0.9915217 0.83689266
0.694454 1.1330292 1.2230617 0.95782393 0.9523483 1.0347291 1.1291381 0.840733
1.1176544 0.8808369 0.8383399 1.0926423 0.86242574 0.90509313 0.8986541 0.848186
1.0417795 1.0469329 0.891913 1.2739778 1.0840718 0.8915766 0.97584903 0.90707386
1.1474893 0.9359367 0.9132796 0.9336579 0.6449155 1.1230054 0.78822035 0.9920924
0.907878 0.9953648 0.8566146 0.9456179 0.7236261 0.8158878 1.0981752 1.1518819
1.1378708 1.0051451 0.9238581 1.0931758 1.0303466 1.144391 0.77697736 0.6475934
0.99556553 0.74894947 1.0719546 1.3519495 0.7161103 1.0138034 0.9432618 0.7821687
0.8274115 1.0920534 0.859676 0.7380408 1.0823948 0.8490769 0.91294444 1.2198312
0.5692689 0.9271914 0.7671448 1.0160209 0.84702295 0.7963223 0.95772666 1.3454634
0.7685378 0.79014415 1.3185196 0.891016 0.9286093 1.1259733 1.236036 0.7533801
0.8013182 0.9265457 0.97305757 1.3292313 1.0005623 1.2042774 0.6660663 1.0495347
0.82361287 0.73525786 0.9428353 1.0360632 0.9119168 0.7540761 1.0451332 0.9138664
1.1960816 1.1565311 0.97421235 1.4048393 0.67365104 1.1603897 0.7928536 0.9280972
1.014005 1.0551897 1.0039033 1.3736193 0.936672 0.95303285 1.2239281 0.8490573
1.1265423 1.1922473 0.7850216 0.89306116 0.9006236 1.1459064 0.9623831 1.1898916
1.5212336 1.0705688 1.2225763 0.7288601 0.76125824 1.0873375 0.5889931 1.0988587
0.80353177 0.64019 0.92209303 1.0705509 0.98445714 1.0219004 1.1650796 1.0041093
1.2050278 0.4314077 1.0107263 0.99825567 0.93043625 0.95289004 0.9052502 0.99156356
1.2412381 0.8658592 0.3395226 1.2032015 1.0639948 1.0531915 0.60662526 1.3200712
0.70104474 1.1450697 0.8837849 0.98020047 0.7379755 0.87472767 0.95955634 0.89859724
1.0599715 1.0315144 1.4607872 1.0404371 0.90412056 1.0323066 1.0128443 0.8651081
0.6098673 0.79108715 0.9843383 1.0940979 1.2699392 1.0436059 0.8074379 1.0526135
0.929259 1.0216441 0.46755528 1.1487966 0.90606505 0.7125296 1.0967317 0.9355131
0.8881429 1.1278555 1.2953808 0.907451 1.186043 1.0450078 0.8792224 0.87149537
1.0424073 0.9029516 1.2163194 1.005837 1.202648 1.0096941 0.692527 0.91528773
0.89838654 0.8366888 1.1634799 1.0209367 1.1018617 1.0565263 1.1739517 0.9703172
0.87874997 1.1503265 0.9219974 1.1883974 0.9493494 0.67262894 0.8351231 1.2690331
0.65803134 0.67478895 0.8749098 0.8738315 0.95748943 0.7807046 0.88079524 0.805527
1.1123596 1.0453365 1.0044852 0.9723223 1.0116068 0.8516883 1.2384305 0.8469544

blocks.0.ffn.0.bias f4 [81, 32]
00000000: 2c36 dabe 5306 183f b7cb 763d d85c c8bd
00000010: 1b24 00bd d979 e4bd 98cb bb3d 0e7f 61be
00000020: 0369 8bbc d8fc 78be e77b 80bd 3a27 2f3e
00000030: c7d0 583e 1dfd 80bc 47cd 3a3e 6705 743d
00000040: baa8 d2bb bd05 31bd b237 213e bfb3 993d
00000050: 1591 9fbe 6f24 86bd 8a28 5d3e f7cd 2e3e
00000060: 08f6 48be 2159 86be 34a1 c13e c7b1 ba3e
00000070: 451f 1b3e 04d1 6e3e 1049 63bc 0762 883c
00000080: f806 23bf b56b cf3e 95de 523e 0f6c a0be
00000090: cc2a bcbd c2ce d13d e662 493d bd8d 65be
000000a0: 51f9 e1bd 882d b5bc b389 f33d 4a31 003f
000000b0: c683 543e a1b4 0bbe 01c4 a63d 97af d53d
000000c0: a2a0 8e3e 3573 073e 4bd0 113e 47be 97be
000000d0: d107 15be cd27 893e 19e2 96bd b439 653e
000000e0: 49f9 65be f214 a8be a468 c13d c609 b03d
000000f0: 8fe4 87bc 7d11 663e 35d4 ddbd 8fc1 b5be
00000100: 6471 c2bd ca06 0b3e b417 493e 0d70 aebe
00000110: ab53 96be 354a f03e 18cf 03be 16ad d1bd
00000120: e5a0 8ebe ac91 743e 6726 debe 0eb4 473f
00000130: ee2f 00be b27d d73d 2912 083e 8edd 4a3e
00000140: 70e3 613e 1017 e13e 0661 283e f4e8 503d
00000150: bfd9 c0be 9b2a ee3d e688 cfbd 9399 963e
00000160: faf3 233e bd25 e3bb 6083 07bf a67d 9a3e
00000170: 15de acbe 5342 ca3e d51c 67bd cdcf 02bf
00000180: 2dcb cabc 3ba7 89be 6201 883d 4f68 4a3e
00000190: 7d15 a0bd 549f 28be eeae b6be ade1 0fbb
000001a0: f082 1fbe 7133 cfbb 53d9 0d3d 1de6 bcbe
000001b0: 2fc7 bbbd 9198 6cbe 70da 3f3e 206c 90be
000001c0: 9d5c 5a3e ba1f 78bc e389 0c3e 0e47 3c3d
000001d0: 76c2 b83d 0d3f eebe 8599 4a3e 79c0 b6bd
000001e0: 9066 7c3d 4a36 abbe 80df 8a3c f7ca 96be
000001f0: 20e5 663e 16b6 6b3e 1066 503e 4f99 4dbd
00000200: 5dc9 8e3d 9329 3e3d feab 003e b4fc 1abf
00000210: 6c0f 35be 5fcd 053f e0af d63d f120 b1be
00000220: 400c 09bf d6eb f3be e997 9b3e 8295 de3e
00000230: da9c 283e 6c15 53be 80d4 5c3d ca97 923e
00000240: b7a5 093f 9fcf b73e fd52 863e 642a 563e
00000250: 86b1 69be b21d 9d3b a893 82be ee51 1f3e
00000260: c2ea 20be ffa7 bebe ec1f 263e 49e6 ae3e
00000270: e6fa f33d 1060 513e 7c17 1b3f 8f41 48be
00000280: 0665 26be 25b5 163f 5170 9a3d 8239 0dbd
00000290: eac5 8abd 46dd 94bd 5ab0 7f3d 9664 cabd
000002a0: 2338 e33e bdb2 ddbd c88d 1fbf 9c5a 9ebe
000002b0: 3a90 643d f339 d33d 0165 883e 2665 eabe
000002c0: 2231 b8be 75d8 70be 7999 25bd 96cd c43c
000002d0: cf84 42bf 95c1 cbbb 4d61 a93e 002c 34be
000002e0: f45f 1fbe ae89 05be a423 b83e 4bdc c83e
000002f0: b27c 0bbe b0bb 313e f2db 41bf 0209 08bd
00000300: c2d3 f6bb 87b1 063e e40c a83d 347c c33e
00000310: 958e 083e 871b fdbd 2d11 57bd 1b8a bb3d
00000320: 184e 993d 4123 b3bd 2ab6 79be cb77 9bbe
00000330: f4fb 9ebd 6ce9 d93c 3dbe b8bd f454 26be
00000340: 1956 a9be 386d 03be 85bd 92bc d57f 2d3e
00000350: 27fc bc3e d9a2 51bd 176d 493e 0bf3 1b3e
00000360: ac00 4fbe 6ae0 9cbb 259d 053e 7363 b03d
00000370: 27fc 623e 8624 a33d ae73 bdbe 39ae b2bc
00000380: 4dd7 2a3e 08c2 233e 74aa 07be 996d 29be
00000390: 1b99 c8bd 2bf6 03be 55a5 73be e7b8 f1bd
000003a0: 0365 07be 6268 78bd 969f cabe a257 64be
000003b0: bd15 e93c 7f4d a13d 62cf 883e c289 cebe
000003c0: 327d 70be 781f af3e 7eaf 6b3e ecb3 31be
000003d0: 4100 afbe a793 bcbd bb9f adbd 7a28 b53d
000003e0: 4d6e 18be 8e2b 10be 2126 c4bc d6c9 2c3e
000003f0: 544e a2bd 1b72 bf3d 6f67 abbe 886d 08be
-0.42619455 0.5938465 0.06025287 -0.097833335 -0.031284433 -0.11156053 0.09169692 -0.22021124
-0.017017847 -0.24315202 -0.062736325 0.17104807 0.21173392 -0.015745694 0.1824237 0.059575465
-0.006428805 -0.043218363 0.15743902 0.07504987 -0.31165376 -0.06549918 0.21597496 0.17070757
-0.19625103 -0.26239875 0.378183 0.36463758 0.15148647 0.2332192 -0.0138724 0.016648306
-0.6368251 0.4051186 0.20592721 -0.31332442 -0.0918785 0.10244514 0.049166583 -0.2241735
-0.110338815 -0.022116438 0.118914984 0.5007521 0.20753393 -0.13643123 0.081428535 0.10433882
0.27856928 0.13227542 0.14239614 -0.29637358 -0.14553763 0.26788178 -0.073673435 0.22385293
-0.22458376 -0.3282848 0.09443787 0.08595614 -0.016588477 0.22467609 -0.10831491 -0.35499236
-0.09494284 0.13576809 0.19637948 -0.34069863 -0.2936071 0.46931615 -0.12871969 -0.10238092
-0.27857128 0.23883694 -0.43388674 0.78009117 -0.12518284 0.10522021 0.13288178 0.19811079
0.22059417 0.43962908 0.16443262 0.05100341 -0.37666127 0.1162922 -0.10133533 0.29414043
0.16011038 -0.006931989 -0.5293484 0.30173987 -0.33763185 0.39503726 -0.05642398 -0.5109833
-0.024755085 -0.268854 0.06640889 0.19766353 -0.078165986 -0.16467029 -0.35680336 -0.0021954582
-0.15577292 -0.006323271 0.034631085 -0.36894313 -0.09168851 -0.23105074 0.18735671 -0.28207493
0.21324392 -0.015144283 0.13724475 0.0459662 0.090214655 -0.4653248 0.19785126 -0.0892343
0.06162125 -0.33439857 0.016952276 -0.29451725 0.22548342 0.23018679 0.20351434 -0.050195035
0.06972001 0.046426367 0.1256561 -0.60541844 -0.17681664 0.52266496 0.10482764 -0.34595445
-0.53534317 -0.47640866 0.30389336 0.4347344 0.16466084 -0.2061364 0.053913593 0.2863143
0.53768486 0.3590059 0.2623519 0.20914608 -0.22821626 0.0047947997 -0.25503278 0.15558597
-0.15714553 -0.37237546 0.16223115 0.3416007 0.119130895 0.20446801 0.6058271 -0.19556259
-0.16249475 0.58870155 0.07540954 -0.03447867 -0.0677603 -0.07268767 0.06242404 -0.098824665
0.44378766 -0.10825107 -0.62325716 -0.30928504 0.055801608 0.10313787 0.2663956 -0.45780295
-0.35974985 -0.23520072 -0.040429566 0.024023812 -0.759839 -0.006218145 0.33082047 -0.1759491
-0.15563947 -0.13040802 0.35964692 0.3923057 -0.13621786 0.17356753 -0.75726235 -0.033211716
-0.0075325677 0.13153659 0.08205584 0.38180697 0.1333564 -0.12358766 -0.052506614 0.09157201
0.07485598 -0.087469585 -0.24385896 -0.30364832 -0.077629 0.026600562 -0.0902066 -0.16243345
-0.330735 -0.12834632 -0.017912636 0.16943295 0.36911127 -0.051180694 0.1967052 0.15229432
-0.202151 -0.0047874944 0.13048227 0.086127184 0.22166501 0.07965951 -0.3700232 -0.021811591
0.16683693 0.15991986 -0.13248616 -0.16545714 -0.097948276 -0.12886874 -0.23793538 -0.118028454
-0.13222127 -0.060646422 -0.3957488 -0.22299054 0.028452748 0.07876109 0.2672072 -0.40339476
-0.23485258 0.34203696 0.23016164 -0.17353791 -0.3417988 -0.0920785 -0.08477732 0.08845611
-0.14885826 -0.14079115 -0.023943963 0.1687387 -0.07925096 0.09347936 -0.3347735 -0.13323033
