models/experiment_POLAR_N128_K64_transformer_d=32_N=2_mask_lr=0.0003_epochs=200.pth (torch, 547670 bytes, 32 tensors)

embedding f4 [192, 32]
0	0xbe5c673f	-0.2152376
1	0xbc57f4e1	-0.013180942
2	0xbe28677b	-0.16445725
3	0xbe04ad3f	-0.12956713
4	0x3dcc451f	0.09974121
5	0xbd488cf4	-0.04896255
6	0xbeab1017	-0.33410713
7	0xbc64aa1c	-0.013956573
8	0xbe497534	-0.19673616
9	0x3d95812e	0.0730003
10	0xbcd36646	-0.025805604
11	0xbd1650ac	-0.03669803
12	0x3d6d48b5	0.057930667
13	0xbe004c20	-0.1252904
14	0xbd8cc0b0	-0.0687269
15	0x3e3b957c	0.18318743
16	0x3eace33a	0.3376711
17	0xbd831eeb	-0.064023815
18	0xbd538e1e	-0.051649205
19	0x3dcfdaf1	0.10149182
20	0xbe83e0ff	-0.25757596
21	0x3e61a14e	0.22034189
22	0x3df4fddf	0.119624846
23	0x3db007b6	0.08595221
24	0x3e1706b1	0.14748646
25	0xbeace142	-0.33765608
26	0x3e35f45f	0.17769001
27	0xbe3b41b6	-0.18286785
28	0x3cffbc12	0.031217609
29	0xbef4da27	-0.47822687
30	0xbdd99986	-0.106249854
31	0xbdd78058	-0.105225265
32	0xbe20896d	-0.15677424
33	0x3eab70ce	0.334845
34	0xbe4bd4e8	-0.19905436
35	0xbea0ef21	-0.3143244
36	0x3dc62c49	0.096764155
37	0x3e460f28	0.19341719
38	0xbebb5e45	-0.3659536
39	0xbe060f88	-0.13091862
40	0x3e6e7bd4	0.23289424
41	0xbc9b9a89	-0.018994587
42	0xbdfb53bc	-0.122718304
43	0x3e8781ac	0.2646612
44	0x3e3a03f9	0.18165578
45	0x3d8aecd7	0.06783455
46	0xbc095c5a	-0.008383835
47	0x3d95a597	0.073069744
48	0x3e4554ef	0.19270681
49	0x3e0c6e1d	0.1371388
50	0xbe8af297	-0.27138206
51	0x3e4fd339	0.20295419
52	0xbe379111	-0.17926432
53	0x3e7b57d8	0.24545228
54	0xbd936d45	-0.07198576
55	0xbc87044a	-0.016481537
56	0xbd20e425	-0.039280076
57	0xbeb6d322	-0.35707957
58	0x3ed0d98f	0.40790984
59	0xbea37247	-0.31923124
60	0xbd6647eb	-0.05622093
61	0xbe67777c	-0.22604173
62	0xbea734a6	-0.32657355
63	0xbdf45bd6	-0.11931579
64	0xbe8017e9	-0.25018242
65	0x3e51b437	0.20478903
66	0x3eb81c91	0.35959294
67	0x3e9b313c	0.30311
68	0xbe569f9f	-0.20959328
69	0x3e579d4f	0.21056102
70	0xbc155153	-0.0091136275
71	0xbcc19177	-0.023628933
72	0x3c20439d	0.009781745
73	0xbdcee006	-0.10101323
74	0xbec272c3	-0.3797818
75	0x3e24c467	0.16090547
76	0xbe4e081c	-0.20120281
77	0x3e90cc3b	0.28280815
78	0xbdde6d78	-0.10860723
79	0xbe0db311	-0.1383784
80	0xbe0adbe9	-0.13560452
81	0x3eb28c03	0.34872445
82	0xbdf1a76c	-0.11799511
83	0x3d4770d8	0.0486916
84	0xbdc03499	-0.09385032
85	0x3e9b922d	0.3038496
86	0x3d9e487b	0.07728668
87	0xbd7cbf39	-0.0617058
88	0x3cdd0445	0.026979575
89	0x3c348900	0.0110189915
90	0x3e7ab9e1	0.2448497
91	0x3e99acb6	0.3001458
92	0xbea99e7f	-0.33128735
93	0xbe8c76e5	-0.2743446
94	0x3d6363e3	0.05551518
95	0xbd48f506	-0.049061798
96	0xbbc2ae82	-0.005941213
97	0x3eb0a390	0.34499788
98	0x3e22ecd5	0.15910657
99	0x3e335434	0.1751259
100	0xbdcc6048	-0.09979302
101	0x3e7a79ff	0.244606
102	0xbe58703f	-0.21136568
103	0xbe05b01b	-0.1305546
104	0x3e0384ed	0.12843676
105	0xbe41b74f	-0.18917583
106	0xbe669cb4	-0.22520715
107	0x3e829c89	0.25510052
108	0x3e21140f	0.15730308
109	0xbdb4081f	-0.087906115
110	0xbd8dc6fd	-0.0692272
111	0xbd77ae63	-0.060469043
112	0xbc940d3e	-0.01807272
113	0xbd81b295	-0.0633289
114	0xbbea612d	-0.0071526975
115	0x3e393623	0.18087058
116	0xbdbadb1c	-0.09123823
117	0x3e3db387	0.18525515
118	0xbe1820fa	-0.1485633
119	0x3d2912c4	0.041277662
120	0xbd9c5dab	-0.07635053
121	0xbed921be	-0.42408556
122	0xbe3b6b98	-0.18302763
123	0xbdcae581	-0.09907056
124	0xbe79f67c	-0.24410433
125	0x3cf84591	0.03030661
126	0xbe7254ab	-0.23665111
127	0x3e6067d2	0.21914604
128	0x3e251e83	0.1612492
129	0xbc8cd1b0	-0.01718983
130	0x3e8d2461	0.27566817
131	0xbdacad7c	-0.08431527
132	0x3ddc4c18	0.10756701
133	0x3e0bad38	0.13640296
134	0xbbc5f336	-0.006040956
135	0xbe607cfc	-0.21922678
136	0xbcc703af	-0.024293749
137	0xbe78ab05	-0.24283989
138	0xbe3431b2	-0.17597082
139	0xbdcc6d65	-0.09981803
140	0xbc294dea	-0.010333518
141	0x3d9143d4	0.07093015
142	0xbe9a3fe5	-0.30126873
143	0xbc9f573b	-0.019450774
144	0x3d85e789	0.065383025
145	0x3d8fe61c	0.07026312
146	0x3e546ad5	0.20743878
147	0x3eac70bf	0.33679768
148	0x3e078c2f	0.1323707
149	0xbded9962	-0.11601521
150	0xbbd94a01	-0.0066311364
151	0x3e3e5d80	0.18590355
152	0xbdbd97ad	-0.092574455
153	0xbebe3041	-0.3714619
154	0x3e50343d	0.20332427
155	0x3ea02ddc	0.31284988
156	0xbe5de7d0	-0.2167046
157	0x3d007b21	0.031367425
158	0x3e8022d2	0.25026566
159	0x3e7b54eb	0.24544112
160	0x3c801c20	0.015638411
161	0x3d425a7b	0.04744957
162	0x3e4cccb8	0.19999969
163	0x3e3c80fb	0.18408577
164	0x3c674111	0.014114634
165	0xbc3903d3	-0.011292416
166	0x3e0e2e63	0.13884883
167	0x3e2adfaf	0.16686891
168	0x3d6c8701	0.057745937
169	0xbe0038df	-0.12521695
170	0xbe6b25a2	-0.22963575
171	0x3d2fe187	0.04293969
172	0x3e3675f2	0.1781843
173	0x3cf7b520	0.030237734
174	0x3d7824e7	0.060582068
175	0xbe30d62e	-0.17269203
176	0x3e8c310b	0.27381167
177	0x3d547f05	0.051878948
178	0x3d1af307	0.037829425
179	0x3dc12ae4	0.09432009
180	0x3dc9fb3a	0.09862371
181	0x3d7a1ffa	0.06106565
182	0x3e2a7af7	0.1664847
183	0x3e48f26a	0.19623724
184	0x3e0de825	0.13858087
185	0xbe944cc5	-0.2896482
186	0xbd854569	-0.065073796
187	0x3e1df903	0.15427022
188	0xbe22efc0	-0.1591177
189	0xbedecb8b	-0.43514666
190	0xbe3a6e6e	-0.18206188
191	0x3e8c31f1	0.27381852
192	0x3ecba334	0.39772952
193	0x3d654859	0.0559772
194	0x3e7c7f46	0.24657926
195	0x3e82cc8f	0.2554669
196	0x3bdfc088	0.0068283714
197	0x3e429fa3	0.19006209
198	0x3e23733d	0.15961929
199	0x3e689c9a	0.22715989
200	0xbe44148a	-0.1914846
201	0xbe600ee5	-0.21880682
202	0xbe2178d4	-0.15768749
203	0xbea2767a	-0.31731015
204	0x3e582b52	0.21110275
205	0x3d78275b	0.060584407
206	0xbd1d3b98	-0.03838691
207	0x3d9e423d	0.07727478
208	0xbdcf06aa	-0.10108693
209	0x3d874803	0.06605532
210	0x3e0057d9	0.12533511
211	0x3dbd9231	0.092563994
212	0xbcf56c98	-0.029959008
213	0xbe0731c1	-0.13202573
214	0xbd52b565	-0.051442523
215	0x3def1015	0.11672989
216	0x3d8c094e	0.06837712
217	0xbeb84471	-0.35989717
218	0xbe56c450	-0.20973325
219	0x3e82d5d4	0.25553763
220	0xbeca6472	-0.3952976
221	0xbe6b293f	-0.22964953
222	0x3e848a78	0.25886893
223	0x3dc6d735	0.09709016
224	0x3e1cd995	0.15317376
225	0x3e8de9f8	0.27717566
226	0x3e11b39d	0.14228673
227	0x3d03daa2	0.032190926
228	0x3e04be28	0.12963164
229	0x3f15822f	0.5840177
230	0xbe2fbe8f	-0.17162536
231	0x3c3343e2	0.0109414775
232	0xbe159837	-0.14608847
233	0xbe8f1759	-0.279475
234	0xbe90e63d	-0.28300658
235	0x3c09176c	0.008367401
236	0x3eee03c5	0.4648725
237	0xbe503916	-0.20334277
238	0xbe1d5777	-0.15365396
239	0xbe702a9c	-0.23453754
240	0xbb185fe8	-0.0023250524
241	0x3df0c7c5	0.11756853
242	0x3de8c6c3	0.11366036
243	0x3e9e6ec5	0.30943885
244	0xbeaa109d	-0.332158
245	0x3e7fcd16	0.24980578
246	0xbdc17fcc	-0.094482034
247	0xbd7aacce	-0.061199956
248	0xbe292a82	-0.16520122
249	0xbe3b7f2d	-0.18310232
250	0xbe118783	-0.1421185
251	0xba3fcd99	-0.0007316708
252	0xbe18fad4	-0.14939433
253	0x3e27c53f	0.16383837
254	0xbe85ad5c	-0.26108825
255	0x3dee934a	0.11649187

blocks.0.W_QKV f4 [32, 96]
0	0xbd8dbaa5	-0.06920365
1	0xbe325751	-0.17416121
2	0xbe8167e5	-0.25274578
3	0xbc5f7a63	-0.013640019
4	0x3e0947d6	0.1340631
5	0x3d7e8dfb	0.062147122
6	0xbe42b8bd	-0.19015785
7	0xbdeefa5d	-0.11668847
8	0x3e33720e	0.17523977
9	0xbcd9a74d	-0.026569033
10	0xbe5b2f52	-0.2140477
11	0xbe0daa5f	-0.13834523
12	0x3d873cc9	0.06603391
13	0xbeccc512	-0.39994103
14	0x3dc3a1d7	0.09552353
15	0xbbc2dcd3	-0.0059467345
16	0xbd0152b5	-0.031573016
17	0xbe0f36f8	-0.13985813
18	0xbe75a3eb	-0.23988311
19	0xbdf8bfbc	-0.121459454
20	0x3e704d68	0.23467028
21	0xbd4b2ece	-0.049605183
22	0xbd6951bc	-0.056962714
23	0xbd999c8b	-0.07500561
24	0x3c416ac6	0.011805242
25	0x3e35ceeb	0.17754714
26	0x3e4fb44b	0.2028362
27	0xbe55837b	-0.20850937
28	0x3d91d08e	0.07119857
29	0xbcd455cb	-0.025919816
30	0xbd00bab6	-0.03142806
31	0xbdc19aca	-0.09453352
32	0xbda935b5	-0.08262197
33	0x3e8d96e6	0.2765419
34	0xbe02a615	-0.12758668
35	0xbeabfa35	-0.3358933
36	0xbec6169a	-0.3868912
37	0x3e8e72e5	0.27822033
38	0xbe67a21b	-0.22620432
39	0xbf0604b3	-0.5235092
40	0x3f028a02	0.50991833
41	0xbe9fcd53	-0.31211337
42	0x3eb7e5ff	0.3591766
43	0xbe30cd14	-0.17265731
44	0xbec292b4	-0.3800255
45	0x3e1904b4	0.149432
46	0x3db47c97	0.08812826
47	0xbd510d30	-0.051037967
48	0x3e18cf84	0.14922911
49	0xbd8adae7	-0.067800336
50	0xbdab7ce7	-0.083734326
51	0xbe9811cb	-0.29701075
52	0xbea00d9f	-0.31260392
53	0x3cf0f24f	0.029412417
54	0x3ee3acc5	0.4446775
55	0xbda5b5d1	-0.08091319
56	0xbd9b3823	-0.075790666
57	0xbe268baa	-0.16264215
58	0xbe2e4fe8	-0.1702267
59	0x3edd3d94	0.43211043
60	0xbe6376d7	-0.22213303
61	0xbd586de7	-0.052839186
62	0x3ddfd702	0.10929681
63	0xbef63e1c	-0.4809426
64	0x3d5ddca4	0.054165497
65	0x3e87575c	0.26433837
66	0x3d197210	0.037462294
67	0x3ebb0d97	0.36533806
68	0xbe875a7b	-0.2643622
69	0xbd97481d	-0.073868014
70	0xbe76ad53	-0.24089555
71	0xbe38932c	-0.18024892
72	0x3dfe6086	0.12420754
73	0xbe29c1f5	-0.16577895
74	0xbe47349e	-0.19453666
75	0x3a6bceea	0.0008995371
76	0x3e1e13c6	0.1543723
77	0x3dabed91	0.083949216
78	0x3ea193ad	0.3155798
79	0xbcf323a6	-0.029680084
80	0x3e3438f5	0.17599852
81	0xbcd257d4	-0.025676645
82	0xbe3c83a7	-0.18409596
83	0xbe661915	-0.22470506
84	0xbe016cb4	-0.12639123
85	0x3e4d4032	0.2004402
86	0x3e277cf4	0.1635626
87	0x3d03b43e	0.032154314
88	0xbe7a5c46	-0.24449262
89	0x3e36029d	0.17774434
90	0xbe26ecb0	-0.16301227
91	0xbdf49dda	-0.1194417
92	0xbe758fb3	-0.23980598
93	0xbdf45fa1	-0.11932302
94	0xbd0db050	-0.034591973
95	0xbe6fb123	-0.23407416
96	0x3b5e4416	0.0033915094
97	0xbdbeb384	-0.09311584
98	0x3df9a289	0.12189204
99	0x3e58dd8d	0.21178265
100	0x3dcb07f6	0.09913628
101	0x3e6e54ed	0.23274584
102	0x3dcad60d	0.09904108
103	0x3e9b49a3	0.30329618
104	0x3e04e28c	0.12977046
105	0x3ea6db43	0.32589158
106	0x3e3d8ce9	0.18510784
107	0xbca30119	-0.019897984
108	0xbe92a8bb	-0.28644356
109	0x3d9c62be	0.07636021
110	0xbcf2ee43	-0.029654628
111	0xbe04cb06	-0.12968072
112	0xbc59a312	-0.013283508
113	0xbe2f2a42	-0.17105964
114	0x3c0bc7e5	0.008531545
115	0x3eb1dedf	0.3474035
116	0x3d92f178	0.07174963
117	0xbeb275fd	-0.34855643
118	0x3d1a06e6	0.037604235
119	0xbe0c21d9	-0.13684787
120	0x3c8e1a43	0.017346507
121	0xbe6c1656	-0.23055395
122	0xbc72f9ea	-0.014830092
123	0xbe33435c	-0.17506164
124	0xbd9c1b59	-0.07622404
125	0xbe0cf037	-0.1376351
126	0xbe211b86	-0.15733156
127	0x3dd47c7f	0.10375308
128	0x3e784a0b	0.24246995
129	0x3eab31ce	0.33436435
130	0xbc0033e1	-0.007824869
131	0xbf0ed592	-0.5579463
132	0xbe4f05de	-0.20217082
133	0xbe210b95	-0.15727074
134	0xbf0d1b4c	-0.55119777
135	0x3e8208bc	0.2539729
136	0x3dbaffb5	0.091308035
137	0x3e6c63d0	0.2308495
138	0xbea63a16	-0.3246619
139	0xbea17061	-0.3153105
140	0xbe68e1c5	-0.22742374
141	0x3e8c2dd7	0.27378723
142	0xbe0b7cb4	-0.13621789
143	0x3c4d9006	0.012546545
144	0x3e85ba63	0.26118764
145	0x3db14709	0.08656127
146	0x3effae3b	0.49937615
147	0xbee49a2e	-0.4464888
148	0xbe2d163e	-0.16903016
149	0xbdcecd1b	-0.100977145
150	0x3ebe89a6	0.37214392
151	0x3e48e007	0.1961671
152	0xbe76ec98	-0.24113691
153	0x3e17ce0a	0.14824691
154	0xbdd4f760	-0.103987455
155	0x3d214752	0.039374657
156	0x3e819bc3	0.2531415
157	0x3dc2abdc	0.09505436
158	0xbe154f09	-0.14580931
159	0xbeace381	-0.33767322
160	0xbeb206da	-0.34770852
161	0x3d9cf50f	0.07663929
162	0xbd677af1	-0.05651373
163	0xbdd99db0	-0.1062578
164	0xbe358949	-0.17728151
165	0x3e930617	0.28715584
166	0xbe96ad69	-0.29429176
167	0xbeabbb8c	-0.33541524
168	0x3eab1a59	0.3341854
169	0xbddbdc61	-0.10735393
170	0xbdf24bd4	-0.11830869
171	0xbe6d3639	-0.23165216
172	0xbe313735	-0.17306216
173	0x3e91b963	0.2846175
174	0x3e3ac4e1	0.18239166
175	0x3d9d7d0d	0.07689867
176	0x3df3d265	0.11905364
177	0xbe492e37	-0.19646536
178	0x3e059e94	0.13048774
179	0x3c32206c	0.010871988
180	0x3e25856d	0.16164179
181	0x3d33aae4	0.043864146
182	0x3e7f2568	0.24916613
183	0x3ec776e5	0.38957897
184	0x3d029ca8	0.03188768
185	0xbe26ab7c	-0.16276354
186	0x3cffd1b8	0.031227931
187	0x3dc2b7f3	0.09507742
188	0xbe824351	-0.25441983
189	0xbe8bc743	-0.27300462
190	0x3e20adf3	0.15691356
191	0xbeaf2334	-0.34206545
192	0xbe399c4a	-0.18126026
193	0xbe536953	-0.20645647
194	0xbd1b9e11	-0.03799254
195	0xbdf44568	-0.11927301
196	0x3d3d8864	0.04627265
197	0xbe3900ba	-0.18066683
198	0xbde6a02a	-0.112610176
199	0xbe17359d	-0.14766546
200	0xbd36afec	-0.044601366
201	0x3e90a3ea	0.28250057
202	0xbe3fc515	-0.18727525
203	0xbea33224	-0.31874192
204	0x3d40cae0	0.047068477
205	0x3d967ef8	0.07348436
206	0xbe225171	-0.1585138
207	0xbdf5fd04	-0.120111495
208	0x3e89dbc3	0.26925477
209	0xbde0ebff	-0.10982513
210	0x3d92273a	0.07136388
211	0xbdc5f66a	-0.096661404
212	0xbe0887d3	-0.13333063
213	0xbe3b70ab	-0.18304698
214	0x3d8e2e3a	0.06942411
215	0x3da9c983	0.082903884
216	0x3d26280e	0.040565543
217	0xbd231af1	-0.039820615
218	0x3b9f13b4	0.0048546437
219	0x3e5e1ee9	0.21691479
220	0x3d3fa355	0.046786625
221	0x3ddab13d	0.10678337
222	0x3e2e656e	0.1703088
223	0xbd26cc0c	-0.040721938
224	0x3eb4f281	0.35341266
225	0xbddaf1fc	-0.10690686
226	0x3e803d38	0.25046706
227	0xbe05b65b	-0.13057844
228	0x3d7dd79e	0.061973207
229	0xbe945666	-0.28972167
230	0xbd01ee98	-0.03172168
231	0x3e9eeab0	0.31038427
232	0xbea76404	-0.32693493
233	0x3e16eaeb	0.14738052
234	0xbe9e48ea	-0.30915004
235	0xbe338973	-0.17532901
236	0x3dc4f2ff	0.0961666
237	0x3e812ccb	0.25229487
238	0x3ddde99e	0.108355746
239	0xbe8f57cf	-0.2799668
240	0x3de7f74d	0.11326466
241	0x3def8582	0.116953865
242	0x3e3f3bee	0.18675205
243	0xbc27574c	-0.010213684
244	0x3e35346d	0.1769578
245	0xbe47fb26	-0.195294
246	0xbeb93b76	-0.36178178
247	0x3c80fbfc	0.015745156
248	0xbe5e2423	-0.21693473
249	0xbce616f7	-0.028087122
250	0xbeba6fd2	-0.36413437
251	0xbf0517cc	-0.51989436
252	0x3e3fef3b	0.18743603
253	0x3e4872d5	0.19575055
254	0xbec11e97	-0.3771865
255	0x3e1b473b	0.15163891

blocks.0.mha.in_proj_weight f4 [96, 32]
0	0xbe05c6f1	-0.13064171
1	0xbe4e558c	-0.20149821
2	0x3ca0ceac	0.019629799
3	0xbe09c50c	-0.13454074
4	0xbddd0df8	-0.1079368
5	0x3d8e47a6	0.069472596
6	0x3e19f743	0.15035729
7	0xba910a85	-0.0011065757
8	0xbddf8f01	-0.10915948
9	0x3dc13003	0.09432986
10	0xbd26e40f	-0.040744837
11	0x3d93e0e9	0.072206326
12	0x3e35dbb1	0.17759587
13	0x3d398da4	0.045301095
14	0x3df197d7	0.11796539
15	0x3e0783b7	0.13233839
16	0x3d26b1dd	0.040696967
17	0x3e30563e	0.17220399
18	0xbd67eba9	-0.056621227
19	0x3d87eb36	0.0663666
20	0xbe08c9a5	-0.13358171
21	0x3d0ac23d	0.033876646
22	0xbdf6df1b	-0.12054273
23	0xbc4fc733	-0.01268177
24	0xbd350d71	-0.04420227
25	0x3c366458	0.011132322
26	0xbd90f5b5	-0.07078115
27	0xbe223cf1	-0.1584356
28	0x3cf5bfb4	0.029998638
29	0x3e312d11	0.17302348
30	0x3e06e5b6	0.13173565
31	0x3d6f47d6	0.058418117
32	0xbdc1cf98	-0.094634235
33	0xbd84f316	-0.064916775
34	0x3dc4ddc1	0.09612609
35	0x3d20e195	0.03927763
36	0xbdda81ae	-0.10669266
37	0x3d89df8c	0.06732091
38	0x3e429942	0.19003776
39	0x3c49d3e9	0.01231859
40	0xbdc0b739	-0.09409947
41	0x3dc391a7	0.09549265
42	0x3d8d5d2a	0.06902535
43	0x3d730a2e	0.05933588
44	0x3d05f5b4	0.032705024
45	0x3e1c5c10	0.15269494
46	0xbe14db5a	-0.14536801
47	0x3d87cd69	0.06630976
48	0xbe082c9f	-0.13298272
49	0x3da4d000	0.08047485
50	0xbd80261f	-0.06257271
51	0x3df26694	0.118359715
52	0x3d60b339	0.05485842
53	0x3d9cedab	0.07662519
54	0xbe56460b	-0.20925157
55	0xbdb15e9d	-0.08660624
56	0xbd193e7b	-0.0374131
57	0x3de41bc5	0.11138109
58	0x3d6155af	0.055013355
59	0x3dc938d6	0.09825294
60	0x3e2f80e5	0.17139013
61	0x3e0839b5	0.13303263
62	0x3d9b334b	0.07578143
63	0x3d976e02	0.07394029
64	0x3c4d4518	0.01252868
65	0xbdbe2276	-0.09283917
66	0xbcc7d72d	-0.024394596
67	0xbdf43f8d	-0.11926184
68	0x3da473ca	0.080298975
69	0xbe1e1ae9	-0.15439953
70	0xbdcf4a68	-0.10121614
71	0x3dba9e3b	0.09112211
72	0x3dbbe156	0.09173839
73	0xbd9bb7fd	-0.07603452
74	0xbe0f2590	-0.13979173
75	0x3e007dec	0.12548035
76	0x3d87c68e	0.06629668
77	0xbe8400da	-0.257819
78	0x3e064b43	0.13114648
79	0xbd2fc8bb	-0.04291604
80	0xbcbda4a0	-0.023149788
81	0x3e28873c	0.16457838
82	0xbddef2cf	-0.10886156
83	0xbe12d6d9	-0.1433977
84	0xbe054a39	-0.13016595
85	0xbd24823b	-0.04016326
86	0x3bfde706	0.0077484874
87	0xbe255175	-0.16144355
88	0x3d9618c7	0.07328945
89	0xbd89886a	-0.06715472
90	0xbc8dfbaf	-0.017331926
91	0xbd8502e4	-0.06494692
92	0x3dacc495	0.084359325
93	0xbcc9ab2e	-0.024617758
94	0xbe2d667d	-0.16933627
95	0x3e0469a9	0.12930931
96	0x3d8cce2b	0.06875261
97	0x3d9677db	0.07347079
98	0xbd1a245b	-0.037632328
99	0x3d1e568c	0.038656756
100	0x3dee6c56	0.11641757
101	0x3d9c55f2	0.0763358
102	0xbd76cc9a	-0.060253717
103	0x3dde2d9c	0.10848543
104	0xbce50496	-0.027956288
105	0x3d2b27ba	0.041785933
106	0x3e14f235	0.1454552
107	0x3c722611	0.014779584
108	0xbd73ff53	-0.059569668
109	0x3e4e6339	0.20155038
110	0xbd9f2027	-0.077698044
111	0xbd78d317	-0.060748186
112	0xbddfa893	-0.10920825
113	0xbd6a911a	-0.057267286
114	0x3d0dfe46	0.034666322
115	0x3ca518e3	0.020153468
116	0x3d9c2595	0.07624356
117	0x3ba4d984	0.0050308127
118	0x3d84f14c	0.06491336
119	0x3e1c949a	0.15291062
120	0x3da40dd1	0.08010448
121	0x3de430db	0.11142131
122	0x3e33e48b	0.17567651
123	0x3cf4b8fb	0.029873362
124	0x3d40255a	0.04691062
125	0x3d163b58	0.03667769
126	0xbe1cdef4	-0.15319425
127	0xbe56a53b	-0.20961468
128	0x3c551fda	0.013008082
129	0xbe62f11c	-0.22162288
130	0xbd1f87b0	-0.03894776
131	0x3d7fed19	0.062481973
132	0x3d05da19	0.032678697
133	0x3e75af72	0.23992708
134	0x3d05d8e5	0.03267755
135	0x3e871440	0.26382637
136	0x3e14f42a	0.14546266
137	0xbd9d508f	-0.07681381
138	0xbd34ac20	-0.044109464
139	0x3d1d6686	0.038427852
140	0xbea4072f	-0.3203673
141	0xbd2f8615	-0.04285248
142	0xbc444d67	-0.011981345
143	0x3d111dd3	0.035428833
144	0xbe6ed3db	-0.23323004
145	0x3cd9e1be	0.0265969
146	0xbe0a0395	-0.13477929
147	0x3db1c971	0.08681
148	0x3d34ef11	0.044173304
149	0xbe17f5a0	-0.14839792
150	0xbda1b978	-0.078967035
151	0xbe33e280	-0.17566872
152	0x3dc57536	0.09641497
153	0x3d67caaf	0.05658978
154	0x3dfd329c	0.123631686
155	0xbe5c1183	-0.21491055
156	0x3c69b8d8	0.014265262
157	0x3da14087	0.07873636
158	0xbca965e7	-0.020678474
159	0xbdad90c3	-0.08474877
160	0x3eb67338	0.3563478
161	0xbdb51555	-0.088419594
162	0xbd87340e	-0.066017255
163	0xbd61f715	-0.055167276
164	0xbe39d208	-0.18146527
165	0x3d99ad3a	0.075037435
166	0x3d313641	0.04326463
167	0x3d902a6b	0.070393406
168	0x3e3c5fd2	0.18395928
169	0xbe9885d5	-0.29789606
170	0xbdd323ce	-0.103095636
171	0x3e35a088	0.17737019
172	0x3d3e27d1	0.04642469
173	0x3e26e121	0.16296817
174	0x3e0bc0b9	0.13647737
175	0x3e70557a	0.23470107
176	0x3d754fd1	0.059890572
177	0xbd6f4908	-0.058419257
178	0x3e787511	0.24263407
179	0x3c72b98f	0.014814748
180	0x3d1633f2	0.036670633
181	0x3d15de7b	0.036589127
182	0xbd88843e	-0.06665848
183	0x3e24d69f	0.16097496
184	0x3e00107d	0.1250629
185	0x3cdae2a0	0.026719391
186	0xbc9ff581	-0.019526245
187	0x3bb48c36	0.0055098785
188	0xbdd6cb0b	-0.10487946
189	0x3d2d7bb8	0.042354316
190	0xbd77decb	-0.060515206
191	0x3ca90720	0.02063328
192	0x3e295d5d	0.16539522
193	0xbd6f2433	-0.05838413
194	0xbdf7dbff	-0.12102508
195	0xbe2d5665	-0.16927488
196	0xbe60c246	-0.2194911
197	0xbd09f188	-0.033677608
198	0xbd864051	-0.06555236
199	0x3e811faa	0.2521947
200	0xbc4ac1e3	-0.012375328
201	0xbc03016d	-0.007995945
202	0xbe1ef895	-0.15524514
203	0xbe39d7c9	-0.18148722
204	0x3dcf3ffe	0.101196274
205	0x3e7ade5e	0.24498889
206	0xbe1ae17b	-0.15125076
207	0x3dd1c4ea	0.102426365
208	0x3e8256f9	0.2545698
209	0x3e793c38	0.24339378
210	0xbd85671a	-0.06513806
211	0x3e8b5f85	0.27221313
212	0x3ba19f0f	0.0049322913
213	0xbe94c254	-0.2905451
214	0xbd2cff8e	-0.042235903
215	0x3ded3482	0.11582281
216	0x3e4840eb	0.19556014
217	0xbd8c82ed	-0.068609096
218	0xbe71d3f0	-0.23616004
219	0x3e876eba	0.26451665
220	0xbd85470c	-0.06507692
221	0xbd090a10	-0.033456862
222	0x3d9bd16c	0.076083034
223	0x3cf764f7	0.030199511
224	0xbcb8a297	-0.022538466
225	0x3dff836a	0.12476237
226	0xbe09d6ed	-0.13460894
227	0xbde24dee	-0.1105002
228	0x3d40339e	0.046924226
229	0x3d461d88	0.048368007
230	0xbb68e23c	-0.0035535237
231	0xbd8faa9e	-0.070149645
232	0xbb9c6d73	-0.0047737896
233	0xbe383836	-0.17990193
234	0x3d29c32c	0.041445896
235	0x3d7b9a01	0.061426166
236	0x3e48b7e4	0.19601399
237	0xbcb94baa	-0.022619087
238	0x3d9ec7d2	0.077529564
239	0x3e3d7e65	0.18505247
240	0xbe3d6db4	-0.1849888
241	0xbdae6665	-0.08515624
242	0xbd7d2c7a	-0.061809994
243	0x3c8b01db	0.016968658
244	0xbe3a6ec8	-0.18206322
245	0x3e915523	0.28385267
246	0x3dc412a3	0.09573867
247	0x3e4ca9c0	0.1998663
248	0xbdc6001a	-0.09667988
249	0x39cc39c7	0.0003895296
250	0x3d8125fb	0.06306072
251	0x3c41b142	0.011822047
252	0xbdda8c2f	-0.10671269
253	0x3cd519a3	0.026013201
254	0xbdef70a2	-0.11691405
255	0x3e96967c	0.29411685

blocks.0.mha.in_proj_bias f4 [96]
0	0x3ecab191	0.39588597
1	0x3e152bac	0.14567441
2	0x3e91b397	0.2845733
3	0x3f00efcd	0.50365907
4	0xbf6aedf5	-0.91769344
5	0xbf5c9f8e	-0.8618096
6	0xbf410211	-0.7539378
7	0x3ef26d8a	0.47349197
8	0xbe045d25	-0.12926157
9	0xbf706306	-0.939011
10	0x3f16b49b	0.5886933
11	0x3ee5d58a	0.4488948
12	0xbf2a2008	-0.66455126
13	0xbe8cc168	-0.27491307
14	0x3f8ec25e	1.1153066
15	0xbf15a146	-0.5844921
16	0xbf0a5dea	-0.5404955
17	0x3f0f6f0b	0.56028813
18	0x3f1887f3	0.5958244
19	0xbf2453b7	-0.6419024
20	0x3e5dc6a8	0.21657813
21	0xbd5bb96f	-0.05364364
22	0xbcec2713	-0.028827226
23	0xbc88a205	-0.01667882
24	0x3df406fc	0.11915395
25	0xbdd623a9	-0.104560204
26	0xbe487eec	-0.19579667
27	0xbdb328ee	-0.08748041
28	0xbd31799f	-0.043328878
29	0xbcc4a723	-0.024005478
30	0x3c0ebd10	0.008712068
31	0x3c85021a	0.016236354
32	0x3730519d	1.050942e-05
33	0xb90cafce	-0.00013416933
34	0xb87e19bd	-6.058229e-05
35	0x391d2897	0.00014987808
36	0x394f16df	0.00019749578
37	0x390dddbd	0.00013529412
38	0xb7633ab9	-1.3543927e-05
39	0xb90f5030	-0.00013667415
40	0xb90d467a	-0.00013473062
41	0xba8ea6bc	-0.0010883431
42	0x396c8b2b	0.00022558558
43	0x3a271d46	0.00063749065
44	0xb9b735a0	-0.00034944434
45	0xba3378c6	-0.0006846305
46	0x3a592c0c	0.00082844566
47	0x38eb6ffe	0.000112265334
48	0xb6d02511	-6.203198e-06
49	0xb853fb9f	-5.054066e-05
50	0x377ad562	1.4950843e-05
51	0xb77634c9	-1.4675033e-05
52	0x389531db	7.11416e-05
53	0x37d59af0	2.5463727e-05
54	0xb8b9e2b5	-8.863715e-05
55	0x38afb908	8.379115e-05
56	0xb73cfeac	-1.1264969e-05
57	0x3873304e	5.7980702e-05
58	0xb73a3a74	-1.1100074e-05
59	0x3923075c	0.00015547633
60	0xb7cb9f8e	-2.4273784e-05
61	0x3896d329	7.191889e-05
62	0xb7c3c807	-2.3338956e-05
63	0x383055e2	4.2041655e-05
64	0x3e4957b4	0.19662362
65	0x3ecefb57	0.40426132
66	0x3c965ae2	0.018353883
67	0x3ea097da	0.31365854
68	0x3e01b573	0.12666874
69	0xbd49d637	-0.049276557
70	0xbdd99410	-0.10623944
71	0x3e267a1d	0.1625752
72	0x3ad760a3	0.0016431998
73	0x3d2ba8cc	0.041909024
74	0x3d237551	0.039906804
75	0x3d814e3f	0.063137524
76	0x3e336302	0.17518237
77	0x3d499e7d	0.04922341
78	0x3eab541d	0.3346261
79	0xbd5ca59d	-0.05386888
80	0x3daea77b	0.08528038
81	0xbde4d9b7	-0.11174338
82	0x3d792cf6	0.060833894
83	0xbcaf5017	-0.021400495
84	0xbd32cf6b	-0.04365484
85	0x3e45f97c	0.19333452
86	0x3e043891	0.12912203
87	0x3e0c4fdc	0.13702339
88	0xbe9dc018	-0.30810618
89	0xbcf2719d	-0.02959519
90	0xbe1ef00d	-0.1552126
91	0xbe404031	-0.18774487
92	0x3c8b01eb	0.016968688
93	0x3c66ee23	0.014094862
94	0x3da57397	0.08078688
95	0xbdc18c3a	-0.09450574

blocks.0.mha.out_proj.weight f4 [32, 32]
0	0x3e3fb8d4	0.1872285
1	0x3e4aab69	0.1979195
2	0x3c83ec5f	0.016103921
3	0x3e951f8b	0.29125628
4	0x3cd19f10	0.025588542
5	0xbd9bf6d3	-0.07615437
6	0xbcf618be	-0.030041095
7	0x3d5362af	0.051607784
8	0x3f372a96	0.71549356
9	0xbe6106d0	-0.21975255
10	0xbdd4d028	-0.10391265
11	0xbe831609	-0.2560275
12	0x3d845b73	0.06462755
13	0xbda91cba	-0.08257432
14	0x3ca0bd85	0.01962162
15	0xbd56516e	-0.05232375
16	0x3e1d196e	0.15341732
17	0x3e26fd50	0.16307569
18	0xbe2580bb	-0.16162388
19	0xbcf5467e	-0.02994084
20	0xbe8583ae	-0.26077026
21	0x3df8d1f0	0.121494174
22	0x3d97ed3e	0.07418297
23	0x3e27b8d8	0.16379106
24	0xbe2d7a65	-0.16941221
25	0x3dd95781	0.10612393
26	0xbc530296	-0.0128790345
27	0xbe386ff8	-0.18011463
28	0x3d23612a	0.039887585
29	0x3c89a308	0.016801372
30	0x3e08d3dc	0.13362068
31	0xbe0684b4	-0.1313656
32	0x3e02cf93	0.12774496
33	0x3d863d35	0.06554643
34	0xbd965964	-0.07341269
35	0xbdd33675	-0.10313121
36	0x3d28b336	0.041186534
37	0x3e9d479a	0.3071869
38	0xbd39e0cd	-0.045380402
39	0xbea1e909	-0.31623104
40	0xbdbcc8b2	-0.09217967
41	0x3d20afa4	0.039230004
42	0x3e2c57d6	0.16830382
43	0x3e2463cd	0.16053696
44	0x3db8bab3	0.09019985
45	0xbdcd1926	-0.10014562
46	0xbd4faa63	-0.050699603
47	0xbb3ac3b0	-0.0028497986
48	0x3d67cfdb	0.05659471
49	0xbdf66b50	-0.12032187
50	0xbecf9f5a	-0.40551263
51	0x3e4c4b3e	0.19950578
52	0xbea13082	-0.3148232
53	0x3e557329	0.20844711
54	0x3e0c32c9	0.13691248
55	0x3e83deee	0.2575602
56	0xbdc06714	-0.093946606
57	0x3e4f385f	0.20236348
58	0xbd7b290a	-0.061318435
59	0xbd8cfe69	-0.068844624
60	0xbc5a962e	-0.01334147
61	0xbe0cdf78	-0.13757122
62	0xbd06c91b	-0.032906633
63	0xbd59581b	-0.05306254
64	0x3e533488	0.20625508
65	0x3de23774	0.11045733
66	0x3e542cc8	0.20720208
67	0xbe268370	-0.16261077
68	0x3e38bfb3	0.18041877
69	0x3e602c04	0.2189179
70	0x3e8504ae	0.25980133
71	0xbeca98d5	-0.39569727
72	0x3f14abdb	0.5807473
73	0xbe92a673	-0.28642616
74	0xbe807ec0	-0.25096703
75	0xbeadd07a	-0.33948117
76	0xbe80187b	-0.25018677
77	0x3eda8593	0.42680034
78	0xbd9adf76	-0.07562153
79	0x3ec73d01	0.3891373
80	0xbdb18a7c	-0.08668992
81	0xbe81e7d7	-0.25372192
82	0x3c7ac67b	0.0153061105
83	0x3d03f8d7	0.032219734
84	0xbdf885ef	-0.12134921
85	0x3df9d61e	0.12199043
86	0x3d6bb438	0.057544917
87	0x3de5a359	0.11212797
88	0xbe71e139	-0.23621072
89	0x3e63d42b	0.22248904
90	0xbc8ce1c1	-0.017197492
91	0xbdb255f7	-0.08707803
92	0x3d8d931b	0.06912824
93	0x3c11c759	0.008897626
94	0xbbaa3767	-0.0051945928
95	0x3d89cca6	0.06728487
96	0x3e3e45c1	0.18581297
97	0x3e9bbdd4	0.30418265
98	0xbdb8820d	-0.0900918
99	0xbea222cd	-0.31667176
100	0x3ece3630	0.40275717
101	0x3e6b769e	0.22994468
102	0x3e6846fc	0.22683328
103	0xbee3e94a	-0.44513923
104	0x3ee5c1ac	0.44874322
105	0xbea7d983	-0.32783136
106	0xbe2ac3b3	-0.16676216
107	0xbe8b5730	-0.27214956
108	0xbe58d7bd	-0.21176048
109	0x3efd8874	0.49518168
110	0x3d1ed676	0.038778745
111	0x3ebdb59a	0.37052613
112	0x3d3ef0d4	0.04661639
113	0xbe9bb412	-0.3041082
114	0xbe1e2d66	-0.15447006
115	0x3cbc1835	0.022960762
116	0xbdc7db50	-0.097586274
117	0x3caaaf47	0.020835532
118	0xbc3d8fe8	-0.011569954
119	0x3e194e26	0.14971218
120	0xbe3797e8	-0.17929041
121	0xbcba8f23	-0.022773331
122	0xbb8def0d	-0.0043314756
123	0xbe032a3d	-0.12809081
124	0xbdba67c6	-0.091018245
125	0xbd4af32a	-0.049548306
126	0xbdebde98	-0.11517066
127	0xbafe210b	-0.001938851
128	0xbca84ada	-0.020543505
129	0xbea04029	-0.3129895
130	0xbc0cf952	-0.0086043645
131	0xbe38a8d8	-0.18033159
132	0x3d28a3fb	0.04117201
133	0x3ed10278	0.40822196
134	0xbd7b4033	-0.061340522
135	0xbf13ad93	-0.5768673
136	0xbe1b274b	-0.15151708
137	0x3c37d0a9	0.011219182
138	0x3dc36c54	0.09542146
139	0xbc8a854b	-0.016909262
140	0xbd6ef068	-0.058334738
141	0x3e73a086	0.23791704
142	0x3b78c290	0.0037957765
143	0x3d6a957f	0.057271477
144	0xbe8273ef	-0.25479075
145	0xbdab876c	-0.08375439
146	0xbdb52016	-0.088440105
147	0x3f149c51	0.5805102
148	0x3d0a5af0	0.03377813
149	0xbe38235c	-0.17982239
150	0x3c2c736b	0.010525565
151	0xbe1567ff	-0.14590453
152	0x3a910267	0.0011063338
153	0xbe740526	-0.23830089
154	0x3d541244	0.051775232
155	0x3d2add52	0.041714974
156	0x3d46d9e5	0.048547644
157	0xbcd97f5b	-0.026549986
158	0x3e2a9d38	0.16661537
159	0xbe28984e	-0.1646435
160	0xbc62189c	-0.013799813
161	0x3d1c9033	0.038223457
162	0x3dd0371f	0.101667635
163	0xbe55e70b	-0.20888917
164	0xbece64b4	-0.40311205
165	0xbeab2d04	-0.33432782
166	0xbebcf9ae	-0.3690924
167	0x3f0b988c	0.54529643
168	0xbf113430	-0.56720257
169	0x3db8181b	0.08988973
170	0x3d081d5d	0.033231128
171	0x3ea9beea	0.33153468
172	0x3e0d2b58	0.13786066
173	0xbec1fd5e	-0.37888616
174	0xbe30e693	-0.17275457
175	0xbe717023	-0.23577933
176	0xbe3f47d8	-0.1867975
177	0x3ebd8c86	0.37021273
178	0x3e345424	0.17610222
179	0xbe65a5e4	-0.22426564
180	0x3c14c6bb	0.009080584
181	0x3df53e13	0.1197473
182	0x3dbdfb48	0.09276444
183	0x3dda0e23	0.106472276
184	0x3dbd1f7a	0.09234519
185	0x3d65d08b	0.056107085
186	0x3c3a9dde	0.0113901775
187	0x3d055076	0.032547437
188	0x3e06b239	0.13153924
189	0x3c76582d	0.015035671
190	0x3cffd056	0.031227272
191	0xbe2bafd3	-0.1676629
192	0xbda0cb1a	-0.078512385
193	0x3ed385b9	0.4131296
194	0x3d0cca6c	0.034372732
195	0xbd26df74	-0.040740445
196	0x3e2c2c6f	0.16813825
197	0x3e4bb562	0.19893411
198	0x3e8cc38b	0.27492937
199	0xbccc5c35	-0.024946311
200	0xbea04a7b	-0.31306824
201	0xbe27c309	-0.16382994
202	0x3e1ab823	0.15109305
203	0xbc53d108	-0.012928255
204	0xbe5a8745	-0.21340664
205	0xbc9a293f	-0.018818496
206	0x3d5e9d9c	0.054349527
207	0xbd15a991	-0.036538664
208	0x3c997efa	0.018737305
209	0xbdaa6e6c	-0.083218426
210	0x3dd6c708	0.10487181
211	0x3dcfda44	0.10149053
212	0xbe4f40fb	-0.20239632
213	0xbd1ebc63	-0.03875388
214	0x3c2c7a94	0.010527272
215	0x3e384310	0.17994332
216	0xbe1ac2a4	-0.15113312
217	0x3d9bb2b4	0.07602444
218	0xbd427d0e	-0.047482543
219	0xbc866174	-0.016403891
220	0xbe261362	-0.16218331
221	0x3db709e5	0.08937434
222	0x3e27974d	0.1636631
223	0xbe3831e7	-0.17987786
224	0xbd87b4b1	-0.06626261
225	0x3c9bca69	0.019017415
226	0xbd17b9e6	-0.03704252
227	0x3d0ad6b5	0.033896167
228	0xbd101eab	-0.035185497
229	0xbd407321	-0.046984795
230	0xbdebd3da	-0.11515017
231	0x3e335e15	0.17516358
232	0xbdb3b98d	-0.087756254
233	0x3e097910	0.13425088
234	0xbd82426d	-0.06360326
235	0x3e403cbb	0.18773167
236	0x3c9306a0	0.017947495
237	0x3dd70189	0.1049834
238	0x3d02e1d3	0.031953644
239	0xbd973f5e	-0.07385133
240	0x3db0aa6a	0.08626254
241	0xbd7fcc02	-0.062450416
242	0x3d81f6ab	0.06345876
243	0xbbe36c56	-0.006940405
244	0xbcd13886	-0.025539648
245	0xbd5c7682	-0.053823955
246	0xbc39cb1c	-0.011339929
247	0x3e21787a	0.15768614
248	0xbdb75b36	-0.08952944
249	0x3ddd16cc	0.10795364
250	0xba2efc6b	-0.00066751865
251	0xbe0d07ea	-0.1377255
252	0xbde14e6e	-0.110012874
253	0x3da00eba	0.07815309
254	0x3d467ae3	0.048457038
255	0xbea2fdf2	-0.3183437

blocks.0.mha.out_proj.bias f4 [32]
0	0x3d2b2954	0.04178746
1	0x3dbe01b5	0.09277669
2	0x3b58001d	0.0032959052
3	0x3da89b31	0.082327254
4	0xbd3bae75	-0.045820672
5	0xbd900aa6	-0.07033281
6	0x3e1adcd0	0.15123296
7	0x3ea9c29f	0.33156297
8	0xbd8366cf	-0.064160936
9	0x3db96da5	0.09054116
10	0xbd2106d8	-0.039313167
11	0x3e9ba26b	0.30397353
12	0xbc3adf5a	-0.01140579
13	0xbe14a614	-0.14516479
14	0x3dfd27ce	0.12361108
15	0xbf083a7d	-0.53214246
16	0x3e9fa086	0.31177157
17	0x3eac7830	0.33685446
18	0xbe269060	-0.16266012
19	0xbde8dd4c	-0.11370334
20	0x3e47789c	0.19479603
21	0x3de8becd	0.11364517
22	0xbd1991af	-0.03749245
23	0x3d9aff5e	0.07568239
24	0xbe69a9d5	-0.22818692
25	0xbc911d42	-0.017714147
26	0xbee990e4	-0.45618355
27	0x3e12254d	0.14272042
28	0xbe190471	-0.149431
29	0xbd566266	-0.052339934
30	0x3e90de61	0.28294662
31	0xbd9b1ec7	-0.0757423

blocks.0.ln.weight f4 [192, 32]
0	0x3f800000	1.0
1	0x3f800000	1.0
2	0x3f800000	1.0
3	0x3f800000	1.0
4	0x3f800000	1.0
5	0x3f800000	1.0
6	0x3f800000	1.0
7	0x3f800000	1.0
8	0x3f800000	1.0
9	0x3f800000	1.0
10	0x3f800000	1.0
11	0x3f800000	1.0
12	0x3f800000	1.0
13	0x3f800000	1.0
14	0x3f800000	1.0
15	0x3f800000	1.0
16	0x3f800000	1.0
17	0x3f800000	1.0
18	0x3f800000	1.0
19	0x3f800000	1.0
20	0x3f800000	1.0
21	0x3f800000	1.0
22	0x3f800000	1.0
23	0x3f800000	1.0
24	0x3f800000	1.0
25	0x3f800000	1.0
26	0x3f800000	1.0
27	0x3f800000	1.0
28	0x3f800000	1.0
29	0x3f800000	1.0
30	0x3f800000	1.0
31	0x3f800000	1.0
32	0x3f800000	1.0
33	0x3f800000	1.0
34	0x3f800000	1.0
35	0x3f800000	1.0
36	0x3f800000	1.0
37	0x3f800000	1.0
38	0x3f800000	1.0
39	0x3f800000	1.0
40	0x3f800000	1.0
41	0x3f800000	1.0
42	0x3f800000	1.0
43	0x3f800000	1.0
44	0x3f800000	1.0
45	0x3f800000	1.0
46	0x3f800000	1.0
47	0x3f800000	1.0
48	0x3f800000	1.0
49	0x3f800000	1.0
50	0x3f800000	1.0
51	0x3f800000	1.0
52	0x3f800000	1.0
53	0x3f800000	1.0
54	0x3f800000	1.0
55	0x3f800000	1.0
56	0x3f800000	1.0
57	0x3f800000	1.0
58	0x3f800000	1.0
59	0x3f800000	1.0
60	0x3f800000	1.0
61	0x3f800000	1.0
62	0x3f800000	1.0
63	0x3f800000	1.0
64	0x3f800000	1.0
65	0x3f800000	1.0
66	0x3f800000	1.0
67	0x3f800000	1.0
68	0x3f800000	1.0
69	0x3f800000	1.0
70	0x3f800000	1.0
71	0x3f800000	1.0
72	0x3f800000	1.0
73	0x3f800000	1.0
74	0x3f800000	1.0
75	0x3f800000	1.0
76	0x3f800000	1.0
77	0x3f800000	1.0
78	0x3f800000	1.0
79	0x3f800000	1.0
80	0x3f800000	1.0
81	0x3f800000	1.0
82	0x3f800000	1.0
83	0x3f800000	1.0
84	0x3f800000	1.0
85	0x3f800000	1.0
86	0x3f800000	1.0
87	0x3f800000	1.0
88	0x3f800000	1.0
89	0x3f800000	1.0
90	0x3f800000	1.0
91	0x3f800000	1.0
92	0x3f800000	1.0
93	0x3f800000	1.0
94	0x3f800000	1.0
95	0x3f800000	1.0
96	0x3f800000	1.0
97	0x3f800000	1.0
98	0x3f800000	1.0
99	0x3f800000	1.0
100	0x3f800000	1.0
101	0x3f800000	1.0
102	0x3f800000	1.0
103	0x3f800000	1.0
104	0x3f800000	1.0
105	0x3f800000	1.0
106	0x3f800000	1.0
107	0x3f800000	1.0
108	0x3f800000	1.0
109	0x3f800000	1.0
110	0x3f800000	1.0
111	0x3f800000	1.0
112	0x3f800000	1.0
113	0x3f800000	1.0
114	0x3f800000	1.0
115	0x3f800000	1.0
116	0x3f800000	1.0
117	0x3f800000	1.0
118	0x3f800000	1.0
119	0x3f800000	1.0
120	0x3f800000	1.0
121	0x3f800000	1.0
122	0x3f800000	1.0
123	0x3f800000	1.0
124	0x3f800000	1.0
125	0x3f800000	1.0
126	0x3f800000	1.0
127	0x3f800000	1.0
128	0x3f800000	1.0
129	0x3f800000	1.0
130	0x3f800000	1.0
131	0x3f800000	1.0
132	0x3f800000	1.0
133	0x3f800000	1.0
134	0x3f800000	1.0
135	0x3f800000	1.0
136	0x3f800000	1.0
137	0x3f800000	1.0
138	0x3f800000	1.0
139	0x3f800000	1.0
140	0x3f800000	1.0
141	0x3f800000	1.0
142	0x3f800000	1.0
143	0x3f800000	1.0
144	0x3f800000	1.0
145	0x3f800000	1.0
146	0x3f800000	1.0
147	0x3f800000	1.0
148	0x3f800000	1.0
149	0x3f800000	1.0
150	0x3f800000	1.0
151	0x3f800000	1.0
152	0x3f800000	1.0
153	0x3f800000	1.0
154	0x3f800000	1.0
155	0x3f800000	1.0
156	0x3f800000	1.0
157	0x3f800000	1.0
158	0x3f800000	1.0
159	0x3f800000	1.0
160	0x3f800000	1.0
161	0x3f800000	1.0
162	0x3f800000	1.0
163	0x3f800000	1.0
164	0x3f800000	1.0
165	0x3f800000	1.0
166	0x3f800000	1.0
167	0x3f800000	1.0
168	0x3f800000	1.0
169	0x3f800000	1.0
170	0x3f800000	1.0
171	0x3f800000	1.0
172	0x3f800000	1.0
173	0x3f800000	1.0
174	0x3f800000	1.0
175	0x3f800000	1.0
176	0x3f800000	1.0
177	0x3f800000	1.0
178	0x3f800000	1.0
179	0x3f800000	1.0
180	0x3f800000	1.0
181	0x3f800000	1.0
182	0x3f800000	1.0
183	0x3f800000	1.0
184	0x3f800000	1.0
185	0x3f800000	1.0
186	0x3f800000	1.0
187	0x3f800000	1.0
188	0x3f800000	1.0
189	0x3f800000	1.0
190	0x3f800000	1.0
191	0x3f800000	1.0
192	0x3f800000	1.0
193	0x3f800000	1.0
194	0x3f800000	1.0
195	0x3f800000	1.0
196	0x3f800000	1.0
197	0x3f800000	1.0
198	0x3f800000	1.0
199	0x3f800000	1.0
200	0x3f800000	1.0
201	0x3f800000	1.0
202	0x3f800000	1.0
203	0x3f800000	1.0
204	0x3f800000	1.0
205	0x3f800000	1.0
206	0x3f800000	1.0
207	0x3f800000	1.0
208	0x3f800000	1.0
209	0x3f800000	1.0
210	0x3f800000	1.0
211	0x3f800000	1.0
212	0x3f800000	1.0
213	0x3f800000	1.0
214	0x3f800000	1.0
215	0x3f800000	1.0
216	0x3f800000	1.0
217	0x3f800000	1.0
218	0x3f800000	1.0
219	0x3f800000	1.0
220	0x3f800000	1.0
221	0x3f800000	1.0
222	0x3f800000	1.0
223	0x3f800000	1.0
224	0x3f800000	1.0
225	0x3f800000	1.0
226	0x3f800000	1.0
227	0x3f800000	1.0
228	0x3f800000	1.0
229	0x3f800000	1.0
230	0x3f800000	1.0
231	0x3f800000	1.0
232	0x3f800000	1.0
233	0x3f800000	1.0
234	0x3f800000	1.0
235	0x3f800000	1.0
236	0x3f800000	1.0
237	0x3f800000	1.0
238	0x3f800000	1.0
239	0x3f800000	1.0
240	0x3f800000	1.0
241	0x3f800000	1.0
242	0x3f800000	1.0
243	0x3f800000	1.0
244	0x3f800000	1.0
245	0x3f800000	1.0
246	0x3f800000	1.0
247	0x3f800000	1.0
248	0x3f800000	1.0
249	0x3f800000	1.0
250	0x3f800000	1.0
251	0x3f800000	1.0
252	0x3f800000	1.0
253	0x3f800000	1.0
254	0x3f800000	1.0
255	0x3f800000	1.0

blocks.0.ln.bias f4 [192, 32]
0	0x00000000	0.0
1	0x00000000	0.0
2	0x00000000	0.0
3	0x00000000	0.0
4	0x00000000	0.0
5	0x00000000	0.0
6	0x00000000	0.0
7	0x00000000	0.0
8	0x00000000	0.0
9	0x00000000	0.0
10	0x00000000	0.0
11	0x00000000	0.0
12	0x00000000	0.0
13	0x00000000	0.0
14	0x00000000	0.0
15	0x00000000	0.0
16	0x00000000	0.0
17	0x00000000	0.0
18	0x00000000	0.0
19	0x00000000	0.0
20	0x00000000	0.0
21	0x00000000	0.0
22	0x00000000	0.0
23	0x00000000	0.0
24	0x00000000	0.0
25	0x00000000	0.0
26	0x00000000	0.0
27	0x00000000	0.0
28	0x00000000	0.0
29	0x00000000	0.0
30	0x00000000	0.0
31	0x00000000	0.0
32	0x00000000	0.0
33	0x00000000	0.0
34	0x00000000	0.0
35	0x00000000	0.0
36	0x00000000	0.0
37	0x00000000	0.0
38	0x00000000	0.0
39	0x00000000	0.0
40	0x00000000	0.0
41	0x00000000	0.0
42	0x00000000	0.0
43	0x00000000	0.0
44	0x00000000	0.0
45	0x00000000	0.0
46	0x00000000	0.0
47	0x00000000	0.0
48	0x00000000	0.0
49	0x00000000	0.0
50	0x00000000	0.0
51	0x00000000	0.0
52	0x00000000	0.0
53	0x00000000	0.0
54	0x00000000	0.0
55	0x00000000	0.0
56	0x00000000	0.0
57	0x00000000	0.0
58	0x00000000	0.0
59	0x00000000	0.0
60	0x00000000	0.0
61	0x00000000	0.0
62	0x00000000	0.0
63	0x00000000	0.0
64	0x00000000	0.0
65	0x00000000	0.0
66	0x00000000	0.0
67	0x00000000	0.0
68	0x00000000	0.0
69	0x00000000	0.0
70	0x00000000	0.0
71	0x00000000	0.0
72	0x00000000	0.0
73	0x00000000	0.0
74	0x00000000	0.0
75	0x00000000	0.0
76	0x00000000	0.0
77	0x00000000	0.0
78	0x00000000	0.0
79	0x00000000	0.0
80	0x00000000	0.0
81	0x00000000	0.0
82	0x00000000	0.0
83	0x00000000	0.0
84	0x00000000	0.0
85	0x00000000	0.0
86	0x00000000	0.0
87	0x00000000	0.0
88	0x00000000	0.0
89	0x00000000	0.0
90	0x00000000	0.0
91	0x00000000	0.0
92	0x00000000	0.0
93	0x00000000	0.0
94	0x00000000	0.0
95	0x00000000	0.0
96	0x00000000	0.0
97	0x00000000	0.0
98	0x00000000	0.0
99	0x00000000	0.0
100	0x00000000	0.0
101	0x00000000	0.0
102	0x00000000	0.0
103	0x00000000	0.0
104	0x00000000	0.0
105	0x00000000	0.0
106	0x00000000	0.0
107	0x00000000	0.0
108	0x00000000	0.0
109	0x00000000	0.0
110	0x00000000	0.0
111	0x00000000	0.0
112	0x00000000	0.0
113	0x00000000	0.0
114	0x00000000	0.0
115	0x00000000	0.0
116	0x00000000	0.0
117	0x00000000	0.0
118	0x00000000	0.0
119	0x00000000	0.0
120	0x00000000	0.0
121	0x00000000	0.0
122	0x00000000	0.0
123	0x00000000	0.0
124	0x00000000	0.0
125	0x00000000	0.0
126	0x00000000	0.0
127	0x00000000	0.0
128	0x00000000	0.0
129	0x00000000	0.0
130	0x00000000	0.0
131	0x00000000	0.0
132	0x00000000	0.0
133	0x00000000	0.0
134	0x00000000	0.0
135	0x00000000	0.0
136	0x00000000	0.0
137	0x00000000	0.0
138	0x00000000	0.0
139	0x00000000	0.0
140	0x00000000	0.0
141	0x00000000	0.0
142	0x00000000	0.0
143	0x00000000	0.0
144	0x00000000	0.0
145	0x00000000	0.0
146	0x00000000	0.0
147	0x00000000	0.0
148	0x00000000	0.0
149	0x00000000	0.0
150	0x00000000	0.0
151	0x00000000	0.0
152	0x00000000	0.0
153	0x00000000	0.0
154	0x00000000	0.0
155	0x00000000	0.0
156	0x00000000	0.0
157	0x00000000	0.0
158	0x00000000	0.0
159	0x00000000	0.0
160	0x00000000	0.0
161	0x00000000	0.0
162	0x00000000	0.0
163	0x00000000	0.0
164	0x00000000	0.0
165	0x00000000	0.0
166	0x00000000	0.0
167	0x00000000	0.0
168	0x00000000	0.0
169	0x00000000	0.0
170	0x00000000	0.0
171	0x00000000	0.0
172	0x00000000	0.0
173	0x00000000	0.0
174	0x00000000	0.0
175	0x00000000	0.0
176	0x00000000	0.0
177	0x00000000	0.0
178	0x00000000	0.0
179	0x00000000	0.0
180	0x00000000	0.0
181	0x00000000	0.0
182	0x00000000	0.0
183	0x00000000	0.0
184	0x00000000	0.0
185	0x00000000	0.0
186	0x00000000	0.0
187	0x00000000	0.0
188	0x00000000	0.0
189	0x00000000	0.0
190	0x00000000	0.0
191	0x00000000	0.0
192	0x00000000	0.0
193	0x00000000	0.0
194	0x00000000	0.0
195	0x00000000	0.0
196	0x00000000	0.0
197	0x00000000	0.0
198	0x00000000	0.0
199	0x00000000	0.0
200	0x00000000	0.0
201	0x00000000	0.0
202	0x00000000	0.0
203	0x00000000	0.0
204	0x00000000	0.0
205	0x00000000	0.0
206	0x00000000	0.0
207	0x00000000	0.0
208	0x00000000	0.0
209	0x00000000	0.0
210	0x00000000	0.0
211	0x00000000	0.0
212	0x00000000	0.0
213	0x00000000	0.0
214	0x00000000	0.0
215	0x00000000	0.0
216	0x00000000	0.0
217	0x00000000	0.0
218	0x00000000	0.0
219	0x00000000	0.0
220	0x00000000	0.0
221	0x00000000	0.0
222	0x00000000	0.0
223	0x00000000	0.0
224	0x00000000	0.0
225	0x00000000	0.0
226	0x00000000	0.0
227	0x00000000	0.0
228	0x00000000	0.0
229	0x00000000	0.0
230	0x00000000	0.0
231	0x00000000	0.0
232	0x00000000	0.0
233	0x00000000	0.0
234	0x00000000	0.0
235	0x00000000	0.0
236	0x00000000	0.0
237	0x00000000	0.0
238	0x00000000	0.0
239	0x00000000	0.0
240	0x00000000	0.0
241	0x00000000	0.0
242	0x00000000	0.0
243	0x00000000	0.0
244	0x00000000	0.0
245	0x00000000	0.0
246	0x00000000	0.0
247	0x00000000	0.0
248	0x00000000	0.0
249	0x00000000	0.0
250	0x00000000	0.0
251	0x00000000	0.0
252	0x00000000	0.0
253	0x00000000	0.0
254	0x00000000	0.0
255	0x00000000	0.0

blocks.0.ffn.0.weight f4 [192, 32]
0	0x3f8f1549	1.1178371
1	0x3f6c3aa7	0.92276996
2	0x3f51dbbb	0.8197591
3	0x3f4aa731	0.79161364
4	0x3f86d745	1.0534445
5	0x3f6ef249	0.9333845
6	0x3f82c1d3	1.02154
7	0x3f7373b6	0.95098436
8	0x3f2d1686	0.67612493
9	0x3f61c21d	0.8818682
10	0x3f827581	1.0192109
11	0x3f865e2d	1.049749
12	0x3f97359b	1.1813234
13	0x3faff1e0	1.3745689
14	0x3f858e30	1.0434017
15	0x3f0b2e51	0.5436755
16	0x3f78a280	0.97122955
17	0x3f7b1bde	0.98089397
18	0x3f60f405	0.87872344
19	0x3f460403	0.7734987
20	0x3f570134	0.8398621
21	0x3f3d06f8	0.7383876
22	0x3f876522	1.0577738
23	0x3fc47c15	1.5350367
24	0x3f8476fc	1.0348811
25	0x3edfe909	0.4373248
26	0x3f6195a2	0.88118947
27	0x3f1265a2	0.5718633
28	0x3f6f85ec	0.93563724
29	0x3f532f19	0.8249374
30	0x3f66984d	0.9007614
31	0x3f75467d	0.9581068
32	0x3f8fdc7e	1.1239164
33	0x3fb4662d	1.4093682
34	0x3f3977bf	0.72448343
35	0x3f4ab41f	0.7918109
36	0x3f7a9317	0.9788069
37	0x3f98c664	1.1935544
38	0x3f7ecef7	0.99534553
39	0x3f0a51dd	0.54031163
40	0x3f7f2d91	0.99678904
41	0x3f1b6d17	0.6071333
42	0x3f3c1932	0.73475945
43	0x3f83908e	1.027849
44	0x3f5424a3	0.82868403
45	0x3f5eee0b	0.87081975
46	0x3f472570	0.777915
47	0x3ef12129	0.47095612
48	0x3f75614c	0.9585159
49	0x3fd538bb	1.6657938
50	0x3f70150f	0.9378213
51	0x3f233b56	0.63762414
52	0x3f3416fe	0.70347583
53	0x3f455438	0.7708163
54	0x3f506440	0.8140297
55	0x3f89cdb1	1.0765897
56	0x3f11995f	0.5687465
57	0x3f07c299	0.5303131
58	0x3f86392d	1.0486199
59	0x3f21099b	0.6290528
60	0x3f7a4543	0.97761935
61	0x3f14b3a2	0.580866
62	0x3f59b978	0.8504863
63	0x3f6dfe59	0.9296623
64	0x3f9003ad	1.1251122
65	0x3f86efda	1.0541947
66	0x3f2c2f8b	0.67260045
67	0x3f7206e4	0.94541764
68	0x3f828602	1.0197146
69	0x3f807e2d	1.0038506
70	0x3f73adb4	0.95186925
71	0x3e899bda	0.26876718
72	0x3fa42c04	1.2825933
73	0x3f875928	1.0574083
74	0x3f455fac	0.7709911
75	0x3fa456df	1.2839011
76	0x3f3c6e56	0.7360586
77	0x3f801de7	1.0009125
78	0x3f97d46a	1.1861699
79	0x3f430cd6	0.7619146
80	0x3f4478b7	0.76746696
81	0x3f7f9fd8	0.9985328
82	0x3f99564e	1.1979463
83	0x3efa9468	0.4894135
84	0x3f7d9110	0.9904947
85	0x3f7ed3a4	0.9954169
86	0x3f9f650a	1.245271
87	0x3f89ec20	1.0775185
88	0x3f3a70dd	0.72828466
89	0x3fa03bbe	1.2518232
90	0x3f88f04f	1.0698336
91	0x3fa219fa	1.2664177
92	0x3f81bc10	1.0135517
93	0x3f4e7701	0.80650336
94	0x3f7807b2	0.9688674
95	0x3f2da3cf	0.6782808
96	0x3f720a2c	0.9454677
97	0x3f34cfdb	0.7062966
98	0x3f90ba76	1.1306903
99	0x3f939926	1.1531112
100	0x3f7ed875	0.9954904
101	0x3f506303	0.8140108
102	0x3fab96d7	1.3405408
103	0x3fad0a95	1.3518854
104	0x3f464369	0.7744661
105	0x3fb635b0	1.4235134
106	0xbe85316e	-0.26014274
107	0x3f68969d	0.9085482
108	0x3fb5b7a3	1.4196666
109	0x3faaea5a	1.3352768
110	0x3f801b3a	1.0008309
111	0x3f5e5e24	0.868624
112	0x3fa257e5	1.2683073
113	0x3f7b9f2a	0.9828974
114	0x3f8f5009	1.11963
115	0x3f927e26	1.1444747
116	0x3e8bf0d5	0.27332178
117	0x3f49ee0a	0.78878844
118	0x3f59b8c3	0.8504755
119	0x3f15e600	0.5855408
120	0x3f8e90a9	1.1137897
121	0x3fa4a8c8	1.2864008
122	0x3fa1e4c9	1.2647945
123	0x3f3a6a92	0.72818863
124	0x3f57937f	0.84209436
125	0x3f913d65	1.1346861
126	0x3f67e7e7	0.9058823
127	0x3f5d5d00	0.8647003
128	0x3f1edeaa	0.6205851
129	0x3f9448b8	1.1584692
130	0x3f8ad459	1.0846053
131	0x3f99469f	1.1974677
132	0x3f7d6dd5	0.98995715
133	0x3f1b97c1	0.60778433
134	0x3f99c90d	1.2014481
135	0x3faa614d	1.3310944
136	0x3f7968c9	0.97425514
137	0x3f981861	1.188244
138	0x3f40081f	0.7501239
139	0x3f8509ba	1.0393593
140	0x3f81ac6a	1.0130742
141	0x3f9f5c9d	1.2450138
142	0x3f85a333	1.044043
143	0x3f2bbe92	0.6708766
144	0x3f34015d	0.7031458
145	0x3fa2d3f8	1.2720938
146	0x3f6fb381	0.93633276
147	0x3ec992ec	0.39369905
148	0x3f6ab362	0.91679966
149	0x3f71836c	0.9434116
150	0x3f7290e3	0.9475233
151	0x3f5176e6	0.8182205
152	0x3f9ebbb1	1.2401029
153	0x3f2576df	0.6463451
154	0x3f2841b6	0.65725267
155	0x3f616c11	0.8805552
156	0x3fa5f8be	1.2966535
157	0x3f8b88d6	1.0901134
158	0x3f467349	0.7751966
159	0x3f4e1b1d	0.8051012
160	0x3f364ff9	0.7121578
161	0x3ed2bfb5	0.41161886
162	0x3f69e099	0.91358334
163	0x3fb9f55d	1.4528004
164	0x3f95c1de	1.1699789
165	0x3f34f036	0.7067903
166	0x3f3c8146	0.73634756
167	0x3f6a7cb9	0.9159656
168	0x3f3016a9	0.68784577
169	0x3fb32bc9	1.3997737
170	0xbe9577aa	-0.2919286
171	0x3f756126	0.9585136
172	0x3fa624bb	1.2979959
173	0x3f8b6e19	1.0892974
174	0x3f4e01d1	0.8047152
175	0x3f89b1e7	1.0757416
176	0x3f6ca6dd	0.92442113
177	0x3f90a909	1.1301585
178	0x3f7ae398	0.9800353
179	0x3f916bde	1.1361043
180	0x3ebdd503	0.37076578
181	0x3d5c65dc	0.05380808
182	0x3e4e55eb	0.20149963
183	0x3fb6c1b2	1.4277861
184	0x3f2a775f	0.66588396
185	0x3fb37b0c	1.4021926
186	0x3f67dbe0	0.9056988
187	0x3f410cef	0.7541036
188	0x3f7bd37e	0.98369586
189	0x3fbeec36	1.4915836
190	0x3f8ce275	1.1006609
191	0x3f8bf145	1.0933005
192	0x3f9a8e4c	1.2074676
193	0x3ee2493d	0.441965
194	0x3f681d08	0.906693
195	0x3fbfd467	1.4986695
196	0x3f911f10	1.1337605
197	0x3ec83499	0.3910263
198	0x3f847ce7	1.0350617
199	0x3f6d241d	0.9263323
200	0x3f890c09	1.0706798
201	0x3f54bfa8	0.83104944
202	0xbd038987	-0.03211358
203	0x3f7a2636	0.97714555
204	0x3fafd7d6	1.3737743
205	0x3f8a85f7	1.0822133
206	0x3f69f35e	0.91386974
207	0x3f930cb8	1.1488256
208	0x3f289b78	0.65862226
209	0x3f8779d2	1.0584052
210	0x3f56406b	0.83692044
211	0x3f972e01	1.1810914
212	0xbd75d722	-0.06001962
213	0x3f1e6509	0.6187292
214	0x3ecd881e	0.40142912
215	0x3fb39589	1.403001
216	0x3f46b727	0.7762322
217	0x3fa95ecd	1.3232056
218	0x3f80d121	1.0063821
219	0x3f6513fc	0.8948362
220	0x3f92493b	1.1428598
221	0x3f84bdd7	1.0370435
222	0x3f696553	0.91170233
223	0x3fbaf52c	1.460607
224	0x3f504ab8	0.8136401
225	0x3f7c8384	0.98638177
226	0x3f454ac0	0.77067184
227	0x3fa91c32	1.321173
228	0x3f68b586	0.9090198
229	0x3f841d6f	1.0321482
230	0x3f7cd0b6	0.9875597
231	0x3fb9dc91	1.4520437
232	0x3f2f43e6	0.6846298
233	0x3e0e7c9d	0.13914724
234	0x3da02c55	0.07820956
235	0x3f64fbd3	0.89446753
236	0x3fbafa4e	1.4607637
237	0x3f2b6ce3	0.6696302
238	0x3f625ddf	0.88424486
239	0x3f4a67e4	0.79064775
240	0x3f1c5954	0.61073804
241	0x3f915ca9	1.1356403
242	0x3f730db2	0.9494277
243	0x3f7dfa94	0.99210477
244	0x3f2bf579	0.67171437
245	0x3de39507	0.11112409
246	0x3e9af59d	0.30265513
247	0x3f555fc8	0.83349276
248	0xbc3dcfa8	-0.011585154
249	0x3fb86d82	1.4408419
250	0x3fa5c92d	1.2952019
251	0x3f378068	0.7168031
252	0x3f0222b3	0.50834197
253	0x3facd54d	1.3502594
254	0x3f1c7e5c	0.6113031
255	0x3fbe849a	1.4884217
