models/experiment_BCH_N63_K36_transformer_d=32_N=2_mask_lr=0.0003_epochs=200.pth (torch, 297252 bytes, 32 tensors)

embedding f4 [90, 32]
0.015341087 0.029370327 -0.19566973 0.1043764 -0.1262857 -0.16142881 -0.2300795 0.0065362863
-0.15045695 0.047783773 -0.021942168 0.14653909 0.012783182 -0.076175496 0.031186605 0.049051896
0.28596607 -0.20562263 -0.16468096 0.02959547 0.26048717 0.27176255 -0.015915247 0.11212605
0.026165556 -0.24594302 0.16884181 -0.2687893 0.111122414 -0.28960702 -0.019656355 -0.12730071
0.094006024 0.16146171 -0.27673507 -0.20969462 0.060808484 -0.014909054 -0.2086062 -0.19740883
0.15245429 0.041292306 -0.21925399 0.28900903 0.16163445 -0.077210404 0.044781968 -0.15015857
0.099198356 -0.14457242 -0.27784857 0.09881072 0.274735 0.307904 -0.14367482 0.122131884
-0.15353185 -0.19957384 0.2512884 -0.2767012 0.0823125 -0.15485519 -0.20133749 -0.16157502
0.10763711 0.100257024 -0.049569964 0.2692168 -0.24095626 -0.01745795 -0.048646398 -0.07112175
0.048160702 -0.024792792 -0.30480418 0.11032534 -0.18069302 -0.016393801 -0.031925596 -0.21651506
-0.024975106 -0.014585508 -0.26301438 -0.024306761 0.105661355 0.21461223 0.091326535 0.11425846
-0.28482902 0.17493074 0.19029905 0.11961155 -0.23919511 -0.12908188 0.109524466 -0.022844182
0.16216615 0.1981679 0.06641803 0.12728022 -0.11482137 0.15301521 -0.016494729 -0.027109338
0.07533746 -0.22680435 0.084858656 0.0767909 0.06465572 -0.19640216 -0.020065185 -0.19757867
-0.10559827 -0.30086043 0.048344735 0.15345669 0.06688594 0.2319865 -0.17853205 -0.018526772
-0.16592985 -0.42383587 -0.00031255928 -0.098464936 -0.19547494 0.19701906 -0.07659717 0.07992451
0.32475057 0.02929293 0.14617269 0.107559785 0.12347805 -0.026377652 -0.11485322 -0.2847951
0.22129363 -0.29188123 0.047801413 -0.14745407 -0.07035176 -0.08544248 -0.16316627 -0.34135938
0.079844385 0.034253586 0.1788023 0.29977977 0.26400605 -0.08746214 -0.053769413 0.20661095
-0.20306984 -0.12842765 0.15730594 0.21412027 -0.3250142 -0.0387503 0.22282591 0.1434158
0.07489282 0.0075545283 0.049455926 0.15650643 -0.090383336 -0.09655217 0.097610235 0.29095143
0.09187271 -0.1936956 -0.038496397 -0.13827905 -0.0040310356 0.025764562 0.05593613 -0.2852883
0.20175889 -0.042940646 0.17098068 0.13208185 0.06275172 -0.015026119 0.09628594 -0.0103723155
0.06737453 -0.07439427 0.057886515 0.16692443 -0.18390124 -0.051909786 -0.25816092 0.18380886
0.36295128 0.00081445614 0.059627466 0.26462334 0.028376631 -0.029668106 -0.031888198 0.27012187
-0.10967347 -0.0934552 -0.08178475 -0.22764602 0.24235694 -0.058956623 0.015418816 -0.12909381
-0.26381055 -0.11493348 0.16728708 0.18708481 0.10491553 -0.11948461 0.0025729295 0.03333931
-0.3416546 -0.036120933 -0.23953702 0.123176694 -0.2255052 0.0064762374 0.1313899 0.011331728
0.18470788 0.07065174 -0.2010331 -0.04523083 -0.06813367 0.24640374 -0.21886988 -0.103127584
-0.014578891 -0.0010980206 -0.17207167 -0.039182354 0.24689978 -0.09727734 -0.111909635 -0.2667776
0.02516434 -0.045716446 0.15449256 0.31573927 0.07725978 0.3083827 -0.2570528 0.035310544
-0.20818187 -0.17464899 -0.14180702 -0.14097019 -0.28980237 -0.046008237 -0.24676265 0.20560735
00000000: 2f59 7b3c 0a9a f03c a55d 48be 4bc3 d53d
00000010: 0a51 01be 984d 25be f699 6bbe 582e d63b
00000020: 6311 1abe ebb8 433d 10c0 b3bc 580e 163e
00000030: 8d70 513c e601 9cbd 0d7b ff3c a4ea 483d
00000040: 256a 923e bd8e 52be 20a2 28be 3372 f23c
00000050: 935e 853e 7624 8b3e b160 82bc 58a2 e53d
00000060: 2659 d63c 7dd8 7bbe dee4 2c3e c09e 89be
00000070: 2694 e33d 5f47 94be 5d06 a1bc 1e5b 02be
00000080: 3b86 c03d 3856 253e 38b0 8dbe 30ba 56be
00000090: 5112 793d 1b45 74bc dd9c 55be 8a25 4abe
000000a0: fa1c 1c3e 1f22 293d 1e84 60be fef8 933e
000000b0: 8083 253e 7d20 9ebd 4c6d 373d 2bc3 19be
000000c0: 8228 cb3d cb0a 14be 2b42 8ebe 465d ca3d
000000d0: 11aa 8c3e 98a5 9d3e 7e1f 13be 4820 fa3d
000000e0: 7437 1dbe 165d 4cbe e0a8 803e c8ab 8dbe
000000f0: 7593 a83d 5c92 1ebe 6a2b 4ebe ec73 25be
00000100: d870 dc3d 8e53 cd3d e009 4bbd c9d6 893e
00000110: 3dbd 76be fa03 8fbc 7241 47bd 48a8 91bd
00000120: 2844 453d 411a cbbc 4b0f 9cbe 40f2 e13d
00000130: 9707 39be 4b4c 86bc 6ac4 02bd 20b6 5dbe
00000140: 9898 ccbc 0ef8 6ebc d2a9 86be f91e c7bc
00000150: fb64 d83d 4fc3 5b3e 6809 bb3d 5700 ea3d
00000160: 1cd5 91be 0b21 333e c1dd 423e e6f6 f43d
00000170: 90ef 74be 0a2e 04be 5d4e e03d b923 bbbc
00000180: e20e 263e 87ec 4a3e 2d06 883d bf55 023e
00000190: 7727 ebbd 05b0 1c3e f41f 87bc 6714 debc
000001a0: 874a 9a3d 663f 68be 60ca ad3d 8c44 9d3d
000001b0: 386a 843d a61d 49be be5f a4bc 1052 4abe
000001c0: e843 d8bd 610a 9abe 2105 463d c023 1d3e
000001d0: 7ffb 883d de8d 6d3e 1bd1 36be 75c5 97bc
000001e0: 84e9 29be 0401 d9be ffde a3b9 fca7 c9bd
000001f0: 952a 48be 5dbf 493e fade 9cbd 76af a33d
00000200: b545 a63e baf7 ef3c 4bae 153e 4e48 dc3d
00000210: 0fe2 fc3d f215 d8bc 2a38 ebbd aad0 91be
00000220: cc9a 623e 7571 95be 6acb 433d 33fe 16be
00000230: 9514 90bd 78fc aebd 0f15 27be a8c6 aebe
00000240: 7485 a33d 7d4d 0c3d f317 373e bc7c 993e
00000250: cd2b 873e 5a1f b3bd 513d 5cbd d291 533e
00000260: 8af1 4fbe 8a82 03be cf14 213e 5842 5b3e
00000270: 4368 a6be a2b8 1ebd 7a2c 643e 97db 123e
00000280: 6861 993d fa8b f73b 4c92 4a3d 3943 203e
00000290: e61a b9bd 25bd c5bd e0e7 c73d 96f7 943e
000002a0: c227 bc3d 2458 46be 66ae 1dbd 0699 0dbe
000002b0: c716 84bb 3410 d33c 491d 653d 4f11 92be
000002c0: e299 4e3e 88e2 2fbd 8f15 2f3e 7740 073e
000002d0: f983 803d 1c30 76bc 9031 c53d a5f0 29bc
000002e0: a8fb 893d 065c 98bd 691a 6d3d 3dee 2a3e
000002f0: 9b50 3cbe 5b9f 54bd ab2d 84be 6438 3c3e
00000300: c0d4 b93e 3a81 553a ee3b 743d b67c 873e
00000310: 1c76 e83c 870a f3bc 339d 02bd 6a4d 8a3e
00000320: 7c9c e0bd 7165 bfbd c37e a7bd 0a1c 69be
00000330: 6b2c 783e 807c 71bd 349f 7c3c 2b31 04be
00000340: 2d12 87be 3f62 ebbd 4e4d 2b3e 2993 3f3e
00000350: f4dd d63d 59b4 f4bd 989e 283b cd8e 083d
00000360: 5aed aebe 8bf3 13bd 3149 75be 1044 fc3d
00000370: d6ea 66be 9e36 d43b 138b 063e b6a8 393c
00000380: 1024 3d3e dcb1 903d 9fdb 4dbe f643 39bd
00000390: aa89 8bbd 4351 7c3e 6d1f 60be 8e34 d3bd
000003a0: 4ddc 6ebc 75eb 8fba 8e33 30be ad7d 20bd
000003b0: 4cd3 7c3e 5839 c7bd e130 e5bd 1397 88be
000003c0: 7225 ce3c 2b41 3bbd 4c33 1e3e 94a8 a13e
000003d0: 603a 9e3d 56e4 9d3e 6d9c 83be caa1 103d
000003e0: a12d 55be 2fd7 32be dc35 11be 7d5a 10be
000003f0: fa60 94be 2273 3cbd 59af 7cbe bc8a 523e

blocks.0.W_QKV f4 [32, 96]
-0.11228856 -0.15414695 -0.29849488 -0.03733224 -0.07232274 0.20802788 -0.08539455 -0.119207695
0.048746113 -0.15264225 -0.1251905 -0.16958421 0.06396101 -0.3350872 0.056947567 -0.0804312
-0.27829266 -0.14072709 -0.30448973 -0.093604825 0.029186096 -0.119902864 -0.18250258 0.14153032
0.06777964 0.011795267 0.081341535 0.043058164 -0.10311437 -0.0897174 -0.027417948 -0.06913105
-0.020185174 0.2505909 0.008118946 0.074669 -0.2848136 0.1445652 -0.13551073 -0.21043752
0.17715763 -0.2380129 0.35112783 -0.37987322 0.06853635 0.32028344 0.18672065 0.027221888
0.14764123 -0.13744795 -0.04998748 -0.27105346 -0.21240081 -0.21991007 0.08947572 0.012117792
0.17751126 -0.03624221 -0.015202009 0.10774744 0.1018116 0.12681362 -0.031133976 -0.1545577
0.082696505 0.05873573 -0.0733652 0.13463767 -0.20190863 -0.14582634 -0.19182833 -0.085177325
-0.026832294 -0.16710138 -0.103109404 -0.10991303 0.284935 -0.03548043 0.10662967 -0.038883403
0.10121571 0.06112749 -0.09897466 -0.06494531 -0.18460688 0.2851848 0.015488518 0.033015285
-0.22520772 0.20870551 0.03671381 -0.13559401 -0.16064166 -0.11415475 0.071735404 -0.14275524
0.011207602 0.22590719 0.10389703 -0.09215931 0.014210129 0.13685639 -0.052599747 0.19937038
0.11906972 0.088764526 0.13191415 -0.28705254 -0.096614204 0.10006035 0.15331835 -0.17392589
-0.04995384 -0.24644867 -0.1653061 -0.08355987 0.080726415 -0.20493273 0.023561914 0.04739216
0.02112758 -0.24826014 -0.0049339086 0.026305495 -0.11731921 -0.07438241 -0.036000043 0.07434572
0.24463147 0.15958977 -0.124416895 -0.11991461 -0.07699498 0.10208641 -0.17163704 0.057633866
0.09711405 0.27340174 -0.14240322 -0.0361241 0.1438673 -0.015771993 -0.016698673 0.22411291
0.13344456 0.18072501 0.16653138 -0.11312789 -0.058852512 -0.19006997 0.21380752 0.12451904
0.02475946 0.14670913 0.25535393 -0.019045707 0.16461615 0.14314428 -0.010224884 -0.078678265
-0.1707068 -0.11157036 -0.20063758 -0.23727533 0.038939092 0.067210846 -0.2892096 -0.08288
0.24627748 -0.1666132 -0.21948925 -0.1253412 0.028483069 0.25587678 -0.022171514 0.051653545
0.057682604 -0.24810617 0.059635196 0.17061198 0.013229669 0.12694961 -0.05687194 0.29154742
0.11619329 0.09973331 -0.08747108 0.10357766 0.04034187 -0.052129954 0.17292233 -0.20643924
-0.24746783 -0.18249844 0.06601365 -0.21264945 0.16376983 0.012848569 -0.07217801 -0.08514593
-0.059799828 0.14847544 -0.0462398 -0.26376283 0.0011451684 0.065219864 -0.14668532 -0.11447651
0.13116579 -0.07480091 -0.0050939065 -0.049026106 -0.2659474 -0.14575683 0.08809064 0.032194655
0.1292698 0.044961054 0.08647516 0.18485834 0.09172198 0.20729215 0.05398203 0.06464483
0.3250474 -0.28028357 0.26126203 -0.1375106 0.45422554 0.10849336 0.6510384 -0.07543179
0.045967583 0.36585346 -0.30112574 0.12174807 -0.20901443 -0.12311943 -0.28367323 -0.2530188
0.11018404 -0.22504273 -0.24843396 0.4584288 -0.046458606 0.14312993 -0.25609592 -0.28534532
-0.15195192 0.09567258 -0.29453716 -0.27326423 -0.08104882 -0.08498365 -0.062113147 0.1627024
00000000: 8bf7 e5bd b3d8 1dbe 52d4 98be b1e9 18bd
00000010: f21d 94bd 4305 553e 56e3 aebd 2a23 f4bd
00000020: 01aa 473d 404e 1cbe f031 00be 7ca7 2dbe
00000030: fdfd 823d 8d90 abbe da41 693d 1db9 a4bd
00000040: 607c 8ebe c31a 10be 14e6 9bbe e3b3 bfbd
00000050: ae17 ef3c a28f f5bd f5e1 3abe 53ed 103e
00000060: 0dd0 8a3d f040 413c 6496 a63d c25d 303d
00000070: a02d d3bd c2bd b7bd 9b9b e0bc 9494 8dbd
00000080: 615b a5bc 734d 803e 5405 053c 10ec 983d
00000090: 17d3 91be e608 143e 53c3 0abe ef7c 57be
000000a0: cf68 353e a7b9 73be 07c7 b33e be7e c2be
000000b0: c95c 8c3d 31fc a33e b333 3f3e 7000 df3c
000000c0: 432f 173e 28bf 0cbe acbf 4cbd 85c7 8abe
000000d0: 997f 59be 1b30 61be 0c3f b73d b489 463c
000000e0: 83c5 353e b672 14bd d911 79bc b1aa dc3d
000000f0: 9a82 d03d 6edb 013e ae0c ffbc 6044 1ebe
00000100: c95c a93d e094 703d 7e40 96bd 75de 093e
00000110: 23c1 4ebe 8053 15be a56e 44be 7371 aebd
00000120: 66cf dbbc a01c 2bbe 062b d3bd 151a e1bd
00000130: 00e3 913e ed53 11bd a860 da3d 3444 1fbd
00000140: 2f4a cf3d d260 7a3d 3ab3 cabd 0c02 85bd
00000150: 9609 3dbe be03 923e 8ec3 7d3c 093b 073d
00000160: da9c 66be e6b6 553e 3861 163d 28d9 0abe
00000170: 3f7f 24be f7c9 e9bd 03ea 923d 6e2e 12be
00000180: 17a0 373c 3754 673e f7c7 d43d 05be bcbd
00000190: 9ad1 683c 1524 0c3e d572 57bd c027 4c3e
000001a0: d3da f33d 2dca b53d 8114 073e 8df8 92be
000001b0: abdd c5bd 71ec cc3d 7cff 1c3e a119 32be
000001c0: 669c 4cbd 0a5d 7cbe 0146 29be 7021 abbd
000001d0: e453 a53d e3d9 51be ea04 c13c 481e 423d
000001e0: bf13 ad3c e837 7ebe a0ac a1bb 9f7e d73c
000001f0: 0e45 f0bd ce55 98bd c874 13bd 9242 983d
00000200: ac80 7a3e 806b 233e 49ce febd cb95 f5bd
00000210: 8baf 9dbd ae12 d13d 9fc1 2fbe 7d11 6c3d
00000220: bbe3 c63d 50fb 8b3e 26d2 11be ddf6 13bd
00000230: f351 133e 4434 81bc a8cb 88bc db7d 653e
00000240: b1a5 083e fa0f 393e 3487 2a3e 98af e7bd
00000250: 550f 71bd b4a1 42be 5cf0 5a3e d703 ff3d
00000260: 5ad4 ca3c eb3a 163e c0bd 823e be05 9cbc
00000270: 2391 283e 6a94 123e 4686 27bc 1222 a1bd
00000280: c3cd 2ebe 007f e4bd f073 4dbe 4ef8 72be
00000290: 997e 1f3d d7a5 893d 4813 94be fdbc a9bd
000002a0: 2a30 7c3e a79c 2abe cac1 60be 7259 00be
000002b0: 5355 e93c 4802 833e 09a1 b5bc ab92 533d
000002c0: 9844 6c3d 8b0f 7ebe 0944 743d e8b4 2e3e
000002d0: 41c1 583c 14ff 013e 8df2 68bd b445 953e
000002e0: bff6 ed3d fa40 cc3d 0a24 b3bd 8620 d43d
000002f0: 843d 253d 3886 55bd 8d12 313e cf64 53be
00000300: 3568 7dbe dfe0 3abe 2a32 873d c7c0 59be
00000310: 47b3 273e ce82 523c 11d2 93bd fd60 aebd
00000320: aaf0 74bd f209 183e f265 3dbd ec0b 87be
00000330: 7a19 963a fe91 853d ad34 16be a972 eabd
00000340: 5350 063e 3831 99bd c9ea a6bb 99cf 48bd
00000350: 422a 88be 4741 15be de68 b43d 8bde 033d
00000360: 4d5f 043e 1529 383d e419 b13d 814b 3d3e
00000370: bcd8 bb3d 6544 543e 431c 5d3d 8264 843d
00000380: 9d6c a63e 5481 8fbe 23c4 853e 94cf 0cbe
00000390: 4090 e83e c431 de3d 74aa 263f fb7b 9abd
000003a0: 8148 3c3d 2551 bb3e 272d 9abe 0d57 f93d
000003b0: e107 56be 0a26 fcbd 9e3d 91be ae8b 81be
000003c0: 2ca8 e13d 9a71 66be 7965 7ebe 2eb7 ea3e
000003d0: 614b 3ebd a790 123e 011f 83be c818 92be
000003e0: 4999 1bbe fcef c33d 93cd 96be 4ae9 8bbe
000003f0: ecfc a5bd e80b aebd 5b6a 7ebd 759b 263e

blocks.0.mha.in_proj_weight f4 [96, 32]
0.01653056 -0.1653969 -0.0504933 -0.08924813 -0.1752988 0.063729174 0.14278577 0.100373484
-0.08472966 0.091323525 0.040619012 0.08339443 0.09085452 0.014446108 0.10448278 0.16436997
0.026329633 0.07312996 -0.09494633 1.5548449e-05 -0.013920745 -0.016727813 -0.19001462 -0.037028056
-0.008005556 -0.039772913 -0.0035300616 -0.17344536 -0.120763764 0.083669834 0.1589627 0.15792403
-0.114412546 -0.11177413 -7.786055e-05 0.11090292 -0.2117619 0.051138096 0.113358065 0.031735953
-0.10452765 0.030473672 0.10697211 0.09877987 -0.15419793 0.049683012 -0.04611008 0.14418773
-0.12637211 0.2146884 -0.014405109 -0.05172794 -0.050430246 0.11024844 -0.13257192 -0.18417288
-0.014867161 0.08734217 -0.06867979 0.054121986 -0.06673098 0.12830578 0.09689516 0.011563534
-0.012680866 -0.16457178 0.018571127 -0.07471395 0.050498728 -0.15827872 8.137882e-05 0.14224285
0.00378128 0.034766734 -0.16933866 0.15449762 -0.028922291 -0.1500118 0.08947024 -0.0446237
-0.017570512 0.17062923 -0.06471637 -0.100157365 0.0011119051 -0.07003925 0.01684643 -0.071077995
0.030955633 -0.09862416 -0.041859087 -0.14688547 0.017846914 -0.024475986 -0.18881847 0.13366191
-0.01351468 -0.0017081803 -0.013255329 0.021615285 0.17448099 0.05887412 -0.16340868 0.073178254
0.051640663 0.03447628 0.09514394 0.10579181 -0.002019399 0.16110988 -0.048529897 0.067207776
-0.12955637 0.04216755 -0.0471956 -0.018686099 0.033500094 0.057716962 0.15442143 0.104209356
0.077975295 0.07496973 0.14488274 0.023635125 -0.017253323 0.04470089 -0.18130465 -0.114130095
0.0363754 -0.11525679 -0.072010525 -0.145728 0.06853942 0.22055027 -0.08624077 0.15706569
0.17471027 -0.026006496 -0.19259828 -0.124422394 -0.14034805 -0.04649036 -0.07998412 0.040792253
-0.13931105 -0.11136777 -0.019352283 0.2894535 -0.07950195 -0.19876178 0.05049578 0.19727421
0.1521691 0.116631314 0.24220921 -0.17889604 0.21933423 0.22173773 0.073272586 0.21082853
0.16167872 0.07511419 0.11414433 0.071936004 -0.14903167 -0.05487918 0.22297695 -0.08281001
0.04495323 -0.30380958 0.27513537 0.26242462 0.028266797 -0.2074398 0.23363763 -0.11134545
0.047584243 0.08413104 0.18688351 -0.15660155 -0.016346898 0.08807706 0.0036080033 -0.07829659
-0.11277665 -0.033146482 -0.07952725 0.0594159 0.0459978 -0.09690638 -0.29177943 -0.10205404
-0.13544051 0.097396225 -0.122636855 -0.35105616 -0.062003773 0.089849584 -0.17387816 0.23163366
-0.007877744 0.21196528 0.0041389214 -0.24214073 0.01119667 0.18593055 -0.25994816 0.049553618
0.16914049 0.07060287 -0.22951755 0.13866407 0.02089449 -0.3007419 -0.037019696 0.3070162
0.0905543 0.15059881 -0.13600418 0.017528078 0.12870058 0.16831122 0.24643828 0.102955535
-0.07225782 -0.18609534 -0.11620174 -0.08128955 -0.07437363 0.26312292 0.09264033 -0.10552897
-0.0648851 -0.0054121264 0.12726344 0.109840505 0.088783436 0.04550082 0.12087618 0.0906612
-0.16606651 -0.20042811 0.023960503 0.1189177 -0.14629921 0.099199936 0.034329645 0.06794953
-0.0018135885 0.03969578 -0.016380519 -0.07723788 -0.00060513004 0.015524703 0.03270089 0.12639776
00000000: 196b 873c ce5d 29be 10d2 4ebd b9c7 b6bd
00000010: 8781 33be 7184 823d 6f36 123e 9d90 cd3d
00000020: be86 adbd d407 bb3d 1f60 263d b3ca aa3d
00000030: ef11 ba3d 5eaf 6c3c 11fb d53d 9a50 283e
00000040: 3eb1 d73c 29c5 953d 3973 c2bd 0a6e 8237
00000050: d613 64bc c408 89bc 3193 42be bbaa 17bd
00000060: bc29 03bc ece8 22bd 9b58 67bb a99b 31be
00000070: fe52 f7bd 175b ab3d 1ec7 223e d6b6 213e
00000080: 2051 eabd d6e9 e4bd 1149 a3b8 1221 e33d
00000090: 1dd8 58be 2e76 513d 4628 e83d 8ffd 013d
000000a0: 9812 d6bd eca3 f93c 3214 db3d 1a4d ca3d
000000b0: 10e6 1dbe 6a80 4b3d ecdd 3cbd f3a5 133e
000000c0: b167 01be 47d7 5b3e 6803 6cbc ade0 53bd
000000d0: f28f 4ebd efc9 e13d efc0 07be d197 3cbe
000000e0: 6595 73bc 74e0 b23d fda7 8cbd 04af 5d3d
000000f0: 41aa 88bd 9762 033e f870 c63d fa74 3d3c
00000100: 68c3 4fbc 8185 28be 7a22 983c a103 99bd
00000110: c1d7 4e3d d113 22be eca9 aa38 1ca8 113e
00000120: 5acf 773b 9067 0e3d 1d67 2dbe a034 1e3e
00000130: 71ee ecbc b19c 19be 2c3c b73d 57c7 36bd
00000140: 09f0 8fbc 6eb9 2e3e 048a 84bd 4e1f cdbd
00000150: 58bd 913a bd70 8fbd 8601 8a3c 5791 91bd
00000160: ab96 fd3c 77fb c9bd 6f74 2bbd 2569 16be
00000170: b133 923c dd81 c8bc a159 41be abde 083e
00000180: ad6c 5dbc 05e5 dfba e12c 59bc 8a12 b13c
00000190: 25ab 323e fd25 713d 9b54 27be 7bde 953d
000001a0: 2985 533d 0037 0d3d d3da c23d 60a9 d83d
000001b0: e557 04bb fdf9 243e 49c7 46bd 3ba4 893d
000001c0: 6daa 04be e2b7 2c3d 2c50 41bd 9713 99bc
000001d0: 6537 093d 9f68 6c3d a720 1e3e b76b d53d
000001e0: 83b1 9f3d bb89 993d 245c 143e 739e c13c
000001f0: d756 8dbc 4818 373d eda7 39be 0abd e9bd
00000200: 5ffe 143d c00b ecbd 417a 93bd b939 15be
00000210: 655e 8c3d eed7 613e 009f b0bd d4d5 203e
00000220: 40e7 323e 930b d5bc 7c38 45be 2bd1 febd
00000230: 66b7 0fbe ad6c 3ebd b7ce a3bd c715 273d
00000240: 8ea7 0ebe c914 e4bd ae88 9ebc 4033 943e
00000250: ebd1 a2bd 3588 4bbe aad4 4e3d 4002 4a3e
00000260: 37d2 1b3e 66dc ee3d b105 783e 8630 37be
00000270: 2799 603e 370f 633e f00f 963d 6fe3 573e
00000280: 1b8f 253e 78d5 993d 81c4 e93d 2f53 933d
00000290: c29b 18be fec8 60bd 1254 643e 4b98 a9bd
000002a0: e120 383d ee8c 9bbe 8bde 8c3e 855c 863e
000002b0: c58f e73c 196b 54be b43e 6f3e 1509 e4bd
000002c0: b2e7 423d e54c ac3d 645e 3f3e 285c 20be
000002d0: eee9 85bc bf61 b43d 4074 6c3b f659 a0bd
000002e0: 72f7 e6bd 9bc4 07bd 2fdf a2bd 165e 733d
000002f0: 3068 3c3d da76 c6bd 1d64 95be b501 d1bd
00000300: ebb0 0abe ac77 c73d 0829 fbbd a2bd b3be
00000310: abf7 7dbd 0f03 b83d 1e0d 32be 6031 6d3e
00000320: a711 01bc 6d0d 593e ca9f 873b bdf3 77be
00000330: 3d72 373c 9464 3e3e ed17 85be bcf8 4a3d
00000340: 2a33 2d3e 3d98 903d a606 6bbe f4fd 0d3e
00000350: ec2a ab3c d8fa 99be f7a1 17bd 3a31 9d3e
00000360: 8874 b93d 9336 1a3e ae44 0bbe 0b97 8f3c
00000370: 16ca 033e c759 2c3e 515a 7c3e 5ada d23d
00000380: e8fb 93bd c78f 3ebe 2efb edbd 237b a6bd
00000390: 3451 98bd 0cb8 863e 37ba bd3d 931f d8bd
000003a0: 7be2 84bd 3558 b1bb 5951 023e 0ff4 e03d
000003b0: 17d4 b53d 115f 3a3d ee8d f73d 94ac b93d
000003c0: 570d 2abe 073d 4dbe d148 c43c 208b f33d
000003d0: 76cf 15be 5629 cb3d 3e9d 0c3d 2029 8b3d
000003e0: efb5 edba 0b98 223d 7030 86bc e52e 9ebd
000003f0: 97a1 1eba 535b 7e3c 5ef1 053d 6a6e 013e

blocks.0.mha.in_proj_bias f4 [96]
0.2692917 -0.09327777 -0.47304222 0.31869346 0.30861655 -0.28930378 0.02766081 -0.27581343
0.6556079 -0.5741709 -0.23801398 0.44010875 -0.101898 -0.24857847 -0.42468894 -0.080483444
0.647322 0.44279894 -0.10386927 -0.08339675 0.022703892 -0.011868854 0.013410209 0.008703684
-0.31377274 -0.27187034 0.5675501 0.5914895 -0.3717595 0.25608662 0.0062854583 0.028369224
-3.780299e-05 0.00018328652 -7.4378724e-05 -4.0887644e-05 1.0412176e-06 -3.2326196e-05 1.3931031e-05 -3.6618527e-05
-0.0006328526 0.0006479009 -0.000377808 -1.8696166e-05 -6.738674e-05 -0.00019056999 -8.484494e-05 1.2538798e-05
-0.00052216835 -0.00022746247 -6.690528e-05 -0.0003305482 -4.8903337e-05 -0.00010101285 1.836187e-05 2.3151208e-06
0.00029585112 -8.947345e-05 0.000494868 0.000114051145 -0.00011200329 -6.659516e-05 2.1383103e-05 8.6261925e-06
-0.035687376 -0.1653591 0.21623276 0.12025887 -0.27575296 0.015481884 -0.10275424 -0.26322302
-0.07852827 -0.0016000754 0.016001485 -0.16518311 0.07358983 -0.08624995 0.088408045 -0.017158885
0.14970294 -0.23807815 -0.22376423 0.28162447 -0.009774961 -0.03855779 0.048069134 0.27086803
0.015142283 -0.018479172 -0.16547282 0.3100341 0.17377725 -0.0841839 -0.013935276 -0.13688685
00000000: 9ae0 893e 6a08 bfbd 9732 f2be ca2b a33e
00000010: fd02 9e3e a01f 94be ec98 e23c 6b37 8dbe
00000020: ebd5 273f ddfc 12bf f0b9 73be ef55 e13e
00000030: e6af d0bd 5b8b 7ebe d470 d9be 81d4 a4bd
00000040: e5b6 253f 8bb6 e23e 69b9 d4bd eacb aabd
00000050: 83fd b93c 9575 42bc 7eb6 5b3c e699 0e3c
00000060: d2a6 a0be 9732 8bbe f74a 113f db6b 173f
00000070: 4357 bebe c91d 833e 3ff6 cd3b 9366 e83c
00000080: a78e 1eb8 9a30 4039 c6fb 9bb8 c67e 2bb8
00000090: f7bf 8b35 fd95 07b8 53b9 6937 d896 19b8
000000a0: 05e6 25ba e5d7 293a 8814 c6b9 b6d5 9cb7
000000b0: fb51 8db8 bed3 47b9 c8ee b1b8 ba5d 5237
000000c0: 20e2 08ba fe82 6eb9 804f 8cb8 6e4d adb9
000000d0: 8f1d 4db8 dcd6 d3b8 d107 9a37 795d 1b36
000000e0: 771c 9b39 b1a3 bbb8 08ba 013a be2e ef38
000000f0: 4fe3 eab8 01a9 8bb8 dd5f b337 37b9 1037
00000100: ed2c 12bd e553 29be 1f6c 5d3e 484a f63d
00000110: 7e2f 8dbe baa7 7d3c d170 d2bd 2bc5 86be
00000120: 6ed3 a0bd 9fb9 d1ba 8c15 833c c325 29be
00000130: 44b6 963d d0a3 b0bd 470f b53d ca90 8cbc
00000140: ba4b 193e c2ca 73be 7322 65be 1531 903e
00000150: 2827 20bc c6ee 1dbd 24e4 443d 37af 8a3e
00000160: 5717 783c a261 97bc b571 29be cabc 9e3e
00000170: aaf2 313e 9c68 acbd c950 64bc 112c 0cbe

blocks.0.mha.out_proj.weight f4 [32, 32]
-0.14745994 0.08125288 -0.09131824 0.09053756 -0.035788976 -0.015792813 -0.1251483 0.059925947
0.27104816 -0.12378173 0.2286376 -0.07519096 0.013659555 -0.016238123 0.021189807 0.066938736
0.22139312 0.14424403 -0.083324976 0.010666519 -0.056853507 -0.038121775 -0.10078188 0.07542178
0.10776209 -0.089703396 -0.21482001 0.058619693 0.21236363 -0.24942496 0.18009977 -0.21088758
0.084278986 0.20424908 -0.18574122 0.0906045 0.023585394 0.17143492 0.08233817 0.15469635
0.012618267 0.08614784 0.049795687 0.23416193 -0.04872407 -0.1990966 0.09474432 0.07726649
-0.1086977 -0.2780856 0.0053508193 0.07022074 -0.23651572 0.016225774 0.14751409 0.09813935
-0.086950876 0.16279665 0.2899018 -0.10956518 0.06397059 -0.105014175 0.0789805 -0.12566376
-0.2920085 -0.009354941 -0.059153143 -0.3172254 -0.22431275 -0.033981886 0.2480169 -0.012861286
0.13602987 -0.11636081 -0.17668779 -0.1423993 -0.2946644 0.19326152 -0.09880839 0.27705428
-0.23641224 -0.050451096 0.043432496 0.04682622 -0.0065669552 -0.12902813 0.054656785 0.0025411882
-0.23642552 0.20991455 0.2939899 0.041005492 0.40265447 0.1765837 -0.16456775 -0.19049756
0.103999265 0.13989322 -0.016631603 -0.10782247 -0.114910975 -0.052212685 -0.073540315 -0.181918
-0.013595975 -0.08029373 -0.15380462 -0.057405777 -0.2761421 -0.17405811 0.08772966 0.09992755
-0.118012264 -0.22154796 0.084964715 0.13129985 0.06572309 -0.14702943 0.011943488 -0.081930734
-0.14283648 0.09837253 0.10161049 0.15688446 0.0062309997 -0.06610033 -0.24579318 -0.27411395
-0.015374602 -0.0313808 -0.07704908 -0.14586453 -0.09713892 0.22531025 -0.11458226 -0.08691026
-0.4630222 -0.060021017 -0.15184052 0.1984252 -0.10003519 -0.12557626 -0.07993311 -0.028223397
-0.10280952 0.18083067 0.026919205 0.104492724 0.11082537 -0.115756676 -0.012117713 -0.11656701
-0.15673532 0.0698013 0.13751058 0.03493898 0.25561965 0.15566449 -0.016409595 -0.17741661
0.040024802 0.101219304 -0.13206173 -0.3375864 0.068953164 0.026212964 0.076062106 0.22450937
0.071354695 -0.15162641 -0.01415488 -0.009439198 0.05099462 0.09985415 -0.11324857 -0.080522016
-0.07800855 0.14420214 0.044198506 -0.21776403 0.03904515 0.11022198 -0.082206324 -0.09276227
-0.008807479 0.08525928 0.09634676 -0.11049466 -0.056253355 -0.023417953 -0.15258017 -0.020556394
0.1907619 0.08649367 -0.01989665 -0.11876409 0.07660183 -0.023977097 0.038885884 0.122883156
-0.15344562 -0.06925371 0.13100894 0.12996139 -0.06406873 -0.24501927 -0.05972506 -0.10459454
0.031176453 -0.047902122 -0.057162732 0.028131507 -0.25477192 -0.21435903 0.0391449 0.056832913
-0.087326385 0.027298259 0.10951011 -0.18048063 -0.17613718 -0.11066802 0.113051906 0.07094181
-0.13979702 0.040837593 0.18656242 0.13784592 -0.08915306 -0.13979495 -0.19267794 -0.06992968
-0.06233977 0.21443377 -0.07067887 0.18484908 -0.040924177 -0.1901837 -0.1252564 -0.062028
0.019266231 0.010057005 0.004264376 -0.077750415 -0.037679777 -0.013151797 -0.02542724 0.03430422
-0.17348945 0.16449223 0.033789024 -0.045212366 0.058346715 -0.014534395 -0.16695417 -0.24335334
00000000: bdff 16be e967 a63d 0f05 bbbd c26b b93d
00000010: 7697 12bd ee5f 81bc e026 00be e974 753d
00000020: d3c6 8a3e 4781 fdbd fa1f 6a3e b8fd 99bd
00000030: 54cc 5f3c d005 85bc 3f96 ad3c 2d17 893d
00000040: e1b4 623e b5b4 133e 49a6 aabd a0c2 2e3c
00000050: 39df 68bd 9425 1cbd bb66 cebd bc76 9a3d
00000060: 5fb2 dc3d 6ab6 b7bd c7f9 5bbe 341b 703d
00000070: da75 593e 4269 7fbe 136c 383e eaf2 57be
00000080: 769a ac3d ac26 513e f232 3ebe da8e b93d
00000090: 2836 c13c a38c 2f3e eaa0 a83d b868 1e3e
000000a0: d9bc 4e3c 476e b03d 90f6 4b3d 25c8 6f3e
000000b0: e492 47bd fbdf 4bbe 4f09 c23d e53d 9e3d
000000c0: e69c debd 3c61 8ebe ed55 af3b e4cf 8f3d
000000d0: 2d31 72be eaeb 843c ef0d 173e 49fd c83d
000000e0: 4d13 b2bd 2ab4 263e 026e 943e b663 e0bd
000000f0: 0303 833d ac11 d7bd 87c0 a13d 00ae 00be
00000100: 2382 95be 7745 19bc 914a 72bd 5e6b a2be
00000110: 3eb2 65be 9730 0bbd 24f8 7d3e 25b8 52bc
00000120: 6a4b 0b3e 944e eebd a5ed 34be 1fd1 11be
00000130: 41de 96be 59e6 453e 0e5c cabd 0fda 8d3e
00000140: 0d16 72be cfa5 4ebd 46e6 313d dacc 3f3d
00000150: 9d2f d7bb f31f 04be cbdf 5f3d 108a 263b
00000160: 8819 72be d7f3 563e d885 963e 60f5 273d
00000170: ba28 ce3e 5cd2 343e 7384 28be cb11 43be
00000180: 91fd d43d 2b40 0f3e 003f 88bc 07d2 dcbd
00000190: 7256 ebbd f8dc 55bd 4e9c 96bd b648 3abe
000001a0: a7c1 5ebc 0a71 a4bd f57e 1dbe 5222 6bbd
000001b0: 7f62 8dbe 4a3c 32be 9cab b33d d1a6 cc3d
000001c0: 6ab0 f1bd 78dd 62be fb01 ae3d 7873 063e
000001d0: d499 863d e28e 16be 9fae 433c 4dcb a7bd
000001e0: ba43 12be 8977 c93d 2919 d03d 52a6 203e
000001f0: 6a2d cc3b 9c5f 87bd 35b1 7bbe aa58 8cbe
00000200: c1e5 7bbc 2789 00bd e8cb 9dbd 835d 15be
00000210: c5f0 c6bd bbb7 663e 1baa eabd 02fe b1bd
00000220: 3f11 edbe 99d8 75bd 157c 1bbe fa2f 4b3e
00000230: 40df ccbd 1097 00be f8b3 a3bd c134 e7bc
00000240: cc8d d2bd ad2b 393e aa85 dc3c 4800 d63d
00000250: 69f8 e23d d611 edbd 5f89 46bc afba eebd
00000260: 397f 20be fcf3 8e3d 93cf 0c3e 2d1c 0f3d
00000270: 94e0 823e 8366 1f3e 6a6d 86bc b3ac 35be
00000280: 0cf1 233d 114c cf3d 313b 07be 20d8 acbe
00000290: 5137 8d3d 92bc d63c 73c6 9b3d c9e5 653e
000002a0: 6922 923d f443 1bbe dfe9 67bc dea6 1abc
000002b0: bcdf 503d 5580 cc3d deee e7bd bae8 a4bd
000002c0: f2c2 9fbd baa9 133e 7e09 353d 89fd 5ebe
000002d0: cfed 1f3d 10bc e13d ca5b a8bd 25fa bdbd
000002e0: 3f4d 10bc 6b9c ae3d 7351 c53d 064b e2bd
000002f0: eb69 66bd 02d7 bfbc fa3d 1cbe e265 a8bc
00000300: 1657 433e 9823 b13d 4dfe a2bc 963a f3bd
00000310: 6ce1 9c3d 9e6b c4bc ce46 1f3d 2aaa fb3d
00000320: d920 1dbe e4d4 8dbd 3527 063e 9914 053e
00000330: 7736 83bd 55e6 7abe 44a2 74bd aa35 d6bd
00000340: c365 ff3c 0435 44bd 7823 6abd 0c74 e63c
00000350: 7771 82be ef80 5bbe 6756 203d a1c9 683d
00000360: 2dd8 b2bd 99a0 df3c d646 e03d eacf 38be
00000370: 4e5d 34be eaa5 e2bd c287 e73d f149 913d
00000380: f326 0fbe 5245 273d 380a 3f3e 7b27 0d3e
00000390: e195 b6bd 6826 0fbe 5e4d 45be 4b37 8fbd
000003a0: fd57 7fbd 8794 5b3e 15c0 90bd 1449 3d3e
000003b0: 1ca0 27bd 84bf 42be 3743 00be 1211 7ebd
000003c0: 37d4 9d3c 23c6 243c 2ebc 8b3b 9c3b 9fbd
000003d0: 1c56 1abd a27a 57bc ca4c d0bc 9582 0c3d
000003e0: 38a7 31be a770 283e 5c66 0a3d 9a30 39bd
000003f0: f7fc 6e3d ac21 6ebc 09f6 2abe 9e31 79be

blocks.0.mha.out_proj.bias f4 [32]
0.080968566 -0.11223248 -0.046446387 0.07844505 0.060408317 -0.12466835 0.12492788 0.02864353
-0.15297286 0.20854193 0.11409592 -0.17377964 0.21313357 -0.14278892 -0.10887559 -0.22121112
-0.005433771 -0.267273 -0.12098433 -0.32767087 0.42459387 0.13222583 -0.15615062 -0.11751563
-0.05316209 0.0093491655 0.017597966 -0.08806871 0.004114333 -0.12315491 0.17345996 -0.03856959
00000000: d9d2 a53d 24da e5bd 913e 3ebd cca7 a03d
00000010: b66e 773d 1f52 ffbd 30da ff3d d6a5 ea3c
00000020: eba4 1cbe 048c 553e 1fab e93d 4af3 31be
00000030: b03f 5a3e 4237 12be 2afa debd 2b85 62be
00000040: c60d b2bb 02d8 88be a2c6 f7bd 7ac4 a7be
00000050: 5e64 d93e 3566 073e f3e5 1fbe 09ac f0bd
00000060: 7ec0 59bd 3e2d 193c 9c29 903c 5e5d b4bd
00000070: 87d1 863b a438 fcbd 7d9f 313e 25fb 1dbd

blocks.0.ln.weight f4 [90, 32]
1.0 1.0 1.0 1.0 1.0 1.0 1.0 1.0
1.0 1.0 1.0 1.0 1.0 1.0 1.0 1.0
1.0 1.0 1.0 1.0 1.0 1.0 1.0 1.0
1.0 1.0 1.0 1.0 1.0 1.0 1.0 1.0
1.0 1.0 1.0 1.0 1.0 1.0 1.0 1.0
1.0 1.0 1.0 1.0 1.0 1.0 1.0 1.0
1.0 1.0 1.0 1.0 1.0 1.0 1.0 1.0
1.0 1.0 1.0 1.0 1.0 1.0 1.0 1.0
1.0 1.0 1.0 1.0 1.0 1.0 1.0 1.0
1.0 1.0 1.0 1.0 1.0 1.0 1.0 1.0
1.0 1.0 1.0 1.0 1.0 1.0 1.0 1.0
1.0 1.0 1.0 1.0 1.0 1.0 1.0 1.0
1.0 1.0 1.0 1.0 1.0 1.0 1.0 1.0
1.0 1.0 1.0 1.0 1.0 1.0 1.0 1.0
1.0 1.0 1.0 1.0 1.0 1.0 1.0 1.0
1.0 1.0 1.0 1.0 1.0 1.0 1.0 1.0
1.0 1.0 1.0 1.0 1.0 1.0 1.0 1.0
1.0 1.0 1.0 1.0 1.0 1.0 1.0 1.0
1.0 1.0 1.0 1.0 1.0 1.0 1.0 1.0
1.0 1.0 1.0 1.0 1.0 1.0 1.0 1.0
1.0 1.0 1.0 1.0 1.0 1.0 1.0 1.0
1.0 1.0 1.0 1.0 1.0 1.0 1.0 1.0
1.0 1.0 1.0 1.0 1.0 1.0 1.0 1.0
1.0 1.0 1.0 1.0 1.0 1.0 1.0 1.0
1.0 1.0 1.0 1.0 1.0 1.0 1.0 1.0
1.0 1.0 1.0 1.0 1.0 1.0 1.0 1.0
1.0 1.0 1.0 1.0 1.0 1.0 1.0 1.0
1.0 1.0 1.0 1.0 1.0 1.0 1.0 1.0
1.0 1.0 1.0 1.0 1.0 1.0 1.0 1.0
1.0 1.0 1.0 1.0 1.0 1.0 1.0 1.0
1.0 1.0 1.0 1.0 1.0 1.0 1.0 1.0
1.0 1.0 1.0 1.0 1.0 1.0 1.0 1.0
00000000: 0000 803f 0000 803f 0000 803f 0000 803f
00000010: 0000 803f 0000 803f 0000 803f 0000 803f
00000020: 0000 803f 0000 803f 0000 803f 0000 803f
00000030: 0000 803f 0000 803f 0000 803f 0000 803f
00000040: 0000 803f 0000 803f 0000 803f 0000 803f
00000050: 0000 803f 0000 803f 0000 803f 0000 803f
00000060: 0000 803f 0000 803f 0000 803f 0000 803f
00000070: 0000 803f 0000 803f 0000 803f 0000 803f
00000080: 0000 803f 0000 803f 0000 803f 0000 803f
00000090: 0000 803f 0000 803f 0000 803f 0000 803f
000000a0: 0000 803f 0000 803f 0000 803f 0000 803f
000000b0: 0000 803f 0000 803f 0000 803f 0000 803f
000000c0: 0000 803f 0000 803f 0000 803f 0000 803f
000000d0: 0000 803f 0000 803f 0000 803f 0000 803f
000000e0: 0000 803f 0000 803f 0000 803f 0000 803f
000000f0: 0000 803f 0000 803f 0000 803f 0000 803f
00000100: 0000 803f 0000 803f 0000 803f 0000 803f
00000110: 0000 803f 0000 803f 0000 803f 0000 803f
00000120: 0000 803f 0000 803f 0000 803f 0000 803f
00000130: 0000 803f 0000 803f 0000 803f 0000 803f
00000140: 0000 803f 0000 803f 0000 803f 0000 803f
00000150: 0000 803f 0000 803f 0000 803f 0000 803f
00000160: 0000 803f 0000 803f 0000 803f 0000 803f
00000170: 0000 803f 0000 803f 0000 803f 0000 803f
00000180: 0000 803f 0000 803f 0000 803f 0000 803f
00000190: 0000 803f 0000 803f 0000 803f 0000 803f
000001a0: 0000 803f 0000 803f 0000 803f 0000 803f
000001b0: 0000 803f 0000 803f 0000 803f 0000 803f
000001c0: 0000 803f 0000 803f 0000 803f 0000 803f
000001d0: 0000 803f 0000 803f 0000 803f 0000 803f
000001e0: 0000 803f 0000 803f 0000 803f 0000 803f
000001f0: 0000 803f 0000 803f 0000 803f 0000 803f
00000200: 0000 803f 0000 803f 0000 803f 0000 803f
00000210: 0000 803f 0000 803f 0000 803f 0000 803f
00000220: 0000 803f 0000 803f 0000 803f 0000 803f
00000230: 0000 803f 0000 803f 0000 803f 0000 803f
00000240: 0000 803f 0000 803f 0000 803f 0000 803f
00000250: 0000 803f 0000 803f 0000 803f 0000 803f
00000260: 0000 803f 0000 803f 0000 803f 0000 803f
00000270: 0000 803f 0000 803f 0000 803f 0000 803f
00000280: 0000 803f 0000 803f 0000 803f 0000 803f
00000290: 0000 803f 0000 803f 0000 803f 0000 803f
000002a0: 0000 803f 0000 803f 0000 803f 0000 803f
000002b0: 0000 803f 0000 803f 0000 803f 0000 803f
000002c0: 0000 803f 0000 803f 0000 803f 0000 803f
000002d0: 0000 803f 0000 803f 0000 803f 0000 803f
000002e0: 0000 803f 0000 803f 0000 803f 0000 803f
000002f0: 0000 803f 0000 803f 0000 803f 0000 803f
00000300: 0000 803f 0000 803f 0000 803f 0000 803f
00000310: 0000 803f 0000 803f 0000 803f 0000 803f
00000320: 0000 803f 0000 803f 0000 803f 0000 803f
00000330: 0000 803f 0000 803f 0000 803f 0000 803f
00000340: 0000 803f 0000 803f 0000 803f 0000 803f
00000350: 0000 803f 0000 803f 0000 803f 0000 803f
00000360: 0000 803f 0000 803f 0000 803f 0000 803f
00000370: 0000 803f 0000 803f 0000 803f 0000 803f
00000380: 0000 803f 0000 803f 0000 803f 0000 803f
00000390: 0000 803f 0000 803f 0000 803f 0000 803f
000003a0: 0000 803f 0000 803f 0000 803f 0000 803f
000003b0: 0000 803f 0000 803f 0000 803f 0000 803f
000003c0: 0000 803f 0000 803f 0000 803f 0000 803f
000003d0: 0000 803f 0000 803f 0000 803f 0000 803f
000003e0: 0000 803f 0000 803f 0000 803f 0000 803f
000003f0: 0000 803f 0000 803f 0000 803f 0000 803f

blocks.0.ln.bias f4 [90, 32]
0.0 0.0 0.0 0.0 0.0 0.0 0.0 0.0
0.0 0.0 0.0 0.0 0.0 0.0 0.0 0.0
0.0 0.0 0.0 0.0 0.0 0.0 0.0 0.0
0.0 0.0 0.0 0.0 0.0 0.0 0.0 0.0
0.0 0.0 0.0 0.0 0.0 0.0 0.0 0.0
0.0 0.0 0.0 0.0 0.0 0.0 0.0 0.0
0.0 0.0 0.0 0.0 0.0 0.0 0.0 0.0
0.0 0.0 0.0 0.0 0.0 0.0 0.0 0.0
0.0 0.0 0.0 0.0 0.0 0.0 0.0 0.0
0.0 0.0 0.0 0.0 0.0 0.0 0.0 0.0
0.0 0.0 0.0 0.0 0.0 0.0 0.0 0.0
0.0 0.0 0.0 0.0 0.0 0.0 0.0 0.0
0.0 0.0 0.0 0.0 0.0 0.0 0.0 0.0
0.0 0.0 0.0 0.0 0.0 0.0 0.0 0.0
0.0 0.0 0.0 0.0 0.0 0.0 0.0 0.0
0.0 0.0 0.0 0.0 0.0 0.0 0.0 0.0
0.0 0.0 0.0 0.0 0.0 0.0 0.0 0.0
0.0 0.0 0.0 0.0 0.0 0.0 0.0 0.0
0.0 0.0 0.0 0.0 0.0 0.0 0.0 0.0
0.0 0.0 0.0 0.0 0.0 0.0 0.0 0.0
0.0 0.0 0.0 0.0 0.0 0.0 0.0 0.0
0.0 0.0 0.0 0.0 0.0 0.0 0.0 0.0
0.0 0.0 0.0 0.0 0.0 0.0 0.0 0.0
0.0 0.0 0.0 0.0 0.0 0.0 0.0 0.0
0.0 0.0 0.0 0.0 0.0 0.0 0.0 0.0
0.0 0.0 0.0 0.0 0.0 0.0 0.0 0.0
0.0 0.0 0.0 0.0 0.0 0.0 0.0 0.0
0.0 0.0 0.0 0.0 0.0 0.0 0.0 0.0
0.0 0.0 0.0 0.0 0.0 0.0 0.0 0.0
0.0 0.0 0.0 0.0 0.0 0.0 0.0 0.0
0.0 0.0 0.0 0.0 0.0 0.0 0.0 0.0
0.0 0.0 0.0 0.0 0.0 0.0 0.0 0.0
00000000: 0000 0000 0000 0000 0000 0000 0000 0000
00000010: 0000 0000 0000 0000 0000 0000 0000 0000
00000020: 0000 0000 0000 0000 0000 0000 0000 0000
00000030: 0000 0000 0000 0000 0000 0000 0000 0000
00000040: 0000 0000 0000 0000 0000 0000 0000 0000
00000050: 0000 0000 0000 0000 0000 0000 0000 0000
00000060: 0000 0000 0000 0000 0000 0000 0000 0000
00000070: 0000 0000 0000 0000 0000 0000 0000 0000
00000080: 0000 0000 0000 0000 0000 0000 0000 0000
00000090: 0000 0000 0000 0000 0000 0000 0000 0000
000000a0: 0000 0000 0000 0000 0000 0000 0000 0000
000000b0: 0000 0000 0000 0000 0000 0000 0000 0000
000000c0: 0000 0000 0000 0000 0000 0000 0000 0000
000000d0: 0000 0000 0000 0000 0000 0000 0000 0000
000000e0: 0000 0000 0000 0000 0000 0000 0000 0000
000000f0: 0000 0000 0000 0000 0000 0000 0000 0000
00000100: 0000 0000 0000 0000 0000 0000 0000 0000
00000110: 0000 0000 0000 0000 0000 0000 0000 0000
00000120: 0000 0000 0000 0000 0000 0000 0000 0000
00000130: 0000 0000 0000 0000 0000 0000 0000 0000
00000140: 0000 0000 0000 0000 0000 0000 0000 0000
00000150: 0000 0000 0000 0000 0000 0000 0000 0000
00000160: 0000 0000 0000 0000 0000 0000 0000 0000
00000170: 0000 0000 0000 0000 0000 0000 0000 0000
00000180: 0000 0000 0000 0000 0000 0000 0000 0000
00000190: 0000 0000 0000 0000 0000 0000 0000 0000
000001a0: 0000 0000 0000 0000 0000 0000 0000 0000
000001b0: 0000 0000 0000 0000 0000 0000 0000 0000
000001c0: 0000 0000 0000 0000 0000 0000 0000 0000
000001d0: 0000 0000 0000 0000 0000 0000 0000 0000
000001e0: 0000 0000 0000 0000 0000 0000 0000 0000
000001f0: 0000 0000 0000 0000 0000 0000 0000 0000
00000200: 0000 0000 0000 0000 0000 0000 0000 0000
00000210: 0000 0000 0000 0000 0000 0000 0000 0000
00000220: 0000 0000 0000 0000 0000 0000 0000 0000
00000230: 0000 0000 0000 0000 0000 0000 0000 0000
00000240: 0000 0000 0000 0000 0000 0000 0000 0000
00000250: 0000 0000 0000 0000 0000 0000 0000 0000
00000260: 0000 0000 0000 0000 0000 0000 0000 0000
00000270: 0000 0000 0000 0000 0000 0000 0000 0000
00000280: 0000 0000 0000 0000 0000 0000 0000 0000
00000290: 0000 0000 0000 0000 0000 0000 0000 0000
000002a0: 0000 0000 0000 0000 0000 0000 0000 0000
000002b0: 0000 0000 0000 0000 0000 0000 0000 0000
000002c0: 0000 0000 0000 0000 0000 0000 0000 0000
000002d0: 0000 0000 0000 0000 0000 0000 0000 0000
000002e0: 0000 0000 0000 0000 0000 0000 0000 0000
000002f0: 0000 0000 0000 0000 0000 0000 0000 0000
00000300: 0000 0000 0000 0000 0000 0000 0000 0000
00000310: 0000 0000 0000 0000 0000 0000 0000 0000
00000320: 0000 0000 0000 0000 0000 0000 0000 0000
00000330: 0000 0000 0000 0000 0000 0000 0000 0000
00000340: 0000 0000 0000 0000 0000 0000 0000 0000
00000350: 0000 0000 0000 0000 0000 0000 0000 0000
00000360: 0000 0000 0000 0000 0000 0000 0000 0000
00000370: 0000 0000 0000 0000 0000 0000 0000 0000
00000380: 0000 0000 0000 0000 0000 0000 0000 0000
00000390: 0000 0000 0000 0000 0000 0000 0000 0000
000003a0: 0000 0000 0000 0000 0000 0000 0000 0000
000003b0: 0000 0000 0000 0000 0000 0000 0000 0000
000003c0: 0000 0000 0000 0000 0000 0000 0000 0000
000003d0: 0000 0000 0000 0000 0000 0000 0000 0000
000003e0: 0000 0000 0000 0000 0000 0000 0000 0000
000003f0: 0000 0000 0000 0000 0000 0000 0000 0000

blocks.0.ffn.0.weight f4 [90, 32]
0.53154635 0.5608607 1.1428655 0.42395467 0.78835946 1.0684259 0.9226696 0.7729087
0.7728876 0.76627433 0.44413793 0.92632 0.49417415 0.44235206 0.98006445 0.8090388
0.72708344 1.0073766 0.48343807 1.112009 0.8657744 0.73024535 0.58542305 0.8347031
1.0953093 1.5812486 0.6215238 1.0822586 0.9222703 0.6834416 0.5953361 1.3399216
0.4214571 0.7121756 1.3907951 1.0763227 0.82159257 0.7520243 0.84347826 0.7684908
0.847652 0.6584333 1.0657811 0.9198217 0.6245232 0.66564876 0.88347375 1.0679474
0.8746706 1.2711669 0.71315217 1.3249589 0.83460355 0.9892214 0.7685451 1.0865204
1.145973 1.4670383 0.6854504 1.1352001 1.1070924 0.8641236 0.58647597 1.1811432
0.53915423 1.0225495 1.2563039 0.8349281 0.9321448 0.63354003 0.97109246 0.71229345
0.9397555 0.7993517 1.8259295 1.1913301 1.2129549 0.61045986 0.8354158 0.9432166
0.8863022 0.90805024 1.0082701 1.1142082 1.0347822 0.7865096 0.82272005 0.5087495
1.238816 0.9463042 0.7080388 0.56749 1.2160188 0.940215 0.84405607 1.1116012
0.7930634 0.9057939 1.2880381 0.94002414 0.80962133 0.71913475 0.9828109 0.7019464
0.8308129 1.3790417 0.60677063 0.74754924 0.9251088 0.68436235 0.7322323 1.3899738
0.9175937 0.9862469 0.67878073 1.1852285 0.98833793 0.6929517 0.8437321 0.67756814
1.132405 1.3205937 0.52665555 0.68581766 1.266089 1.018484 0.7542138 0.8228623
0.72950613 0.7095305 1.0550839 0.74825 0.79063886 0.3922492 1.3256243 0.90440124
1.1299059 1.1710835 0.77862 1.1226736 1.2133611 0.42548025 0.6426544 1.3453689
0.66897225 0.8672527 0.865858 1.047775 0.6932713 0.96330416 0.841113 0.59754336
1.0267419 1.4397693 0.6146321 0.81514317 1.2980317 0.89186823 0.8498021 1.0413246
0.78853095 0.6432756 1.1681556 0.6489867 0.8823495 0.78832215 1.1173317 0.90225285
0.9011878 1.3516401 1.2780604 0.8926248 0.95836055 0.80863404 1.2436903 1.0530155
0.8280513 0.97949135 1.0827357 0.86445206 0.79780954 0.7553008 0.81418604 0.8151242
0.73078597 0.71374893 0.8162678 0.8637886 1.0653361 1.2070762 0.99151295 0.79981023
0.915383 0.8894465 1.2456893 0.7166581 0.8523669 0.6900784 1.3359227 1.1589978
0.9565775 1.1228018 1.3018458 0.6665672 1.0292797 1.0003488 1.1655519 1.1552904
0.95744145 0.9750892 1.0489757 0.9634032 0.82772243 1.0070078 0.90452796 0.9647302
1.0531372 0.7954201 1.032491 0.72132796 1.1493981 1.1131117 0.92597306 0.9624946
0.95406836 0.7230458 1.2026576 0.7397019 0.92726505 1.0553577 0.5619961 1.0445691
0.90399563 0.7942406 0.76065284 0.96223694 0.9584088 0.87346524 1.11685 0.8342223
1.0023184 1.0860587 1.1036025 0.91032636 0.86483365 1.0176605 0.8940459 1.2762836
0.9969104 1.0939723 1.1602867 0.91043866 1.1438953 1.1744924 0.9752187 1.202408
00000000: 6c13 083f 9194 0f3f 6b49 923f 9610 d93e
00000010: edd1 493f 2ec2 883f 1334 6c3f 58dd 453f
00000020: f6db 453f 8e2a 443f 0c66 e33e 4f23 6d3f
00000030: 6504 fd3e f87b e23e 81e5 7a3f 2b1d 4f3f
00000040: 2422 3a3f b7f1 803f 3285 f73e 5056 8e3f
00000050: 64a3 5d3f 5cf1 3a3f 49de 153f 1aaf 553f
00000060: 1833 8c3f 5b66 ca3f 2f1c 1f3f 7387 8a3f
00000070: e819 6c3f 07f6 2e3f f267 183f 8d82 ab3f
00000080: 3ac9 d73e 2451 363f 9305 b23f f1c4 893f
00000090: e453 523f aa84 403f 31ee 573f d0bb 443f
000000a0: b9ff 583f 168f 283f 846b 883f 6f79 6b3f
000000b0: c1e0 1f3f f567 2a3f 562b 623f 80b2 883f
000000c0: 6aea 5f3f 99b5 a23f 2491 363f 4198 a93f
000000d0: 94a8 553f 9d3d 7d3f 5fbf 443f 1a13 8b3f
000000e0: 3eaf 923f e9c7 bb3f ad79 2f3f 3d4e 913f
000000f0: 34b5 8d3f 3437 5d3f 4a23 163f b32f 973f
00000100: 0306 0a3f e7e2 823f 91ce a03f d9bd 553f
00000110: 0ba1 6e3f ae2f 223f 8499 783f dd58 363f
00000120: d193 703f 50a2 4c3f 0fb8 e93f 817d 983f
00000130: 1b42 9b3f 1947 1c3f cfdd 553f a576 713f
00000140: b3e4 623f fb75 683f ff0e 813f 609e 8e3f
00000150: be73 843f b158 493f c89d 523f 683d 023f
00000160: 8691 9e3f fe40 723f 0842 353f 0647 113f
00000170: 81a6 9b3f eeb1 703f 0f14 583f f348 8e3f
00000180: 3406 4b3f 1ce2 673f 6fde a43f 6ca5 703f
00000190: 5843 4f3f 3719 383f 7f99 7b3f c2b2 333f
000001a0: 27b0 543f 7084 b03f 5255 1b3f 635f 3f3f
000001b0: eed3 6c3f 5f32 2f3f 9373 3b3f a9ea b13f
000001c0: 6ce7 6a3f ad7a 7c3f 93c4 2d3f 91b5 973f
000001d0: b703 7d3f 4865 313f d4fe 573f 1b75 2d3f
000001e0: a6f2 903f 3709 a93f e6d2 063f bf91 2f3f
000001f0: 340f a23f af5d 823f 2814 413f 1ba7 523f
00000200: eac0 3a3f caa3 353f fd0c 873f 508d 3f3f
00000210: 4f67 4a3f e3d4 c83e 0fae a93f d786 673f
00000220: c2a0 903f 10e6 953f a453 473f c5b3 8f3f
00000230: 6b4f 9b3f 8cd8 d93e 0085 243f 0c35 ac3f
00000240: c441 2b3f 4604 5e3f dfa8 5d3f 7e1d 863f
00000250: 3a7a 313f 1a9b 763f 2e53 573f 9af8 183f
00000260: 476c 833f 5c4a b83f 8858 1d3f 39ad 503f
00000270: e725 a63f 7a51 643f a18c 593f 204a 853f
00000280: 2add 493f b6ad 243f 1f86 953f fe23 263f
00000290: a8e1 613f 7bcf 493f ba04 8f3f 0bfa 663f
000002a0: 3eb4 663f 8b02 ad3f 7c97 a33f 0f83 643f
000002b0: 1e57 753f a402 4f3f 3e31 9f3f 36c9 863f
000002c0: 2cfb 533f f2bf 7a3f 1597 8a3f bb4c 5d3f
000002d0: 3f3d 4c3f 655b 413f 7f6e 503f fbab 503f
000002e0: ca14 3b3f 40b8 363f edf6 503f 4021 5d3f
000002f0: ef5c 883f 7981 9a3f cbd3 7d3f 5dc0 4c3f
00000300: 8a56 6a3f c4b2 633f bf72 9f3f e876 373f
00000310: b834 5a3f faa8 303f 84ff aa3f 0a5a 943f
00000320: 43e2 743f f8b7 8f3f e2a2 a63f 26a4 2a3f
00000330: 70bf 833f 6e0b 803f ce30 953f 8ee0 933f
00000340: e21a 753f 729f 793f d644 863f 98a1 763f
00000350: 9ee5 533f a2e5 803f 258f 673f 8ff8 763f
00000360: 33cd 863f a7a0 4b3f aa28 843f f3a8 383f
00000370: 7a1f 933f 727a 8e3f 920c 6d3f 0c66 763f
00000380: d33d 743f 8819 393f aff0 993f 1b5d 3d3f
00000390: 3e61 6d3f f615 873f fade 0f3f 71b4 853f
000003a0: 426c 673f 5a53 4b3f 25ba 423f 2955 763f
000003b0: 475a 753f 6b9b 5f3f f1f4 8e3f 988f 553f
000003c0: f84b 803f f903 8b3f d942 8d3f 260b 693f
000003d0: bd65 5d3f b342 823f 31e0 643f 435d a33f
000003e0: 8535 7f3f 4907 8c3f 4684 943f 8212 693f
000003f0: 296b 923f c455 963f efa7 793f 81e8 993f

blocks.0.ffn.0.bias f4 [90, 32]
0.33734202 -0.10451674 0.07647634 0.011423727 0.03345104 -0.103295796 -0.30090156 -0.14470306
0.06976255 -0.43793815 -0.53600395 0.3749662 0.1065385 -0.11950794 0.2359493 -0.81993616
-0.1109299 0.07072593 -0.044972397 0.3507872 -0.60086423 -0.29501715 -0.008091902 -0.40555376
0.053048335 -0.079652816 -0.04980306 -0.16051532 0.05189987 -0.36032608 -0.26279035 0.16361608
0.17696029 -0.08441212 0.08262206 0.04822345 -0.022247288 -0.109529935 -0.33202282 -0.12678064
-0.051953778 -0.45646465 -0.538946 0.28348306 0.12028433 -0.094938345 0.07775421 -0.59169084
-0.041124616 -0.059336882 -0.051986106 0.28620914 -0.49612027 -0.1643019 0.03376328 -0.3675303
-0.052850716 -0.07815059 -0.13685149 -0.073341146 0.10477463 -0.4005099 -0.31483757 -0.10066557
0.13931176 -0.15371905 0.16623501 0.070780225 0.030696236 0.0086072115 -0.2899006 -0.07111717
0.009865597 -0.12626582 -0.56496024 0.49147862 0.20729342 -0.20118283 0.78472084 -0.41322553
-0.16574728 -0.03160013 -0.093885295 0.11321276 -0.46797925 -0.08097052 0.06845953 -0.15595198
0.027028525 -0.077063926 -0.001398747 -0.27180186 0.16819237 -0.3821997 -0.24803543 -0.078668654
0.07519212 -0.12122513 0.1477615 0.10025536 -0.024261197 -0.08955896 -0.21333136 -0.32064855
0.045002837 -0.11577812 -0.3176593 0.2829311 0.2126742 -0.07304291 0.65114355 -0.41889033
-0.16336642 0.15368225 -0.15293774 0.18821704 -0.52611935 -0.2246312 -0.01497172 -0.17319986
-0.086621694 0.0423531 -0.07585548 -0.15379444 0.13346303 -0.18637407 -0.2886168 -0.10613775
0.159833 -0.040714476 0.2824206 -0.01898101 -0.029354384 0.06428954 -0.33162838 -0.11798091
0.10131023 -0.007195432 -0.31606027 0.4332806 0.12907164 -0.14164607 0.88897765 -0.42627105
-0.24774845 0.040421203 -0.075504825 0.01597884 -0.3822651 -0.12983412 0.041635666 -0.12805294
0.064202115 0.0022161594 -0.055115804 -0.11259275 0.11284083 -0.28155515 -0.28256568 -0.05747323
-0.13900377 -0.1979856 0.032192573 0.039968308 0.024872467 0.10588101 -0.4512444 -0.05941615
-0.18546018 -0.17386398 -0.58302915 0.41422337 0.25571886 -0.1389241 0.39889354 -0.25671214
-0.31959027 0.21381494 -0.32005343 0.13606796 -0.5831523 -0.25805265 -0.09969035 -0.37457618
-0.085523844 -0.25194243 0.104117624 -0.33585572 0.15177716 -0.2348352 -0.22390127 -0.25850657
-0.13950269 -0.14063656 0.1167551 -0.08149937 0.06359331 -0.012231849 -0.34157035 -0.031897202
-0.09704072 -0.18602394 -0.42669424 0.42163587 0.29367107 -0.22012715 0.14762118 -0.28677043
-0.23417747 0.21060835 -0.20961861 0.08047604 -0.49606517 -0.14566879 -0.09577396 -0.23040235
-0.005835933 -0.14676203 0.022082767 -0.20736513 0.13961041 -0.1603025 -0.14009628 -0.25209078
-0.17591782 -0.08253896 0.15687762 -0.09297255 0.0001210542 -0.017640444 -0.23265518 0.01665123
-0.10401661 -0.23511511 -0.3176872 0.23849571 0.2351465 -0.1171236 -0.07599073 -0.38010177
-0.072039075 0.06527581 -0.19714345 0.07774637 -0.3646504 -0.13617693 -0.03789809 -0.245937
0.132593 -0.1152846 0.06152835 -0.09615856 0.03805419 -0.10297212 -0.13624176 -0.19561602
00000000: 18b8 ac3e df0c d6bd a19f 9c3d 952a 3b3c
00000010: f503 093d bf8c d3bd c50f 9abe 0a2d 14be
00000020: abdf 8e3d 6e39 e0be 8e37 09bf 92fb bf3e
00000030: db30 da3d 94c0 f4bd b19c 713e 56e7 51bf
00000040: 372f e3bd c2d8 903d fa34 38bd 619a b33e
00000050: 3dd2 19bf 7d0c 97be e693 04bc bea4 cfbe
00000060: 3649 593d 0421 a3bd 4bfe 4bbd 215e 24be
00000070: f594 543d a97c b8be 758c 86be f98a 273e
00000080: 1435 353e 43e0 acbd c135 a93d f485 453d
00000090: f23f b6bc 3b51 e0bd e5fe a9be c9d2 01be
000000a0: 7ccd 54bd bcb5 e9be 5df8 09bf b124 913e
000000b0: a157 f63d 096f c2bd 993d 9f3d 0d79 17bf
000000c0: 4972 28bd 3b0b 73bd 62ef 54bd 018a 923e
000000d0: 7a03 febe c23e 28be 5d4b 0a3d ee2c bcbe
000000e0: fe79 58bd 6b0d a0bd cc22 0cbe e233 96bd
000000f0: 1594 d63d a20f cdbe 6432 a1be c029 cebd
00000100: bea7 0e3e 8768 1dbe 8339 2a3e 39f5 903d
00000110: ac76 fb3c 4305 0d3c da6d 94be e1a5 91bd
00000120: 50a3 213c d44b 01be 3ca1 10bf 16a3 fb3e
00000130: ba44 543e df02 4ebe 77e3 483f 4c92 d3be
00000140: a8b9 29be 236f 01bd ef46 c0bd 17dc e73d
00000150: fa9a efbe dfd3 a5bd 8334 8c3d e0b1 1fbe
00000160: ed6a dd3c b1d3 9dbd 2956 b7ba 9d29 8bbe
00000170: 9f3a 2c3e aeaf c3be 00fd 7dbe 081d a1bd
00000180: 54fe 993d e244 f8bd ca4e 173e af52 cd3d
00000190: 6bbf c6bc b06a b7bd 8973 5abe 0c2c a4be
000001a0: e554 383d 141d edbd 3da4 a2be 58dc 903e
000001b0: 44c7 593e 8597 95bd 58b1 263f cb78 d6be
000001c0: 8749 27be e15e 1d3e b69b 1cbe f8bb 403e
000001d0: c2af 06bf b905 66be f24b 75bc 4e5b 31be
000001e0: b766 b1bd 727a 2d3d 1e5a 9bbd 4a7c 1dbe
000001f0: 88aa 083e d8d8 3ebe 95c5 93be c05e d9bd
00000200: 43ab 233e 39c4 26bd 6f99 903e 107e 9bbc
00000210: 9b78 f0bc 3caa 833d 32cb a9be fa9f f1bd
00000220: bd7b cf3d a9c7 ebbb a7d2 a1be f4d6 dd3e
00000230: 5b2b 043e ab0b 11be 0a94 633f 3340 dabe
00000240: c5b1 7dbe b490 253d 46a2 9abd 0ee6 823c
00000250: 40b8 c3be 3cf3 04be 298a 2a3d 4f20 03be
00000260: 667c 833d fc3c 113b 1cc1 61bd 0797 e6bd
00000270: 1819 e73d ff27 90be 73ac 90be 0d69 6bbd
00000280: 0157 0ebe bdbc 4abe 5cdc 033d cfb5 233d
00000290: 58c1 cb3c 25d8 d83d 8209 e7be 595e 73bd
000002a0: 46e9 3dbe 6609 32be 6641 15bf 1615 d43e
000002b0: 95ed 823e 1f42 0ebe c63b cc3e c66f 83be
000002c0: 56a1 a3be 4ef2 5a3e 0bde a3be 6655 0b3e
000002d0: 7849 15bf 7a1f 84be 742a ccbd 73c8 bfbe
000002e0: 2027 afbd 99fe 80be 9f3b d53d 48f5 abbe
000002f0: 796b 1b3e a378 70be 6046 65be f95a 84be
00000300: cbd9 0ebe 0803 10be 4c1d ef3d 24e9 a6bd
00000310: 363d 823d 1868 48bc 4fe2 aebe a4a6 02bd
00000320: 49bd c6bd 0f7d 3ebe ab77 dabe a8e0 d73e
00000330: 0e5c 963e 0369 61be 022a 173e 93d3 92be
00000340: 38cc 6fbe b7a9 573e 43a6 56be 9fd0 a43d
00000350: 41fc fdbe 332a 15be 2325 c4bd 98ee 6bbe
00000360: 5b3b bfbb c948 16be ebe6 b43c 8657 54be
00000370: 08f6 0e3e 5726 24be 6675 0fbe 0b12 81be
00000380: cd23 34be 300a a9bd 87a4 203e 6468 bebd
00000390: 7bde fd38 b182 90bc 293d 6ebe 2968 883c
000003a0: a906 d5bd 04c2 70be e6a7 a2be 3838 743e
000003b0: 3eca 703e 7fde efbd 07a1 9bbd b39c c2be
000003c0: 3989 93bd 53af 853d f9df 49be 7d39 9f3d
000003d0: 75b3 babe f771 0bbe 073b 1bbd e9d6 7bbe
000003e0: 76c6 073e 551a ecbd 2705 7c3d c7ee c4bd
000003f0: b6de 1b3d 0ce3 d2bd f682 0bbe 914f 48be
