models/experiment_BCH_N63_K36_transformer_d=32_N=2_nomask_lr=0.0003_epochs=200.pth (torch, 290227 bytes, 32 tensors)

embedding f4 [90, 32]
000000 4c 43 41 be 15 20 18 be 4f 19 54 be 69 9f 90 3d
       -0.18873328 -0.14855988 -0.2071278 0.07061655
000010 91 53 4f be 22 59 77 bd a7 41 99 be bd 87 ab bd
       -0.20246722 -0.060387738 -0.299329 -0.083754994
000020 8f 56 da bd 48 8a 8d 3d ac e2 33 bc c0 7f 12 bd
       -0.10661041 0.06911141 -0.010979336 -0.035766363
000030 6f 49 d4 3c 66 0d 39 be a1 22 7f bd 32 54 18 3e
       0.025913922 -0.18071517 -0.062288884 0.14875868
000040 80 f4 84 3e 1b 4c 37 be 82 14 fc bd 81 79 bd 3d
       0.2596779 -0.17900126 -0.12308599 0.09251691
000050 4b b7 5c bd 6e c0 22 3e 6c 64 12 3d e0 22 70 3e
       -0.05388574 0.15893719 0.0357403 0.23450804
000060 64 d6 88 3c 37 5a 17 be e2 16 05 3e b2 70 41 be
       0.016703792 -0.14780508 0.1299701 -0.18890646
000070 df 3c 2a 3e 7a 9c 7c be 2a 56 a9 bd d3 4d 13 bb
       0.16624783 -0.24669066 -0.082683876 -0.0022476807
000080 fc 39 d4 bd 7a d5 3d 3d 23 21 8f be 27 6a 82 bc
       -0.10362622 0.046346165 -0.2795497 -0.015919758
000090 23 e3 36 3d a5 0c 1f 3d a9 07 8f be f5 20 61 be
       0.04465021 0.03883042 -0.27935532 -0.21985228
0000a0 61 9d 1a 3e 25 00 a5 bd fb 5c 95 be 7f 30 8d 3d
       0.15099098 -0.08056668 -0.291725 0.068940155
0000b0 0e d0 a4 3e 5b 68 26 3d 9b a0 4c bd cd 61 97 bd
       0.32189983 0.040626865 -0.049957853 -0.07391701
0000c0 6f 78 2e 3e 16 9e 32 be 39 73 45 be 42 44 73 3e
       0.1703813 -0.17443117 -0.19282235 0.23756507
0000d0 a4 f3 e3 3d bc 8f 9f 3e 0e 53 ab 3d 4e 42 54 3d
       0.11130455 0.31164348 0.08365451 0.051821046
0000e0 33 93 43 be 6e c7 91 be f9 8f b6 3d 87 b9 5d be
       -0.19099121 -0.28472465 0.08914179 -0.21652804
0000f0 b9 c4 45 3c 23 37 b1 3c 49 3b 81 be dc bd 0a be
       0.012070828 0.021632737 -0.25240543 -0.13548988
000100 5d 37 44 be 57 41 29 3e d8 c8 76 3e 26 e2 4c 3e
       -0.19161744 0.16528831 0.24100053 0.20008144
000110 35 2a 39 be 52 fa b5 bd b5 5c 01 3d 11 bb 84 bd
       -0.18082507 -0.088856354 0.031582553 -0.064809926
000120 83 ae 06 3e ba c9 c2 bd 72 98 20 be 7c 2f 0f 3e
       0.13152508 -0.095111325 -0.15683153 0.13982958
000130 12 78 a2 bd 25 95 64 3e 22 e9 1a be dd 67 1e bc
       -0.07933058 0.22322519 -0.15127996 -0.009668318
000140 84 2e fb bd 7f 3c 05 3e 0d 8a 2d be c5 8a 98 bd
       -0.122647315 0.13011359 -0.16947193 -0.07448343
000150 05 e6 b9 bc d9 b7 62 3e e9 ef 34 bc 1d 16 c9 bd
       -0.02269269 0.22140445 -0.011043527 -0.09818671
000160 ee 48 18 be 65 5e 57 3e b5 d9 bf 3d 36 77 6f 3e
       -0.1487157 0.21032102 0.09367696 0.23385319
000170 ba 50 a9 be ef 7a 73 be ef 5f 8d 3d 56 cc 2e bd
       -0.33069402 -0.23777364 0.069030635 -0.04267534
000180 81 35 48 bd 9f 61 8f 3e 87 af 40 3d 31 36 8e 3e
       -0.04887915 0.28004166 0.047042396 0.2777572
000190 bc cf 53 be ed a1 e0 bc a5 94 07 be 32 fd f1 bb
       -0.20684713 -0.027420962 -0.13240297 -0.0073849196
0001a0 2e 18 8a 3e 9b 81 02 be 20 b0 24 3e 10 46 38 3e
       0.26971573 -0.12744753 0.16082811 0.17995477
0001b0 24 55 39 3d 44 32 92 3b 3c b7 03 be e1 78 9c 3d
       0.045247212 0.0044615585 -0.12862867 0.07640243
0001c0 66 14 08 be 1d ce 96 be ff 2e e5 3d d2 35 a7 3d
       -0.13289031 -0.29454127 0.111906044 0.08164562
0001d0 c3 0d 33 3c e4 9d a4 3e 2d 9b 22 be 38 67 6b be
       0.010928574 0.3215171 -0.15879507 -0.22988594
0001e0 6b b2 2b be fd d8 a3 be 26 96 6f 3d 32 93 10 bc
       -0.1676728 -0.32001486 0.058492802 -0.008824157
0001f0 27 fa b0 be d1 46 73 3e 3c 53 53 be 90 5a af 3d
       -0.3456585 0.23757483 -0.2063722 0.08562195
000200 50 28 7c 3e f4 4f b0 bd 34 ab 5f 3d 26 9d 42 bd
       0.24624753 -0.08609 0.05460663 -0.04751315
000210 40 4d 4f 3e 31 13 3d 3e 6c 83 52 be f9 86 b9 be
       0.20244312 0.18464352 -0.20557946 -0.36235788
000220 6a 85 4d 3c 64 f0 82 be 62 6f bc 3d f2 3c 72 be
       0.012544015 -0.25574028 0.09200932 -0.23656061
000230 43 0f 0f bd cc 66 2f bd 12 4f 79 bd c0 de ec bd
       -0.034926664 -0.042822644 -0.060866423 -0.11565924
000240 5c 18 56 3d bd 89 94 3d 55 be f8 3d aa 98 af 3e
       0.052269325 0.07252834 0.12145678 0.3429616
000250 a1 c3 80 3e 1c c7 84 be 33 b6 6b bc 9f b8 b5 3e
       0.25149253 -0.25933158 -0.014386701 0.35492417
000260 de 80 23 be c5 8d 89 3d 1c 9e d6 3d 57 a8 69 3e
       -0.15967128 0.067164935 0.10479376 0.22818123
000270 5e 93 9c 3d 23 0f 69 3d d2 55 a7 3e a0 93 66 3e
       0.076452956 0.0568992 0.32682663 0.22517252
000280 97 20 2d be 8b dd c2 3d b8 b4 ac bc 4d c8 4c 3e
       -0.16906963 0.09514912 -0.021082267 0.19998284
000290 b1 fe 76 be 51 bc 63 bd 41 57 1f 3e 13 8c 3f 3e
       -0.24120595 -0.055599514 0.15560628 0.18705778
0002a0 b5 1a 41 3e c1 c2 6d be 01 3e 6f 3d 06 95 40 bd
       0.18857844 -0.23218824 0.05840874 -0.04701712
0002b0 74 48 30 3c 56 14 8a bc f5 d0 bc bb 74 95 09 be
       0.010759462 -0.0168554 -0.0057622143 -0.13435918
0002c0 77 af 4e 3e 61 ee f9 bd 46 1d 22 3e 17 e0 7c 3d
       0.20184122 -0.1220367 0.1583148 0.061737146
0002d0 00 ed 48 3e 52 5c 89 bc 15 bf 3e 3e 9b bb 06 be
       0.19621658 -0.016767655 0.1862758 -0.13157503
0002e0 aa 37 1b 3d 55 e9 89 bd 8c a0 04 3d 9c a1 71 3e
       0.037894882 -0.06733958 0.032379672 0.23596805
0002f0 17 e1 aa be 71 81 96 3d 96 1b 28 be d9 52 0b 3e
       -0.33374855 0.07348908 -0.16416773 0.13605823
000300 04 87 1a 3e 26 e8 dc 3d ca 6c 3a 3c 75 e1 87 3e
       0.15090567 0.10786466 0.011378476 0.26539198
000310 50 ef 11 be 28 a8 06 bd d3 65 fb 3d ea 16 49 3e
       -0.14251447 -0.03287521 0.12275281 0.19637647
000320 a6 0f a5 3c 2b 6a 3b be 78 df 34 3d 1d 84 60 be
       0.020149063 -0.18302219 0.04415843 -0.21925397
000330 ce bf bd 3d bd f6 99 3c 0c 00 74 be 27 db 12 bb
       0.092650995 0.018794412 -0.23828143 -0.0022408457
000340 f3 22 61 be 95 08 c3 bd 5f e6 13 3e 5b 06 3c bc
       -0.21985988 -0.09523121 0.14443348 -0.011476125
000350 dd 46 06 3e ee 4e a1 bc 5a b6 b8 bc 34 af 6c bd
       0.1311297 -0.019690957 -0.02254789 -0.057784274
000360 5a f3 3d be 66 53 ae 3d 00 29 2e be 43 86 8d 3e
       -0.18549863 0.08512001 -0.17007828 0.27641496
000370 df e7 33 be 44 1f d6 3d c4 a2 bb 3c 80 67 e6 bc
       -0.1756892 0.10455182 0.022904761 -0.028125525
000380 a2 7f 8d 3d 9b 81 cf 3b 60 02 bc bd 5f 3c b5 3c
       0.0690911 0.006332589 -0.091801405 0.022123514
000390 13 00 b3 bd 8e 05 1f 3e 61 6c e5 bd 9f d0 5a bd
       -0.087402485 0.15529463 -0.11202312 -0.053421613
0003a0 9e 03 83 3d fb 8d 36 be 23 2a bb be 13 3c 3c bd
       0.06397174 -0.17827599 -0.36555585 -0.04595573
0003b0 a7 23 69 3e 8d 33 a0 bd 1d 37 ae bd 2e 52 6c be
       0.22767507 -0.078223325 -0.08506606 -0.23078224
0003c0 f5 86 db 3d 1a 61 37 bd 5f 63 53 3c ff 6e ac 3e
       0.107191004 -0.044770338 0.01290211 0.33678433
0003d0 3d bf db 3c 94 ad b3 3e 77 9c ee 3c 4f 13 0e be
       0.026824588 0.35093367 0.029127343 -0.13874553
0003e0 d7 ef 0e be 53 01 84 be d8 df 47 be d7 22 3b be
       -0.13958679 -0.2578226 -0.19518983 -0.18275009
0003f0 3b d6 88 be 3f 9a 75 3e 71 01 59 be 2e 4b 6b 3e
       -0.26725945 0.23984621 -0.21191956 0.22977898

blocks.0.W_QKV f4 [32, 96]
000000 31 2d 57 bd 98 42 ed 3d 0a 96 89 be e8 62 be bd
       -0.052533332 0.115849674 -0.26872283 -0.092962086
000010 a3 bd 4a bd eb 1a 85 3e 76 f8 8d bd a9 31 bf be
       -0.049497258 0.259971 -0.06932156 -0.37342575
000020 ec 66 91 3e fa 1c 4d be 22 78 82 be e4 3f aa be
       0.28398836 -0.20030585 -0.2548228 -0.3325187
000030 14 f7 f2 3d 4f 06 be be 2b b6 9e be e5 a6 77 3d
       0.11863533 -0.37114188 -0.30998358 0.060461897
000040 99 e3 05 be 80 a4 81 be 01 07 8d be 40 a4 15 be
       -0.13075103 -0.25320816 -0.27544406 -0.14613438
000050 02 39 14 3d f0 a1 6e be 31 74 88 bd 2b 8c 8c 3e
       0.03618718 -0.23303962 -0.06662787 0.2745069
000060 3e c0 51 3c 96 04 fe bd 45 95 45 3c 2d dd 59 3d
       0.012802182 -0.124032184 0.012059514 0.053189445
000070 22 2b 4c bd 1f 58 97 be e5 b7 67 3b eb c9 9a bd
       -0.049845822 -0.2955942 0.0035357412 -0.07558044
000080 ea bd 69 bc 60 a9 7e 3d 0d 43 43 3e b0 30 91 bd
       -0.01426647 0.062173247 0.19068547 -0.070893645
000090 2b d1 16 be 68 2a ee 3d 6c 75 ab bd 2b 43 93 be
       -0.14728229 0.11629182 -0.08372006 -0.28762183
0000a0 8b 32 56 3e 39 3d 8b be 9f 35 9a 3e 6c 31 ed bd
       0.20917718 -0.27195147 0.30119035 -0.11581692
0000b0 88 cb 2b be 6b 2a fa bd 95 90 26 3e e4 ef 46 be
       -0.1677686 -0.12215122 0.16266091 -0.19427449
0000c0 8a 27 91 3d d0 02 2e be bb 9e cc bd 9d 3a 8b be
       0.070876196 -0.1699326 -0.09991213 -0.27193156
0000d0 01 f0 87 be 9c 84 68 be 31 c3 7e 3e 8c dc f0 bd
       -0.26550296 -0.22706836 0.24879147 -0.11760816
0000e0 2b 17 71 3e 68 0e 53 be 3d 94 15 3e 7a b4 10 bc
       0.23543994 -0.20610964 0.1460733 -0.008832091
0000f0 68 c8 78 3e 0a 95 32 3e fb da 04 3e eb 02 84 bd
       0.24295199 0.17439666 0.1297416 -0.06445869
000100 da 5e 43 3e 17 28 ca 3d 5b af a6 3d 96 f7 15 3e
       0.19079152 0.09870928 0.08138915 0.14645228
000110 45 ef a7 bd 5d 06 2b bd ce 9d 04 be fd 97 b5 3c
       -0.08199934 -0.041754115 -0.12950823 0.0221672
000120 ff 55 97 3c 01 8e 8c bd 77 c4 e5 bd b6 78 9c bd
       0.018473623 -0.068630226 -0.11219113 -0.07640211
000130 e8 51 3e 3e 1d c0 0e bd fa 0f 30 3e 65 6b 28 3c
       0.18585932 -0.034851182 0.17193595 0.010279511
000140 32 09 95 3d 44 9f ff 3c 48 27 ab bb ea 5e 01 be
       0.072771445 0.031203873 -0.0052231885 -0.12633863
000150 42 73 0b be ba c1 02 3e a1 fe 5a 3b d2 5e 09 bb
       -0.13618186 0.12769213 0.003341593 -0.0020961058
000160 a9 a9 62 be 75 ad b8 3d 33 bf 21 3d ee ad 89 3b
       -0.22135033 0.09017459 0.039488982 0.0042016422
000170 e1 35 1a be 00 2c 5e be 67 f8 d7 3d d7 29 4d be
       -0.15059616 -0.21696472 0.10545426 -0.20035492
000180 5c 92 b9 bd 64 69 92 3e 9e e2 52 bd 24 87 2f bd
       -0.09061119 0.28596032 -0.05148565 -0.04285349
000190 ad e9 83 3c 17 0b 48 3e da 9f ab 3c 3b 1c 6e 3e
       0.016102636 0.1953548 0.020950247 0.23252957
0001a0 93 ca 79 3e 71 53 d0 3d d1 56 77 3d f9 11 b5 be
       0.24393682 0.10172165 0.06038553 -0.35365275
0001b0 cd 1f f3 bd 5c a5 92 3d 51 60 21 3d 18 40 08 be
       -0.118713 0.07160446 0.039398495 -0.133057
0001c0 1a 5a 9c 3d 41 33 ed be 32 8f 3a bd e4 de c6 bc
       0.07634373 -0.46328166 -0.045546718 -0.024276204
0001d0 ad ac 21 3c 1b 32 8c be fa b6 d3 3d 11 69 11 3e
       0.009867829 -0.27381977 0.103376344 0.14200236
0001e0 9c 82 bc bc 70 2e d5 be 9c dc 2b be 49 d8 22 3d
       -0.023011498 -0.41636992 -0.16783375 0.039757047
0001f0 76 11 67 be a7 82 3b be f1 77 59 bd d9 ae 89 3d
       -0.22565255 -0.18311559 -0.0530929 0.06722803
000200 00 d7 3a 3e e4 c4 01 3e 48 1b 7a bb e7 3d b7 be
       0.18246078 0.12672764 -0.0038163234 -0.35789415
000210 02 05 09 be 9f 7c 3e bb c2 d0 13 be 46 92 04 3e
       -0.13380817 -0.002906598 -0.14435104 0.12946424
000220 a7 6a df 3d 3e ee 7d 3e f9 23 cb be 3c 4b 7c be
       0.10909014 0.24797913 -0.39675882 -0.24638075
000230 3c f6 3d 3e 25 b0 94 3c 02 92 8e be 8c d9 99 3e
       0.18550962 0.018150399 -0.2784577 0.30048788
000240 3c c0 27 3d 1a 72 66 3e 5b 69 79 3e 0f 62 2b bd
       0.040954813 0.22504464 0.24356596 -0.041841563
000250 e6 cd 8c be 4a 84 59 3d 4c d9 6a 3e 9a 74 7f 3d
       -0.27500838 0.053104676 0.22934455 0.06236706
000260 74 e9 b7 be 3d d9 87 3e 7e 45 6b bd af 7b d5 3d
       -0.35920298 0.26532927 -0.05743932 0.104239814
000270 6a 72 7b 3a 06 84 1e bd 37 56 0e 3d 01 4f 63 be
       0.0009591939 -0.038700126 0.03475019 -0.22198106
000280 a8 37 90 bd f5 8a 6a be 6c f7 59 be a7 61 82 be
       -0.070418656 -0.2290457 -0.2128579 -0.25465128
000290 8a 66 50 3e 10 40 d8 bd a6 9a 5b be ba a4 38 be
       0.20351616 -0.10559094 -0.21445712 -0.18031588
0002a0 8b 9f 05 3e 83 c8 b8 3b 0f 4f 3f bd 89 a5 45 be
       0.13049142 0.0056391372 -0.046706256 -0.19301428
0002b0 b9 11 8f bd 39 59 92 3e cb d1 09 3e 8b d6 9b 3d
       -0.06985802 0.28583696 0.13458936 0.0760928
0002c0 d3 b1 27 3e 64 79 a1 be de 6a 25 3d d8 3d 8e 3d
       0.16376428 -0.31537926 0.04038512 0.069453895
0002d0 ee cd 93 bd 9e d0 ad 3d 35 55 38 bd ab 9c d5 3e
       -0.07217012 0.08487056 -0.045003135 0.4172109
0002e0 c7 05 1c bd be 9a 9f 3c c6 1a 78 bd 2c 58 3e 3e
       -0.038091447 0.019482967 -0.06057241 0.18588322
0002f0 ec ae ff bc 0e ec 8d be fb b7 38 3e 8d bc c3 bd
       -0.031211339 -0.27719158 0.18038933 -0.095574476
000300 f7 ab 44 be a7 05 b2 be 81 d2 b3 3d 8e ce 37 be
       -0.19206224 -0.34769937 0.08780385 -0.17949888
000310 39 2e a4 3d b7 36 ad ba c9 ef 96 bd f6 78 39 bd
       0.08016629 -0.0013215159 -0.07369954 -0.045281373
000320 ca 12 cf 3c 67 45 6b 3e d6 a9 d6 bd c0 b7 64 be
       0.025277514 0.22975694 -0.104816124 -0.2233572
000330 58 ee 6f bc 46 58 5e 3d 57 a2 76 be df 44 11 be
       -0.014644228 0.054283403 -0.24085365 -0.14186428
000340 0d b8 3e 3e a6 6f b0 bc 00 cc 64 3c 57 b4 f7 bd
       0.18624897 -0.021537613 0.013964653 -0.12094944
000350 e6 4e 0a be eb e1 97 be 92 56 36 3e 65 29 0f bd
       -0.1350666 -0.2966455 0.17806461 -0.034951586
000360 28 1c e5 3d c4 fb 55 3e 28 77 03 3e 69 c2 25 3e
       0.11187011 0.20896822 0.12838423 0.16187443
000370 f8 02 13 3e a5 b4 41 3e ca 51 8a 3d 3f a2 e3 3d
       0.14356601 0.18916567 0.06753881 0.1111493
000380 ca 7a 2c 3e 16 d1 15 be ca 17 1e 3e dd 6a 0e bd
       0.16843715 -0.14630541 0.15438762 -0.03476988
000390 40 64 84 3d 6a 5c c8 bd 1f 9a c4 3d 00 20 94 bd
       0.06464434 -0.097832516 0.09599709 -0.07232666
0003a0 ad fd 61 bd b2 8c bd bd 9a c8 91 be 8f 8d d1 bd
       -0.055173565 -0.09255351 -0.2847336 -0.10232078
0003b0 13 de 25 3e 67 ee ab 3d 67 cc ea bd b5 22 03 3e
       0.16197996 0.08395081 -0.11464768 0.12806208
0003c0 d0 a0 01 bd 17 05 b5 bd 38 ee e5 bd f5 42 8c 3e
       -0.031647503 -0.088388614 -0.11227077 0.27394834
0003d0 45 f2 bd 3d 13 30 e5 bd 3c 16 a4 bc 8b 8e 67 be
       0.09274725 -0.1119081 -0.020030133 -0.2261297
0003e0 a7 0f 65 bd 2d 39 33 3e 40 a1 cb be fb 5d ae bd
       -0.05592313 0.1750228 -0.3977146 -0.08514019
0003f0 72 48 0d be 80 d2 92 3e 34 bd 7c be de 2d 36 3e
       -0.13797167 0.28676224 -0.2468155 0.17790934

blocks.0.mha.in_proj_weight f4 [96, 32]
000000 67 65 36 3e c7 6a 95 bd cf 1a f7 bd 2f 19 3f be
       0.1781212 -0.07295757 -0.1206566 -0.1866195
000010 a1 a5 f2 bd 39 98 21 3e 90 c0 25 3e a5 54 dc bb
       -0.118479975 0.15780725 0.16186738 -0.0067239576
000020 98 95 a4 bd 78 05 43 3d 9b 1d 71 3d 24 19 4b 3e
       -0.08036345 0.047612637 0.058866125 0.19833809
000030 10 83 8a 3e 1c 58 d7 bc 80 23 34 bd f8 d1 e4 3e
       0.27053118 -0.026287131 -0.043979168 0.44691443
000040 0e f8 2e bc 56 24 e7 3d 63 0b 1e be 6d 27 a7 bc
       -0.010679258 0.112862274 -0.15434031 -0.020404542
000050 4c 98 7b bd 39 36 d5 bb cc e9 02 be f1 78 1d be
       -0.06142454 -0.006506708 -0.12784499 -0.15378167
000060 ca 39 dd bd 13 ee e8 bd db 28 6d be 56 a0 01 be
       -0.10802038 -0.11373534 -0.23160116 -0.1265882
000070 fc 8e 4b 3c 86 ee de 3d c0 c4 8d 3e 47 99 6d 3d
       0.012424227 0.108853385 0.2768917 0.058007505
000080 dc 63 2f be 67 81 5d be 3f 1d d2 3d 84 ab 97 3d
       -0.17127937 -0.21631394 0.102594845 0.07405761
000090 9f 2f 61 be 46 34 d4 bd 1b c3 48 3e 29 01 7c bd
       -0.21990822 -0.10361533 0.19605677 -0.061524544
0000a0 c8 d8 35 be 94 97 75 3e 20 de 17 3e 7b d7 43 3e
       -0.17758477 0.23983604 0.14830828 0.19125168
0000b0 ed d4 62 be 52 57 44 3c 96 7c 12 be 9f 58 54 3e
       -0.22151537 0.011983709 -0.14305338 0.20736931
0000c0 57 43 f9 bc bf 70 67 3e bd 6d 0e 3e 23 ff 81 3d
       -0.030427618 0.22601603 0.1390905 0.063474916
0000d0 8c 84 b6 3c 12 c9 6e 3d 26 1d a7 bd 43 e7 8e be
       0.02228 0.058297224 -0.081598565 -0.27910814
0000e0 40 34 72 bd df 51 86 3e 34 3f a2 bd 6f 41 5e 3d
       -0.05913186 0.26234338 -0.07922211 0.05426162
0000f0 9c f6 8d bd 36 ab 97 3e 3a 15 c0 3d cd 25 09 3e
       -0.06931803 0.2962281 0.09379049 0.13393326
000100 9c 6a df bd b3 c1 3b be df d3 0b 3d 36 57 0d be
       -0.10909006 -0.18335609 0.034137603 -0.138028
000110 a8 01 2e 3e c3 90 26 be 30 af 92 bc 78 c6 1d 3e
       0.1699282 -0.1626616 -0.017905802 0.15407741
000120 10 21 4b 3c 5b 5f c2 3b 65 85 7e be 05 bb f5 3d
       0.012398019 0.0059317774 -0.24855573 0.11998562
000130 4d 54 ec bd c1 b5 3f be c6 b9 2f 3e a2 c7 fe bd
       -0.115395166 -0.18721677 0.1716071 -0.12440421
000140 1e ae 3a bc 20 d5 8e 3e 9b e3 df bd 9a 1e ba bd
       -0.011394052 0.27896976 -0.10932084 -0.09087868
000150 4a 84 de 3b c4 07 e9 3c dd ae bf bd f8 95 e5 bd
       0.0067906724 0.028446086 -0.093595244 -0.11210245
000160 d8 85 2b 3d 7a 76 c5 3d 52 7b 72 be 4c 90 bd bd
       0.04187569 0.09641738 -0.23679855 -0.09256038
000170 73 a2 90 3d 0f b2 08 3e 52 86 87 be 03 97 91 3e
       0.07062235 0.13349174 -0.26469666 0.28435525
000180 05 58 14 3e 65 7b 02 bd c7 38 65 bd 96 92 1c bd
       0.14486702 -0.03185596 -0.05596235 -0.038225733
000190 d8 14 43 3d 88 25 b1 3c dc fa 3e be e2 5c e5 3d
       0.0476273 0.021624342 -0.18650383 0.111993566
0001a0 75 6e f9 3d 65 f1 dc 3d 6f 3d 2e 3e a8 d9 cb 3d
       0.12179271 0.1078823 0.17015623 0.09953624
0001b0 0c 9a 42 be f1 ff 0f 3d 83 e4 27 be ce 5c 78 3d
       -0.19004077 0.035156194 -0.16395764 0.06063538
0001c0 b2 bd 09 be b2 de 9a bd 50 35 14 3d ee 3f a5 bc
       -0.1345127 -0.07562007 0.036183655 -0.020172086
0001d0 d8 22 92 bd 1a 62 03 bd 82 27 4e 3e e1 53 30 3e
       -0.07135552 -0.03207598 0.20132259 0.17219497
0001e0 a3 ed 89 3d dc d4 a5 3d 0b 8c 98 3e 75 4f 93 bd
       0.06734779 0.0809724 0.29794344 -0.071928896
0001f0 32 92 b9 3d 9d 91 78 3c 3d 72 8c 3c dd 01 44 be
       0.09061088 0.015171436 0.017144317 -0.19141336
000200 c5 8d 22 3e cd 77 ee bd 7d af d1 bc b2 f4 33 be
       0.15874393 -0.11643944 -0.025596375 -0.17573813
000210 e7 2e 99 3e 3a 09 21 3e bc 2a 35 bd 50 c9 ed 3d
       0.29918596 0.15726176 -0.044230208 0.11610663
000220 8e 5e 3e 3e 61 c1 23 be 7e 16 f2 bd 85 e5 72 bd
       0.18590757 -0.15991737 -0.11820696 -0.059300918
000230 c1 4e f0 bd c9 f0 1a bd 9e f5 40 3d c6 e0 bd bd
       -0.11733771 -0.037827287 0.04710924 -0.09271388
000240 ea d4 cf bd bc 87 20 3d 9f 8d cf bc 22 af 6b 3e
       -0.10148032 0.039191946 -0.025336085 0.23016027
000250 79 b0 60 be eb 31 6d be 14 5b c2 3d 53 c6 88 3d
       -0.21942319 -0.23163573 0.09490028 0.06678452
000260 20 e6 94 3d 47 c0 37 3e 13 d8 97 3e a9 18 44 3c
       0.07270455 0.17944442 0.2965704 0.01196877
000270 65 66 03 3e fa 1e ee 3d ec bc f2 bd 17 2a db 3d
       0.12832029 0.11627002 -0.1185244 0.107013874
000280 09 63 03 3e 65 f2 4d bd 15 77 2f 3e d2 2f 23 bc
       0.12830748 -0.050279994 0.1713527 -0.009960132
000290 11 69 0a be f4 e7 84 3d e3 84 59 3d 4d 8b be bc
       -0.13516642 0.06489554 0.053105246 -0.023259783
0002a0 e0 ae bb 3d 36 c0 1a be 05 a5 5c 3e 40 c3 5d 3e
       0.09164214 -0.15112385 0.21547325 0.21656513
0002b0 98 0e eb 3d 5e 6b 37 be b0 59 1e 3e b7 69 aa 3d
       0.11477393 -0.17912051 0.154639 0.08320945
0002c0 7c a7 72 bd 51 b5 02 3e 3c f2 14 3e 85 e4 3c be
       -0.059241757 0.12764479 0.1454553 -0.18446548
0002d0 7b 67 86 bc 28 d9 9e 3b ec 75 91 3d e8 a0 21 3e
       -0.016406765 0.0048476644 0.0710257 0.15784037
0002e0 dd 68 13 be d5 d1 44 3d 75 51 20 3e bf 1d 5a be
       -0.14395471 0.048051674 0.15656073 -0.2130041
0002f0 f1 87 d4 3e 7d 33 47 bb 66 7a 9a bd 9c f7 81 bb
       0.41509965 -0.003039568 -0.07542877 -0.003966285
000300 f4 f1 4e bd 1f c3 e1 bd a6 04 4a bd 87 ee 39 be
       -0.050523713 -0.110235445 -0.04932084 -0.18157397
000310 6d 21 ad bd 88 7e d9 3d 45 3c 6a be 72 68 96 3d
       -0.08453641 0.10619837 -0.22874554 0.0734414
000320 e7 9a 94 bd 8f 5d cc 3d 00 d2 c2 3d bf de df bd
       -0.07256108 0.099787824 0.095127106 -0.10931157
000330 e7 cd b2 3d 50 96 f5 bb 27 21 09 be 7e e4 20 be
       0.08730679 -0.0074947253 -0.13391553 -0.15712163
000340 3e a0 25 3e ee 53 74 3e 98 98 3b bd 98 89 09 3e
       0.16174409 0.23860142 -0.04579982 0.13431394
000350 11 2c 65 3d 44 a8 34 be b4 c2 f0 ba 39 3f 14 3e
       0.055950228 -0.17642313 -0.0018368573 0.14477243
000360 fd 99 b3 bd a0 15 0e 3b a1 f2 02 3d 65 65 3e 3e
       -0.08769605 0.002168037 0.03196967 0.18593366
000370 1c 3a aa 3e 8f c3 cb 3d 62 f3 d4 bc ee c6 dd 3d
       0.3324746 0.09949409 -0.02599496 0.108289585
000380 ad f3 e8 bd 54 dd 77 bb 41 cd 6d bc d1 48 46 be
       -0.113746025 -0.003782113 -0.014514268 -0.19363715
000390 63 01 c8 bd 75 26 64 3e e9 0a be 3d 76 6d 8c be
       -0.097658895 0.22280295 0.09279425 -0.27427262
0003a0 51 d9 0f bc cc 3b c0 3d cd a8 e6 3d 1e 46 02 3e
       -0.00877984 0.09386405 0.11262665 0.1272206
0003b0 c9 0d 84 3d 90 00 f8 3d a7 fa 18 3e e3 f9 a4 3c
       0.06447942 0.12109482 0.14939366 0.020138687
0003c0 55 c8 a8 bd a8 10 6c bd ca 30 cc bd 75 72 43 3d
       -0.08241335 -0.057633072 -0.09970243 0.047716577
0003d0 10 28 3e be 1d 96 22 3e ed 7d 16 3d ec 96 93 3d
       -0.1856997 0.15877576 0.036741186 0.072065204
0003e0 9a b8 46 be e0 13 d9 3c 3b 65 07 3e ae 9a 51 be
       -0.19406357 0.026498735 0.1322221 -0.20469162
0003f0 eb 8a 10 bd 10 d2 5c bd c1 d2 01 3e df af 35 3e
       -0.035288732 -0.05391127 0.12678052 0.17742871

blocks.0.mha.in_proj_bias f4 [96]
000000 83 7e 75 bd cb c5 6b 3d 4d 75 b9 bd d1 9f 45 bd
       -0.059935104 0.057561677 -0.090555765 -0.048248116
000010 9c c9 fa bc 1b 51 09 3e 31 5c 34 3e c7 77 3d be
       -0.030613713 0.13409846 0.17613293 -0.18502723
000020 25 ee 12 3e 0f a9 7e be a5 53 9a 3e 6c d0 a2 3e
       0.14348657 -0.24869178 0.3014194 0.31799638
000030 13 06 ce 3e 4f 7e a9 bd 2d 7b 98 3d 2f ef c8 be
       0.4023901 -0.082760446 0.07445369 -0.39244983
000040 c7 b9 63 be c2 47 63 3e 26 08 6a be d8 4b 23 3e
       -0.22238837 0.22195342 -0.22854671 0.15946901
000050 22 a8 34 3e 2d fb 2f be ab 26 c3 3e 5c 2a 65 be
       0.17642263 -0.1718566 0.3811544 -0.2237944
000060 2e 0c d9 3e 27 bf 25 bc 34 4d 3c 3c 03 6f 38 3e
       0.42392105 -0.010116375 0.011493016 0.18011098
000070 fa 95 0e 3d 17 0d 3c bc aa df 49 3c 7b 55 a7 3c
       0.034810998 -0.01147773 0.012321392 0.020426502
000080 08 20 2a 39 29 68 ad 39 a1 77 62 b9 a6 3d ba 38
       0.00016224396 0.00033074737 -0.00021597605 8.880654e-05
000090 84 78 04 b8 58 99 5c b8 1a da 83 b8 40 cf 0f b8
       -3.158349e-05 -5.25949e-05 -6.287191e-05 -3.4286873e-05
0000a0 da 2b 9e b8 59 27 17 39 65 64 e5 37 25 36 3b b7
       -7.542195e-05 0.0001441514 2.7345677e-05 -1.1158675e-05
0000b0 f2 b0 e9 b8 bf 16 78 b8 bb 58 e4 b7 47 9e e7 b8
       -0.000111432644 -5.914899e-05 -2.7221036e-05 -0.0001104442
0000c0 e3 12 22 ba 9d 29 e3 b8 07 4b 0b ba c9 5e 90 3a
       -0.0006182624 -0.000108319546 -0.0005313609 0.0011014576
0000d0 c5 5f 9c 37 45 ba a9 b7 f0 ee 3d b8 a3 ba 0a 38
       1.8641245e-05 -2.0233108e-05 -4.528364e-05 3.3075583e-05
0000e0 38 88 b2 38 00 49 29 38 ae b8 a4 b7 7c 06 c0 b7
       8.513074e-05 4.0360726e-05 -1.9636322e-05 -2.2891203e-05
0000f0 d9 04 09 ba 3c 6e 0b ba 7e e1 0c ba bf 88 da 39
       -0.00052268576 -0.00053188554 -0.0005374177 0.00041682084
000100 4a 5b 05 3e c0 eb aa 3d 77 4b 61 3c fb 6d 16 bc
       0.13023105 0.08345747 0.013750902 -0.009181495
000110 37 ca a4 3d 71 13 06 3e 22 3c d8 3b 30 ac a3 bc
       0.08046382 0.13093354 0.0065989653 -0.019979566
000120 26 17 9d 3d 26 24 6a be a2 a0 5d 3d 76 d8 70 3d
       0.07670431 -0.22865352 0.05410827 0.058800183
000130 2e 17 a9 bd 93 3c 27 3d 54 f4 43 bd 5d 74 db 3d
       -0.08256374 0.040829252 -0.04784043 0.10715554
000140 6e 1d 29 3e c4 c6 80 be c2 08 e2 bd be 32 02 3e
       0.16515133 -0.25151646 -0.11036827 0.12714669
000150 35 c0 c7 3c b0 fe 8f bd 0c 9c 74 bd 4e 25 99 3b
       0.024383644 -0.07031 -0.05971913 0.0046736365
000160 8e 9c 0e be 34 08 fb bd 49 1e 07 be 08 e6 aa 3d
       -0.13926908 -0.12257424 -0.13195147 0.08344656
000170 fa e4 4b 3e 47 10 f8 3c a5 6c 4a 3d 8c 80 18 be
       0.19911566 0.0302812 0.049420018 -0.14892787

blocks.0.mha.out_proj.weight f4 [32, 32]
000000 fa d0 1e 3e ec 60 18 3e e2 a2 07 3d 1f 11 05 3e
       0.15509406 0.14880723 0.03311432 0.12994812
000010 2c f5 69 3b 82 56 2e 3e 9a d7 87 be 6b 6b 0d 3d
       0.0035699112 0.17025188 -0.26531678 0.03452627
000020 d9 15 8d 3d a6 cc ca bd 5f 70 d9 3d 2d b8 7e 3d
       0.06888933 -0.09902315 0.10617136 0.062187362
000030 b4 78 3d 3d 15 0b 35 3e 3b a7 b7 bd 7d 15 10 bc
       0.04625769 0.17680009 -0.089674436 -0.008794186
000040 8b f3 b4 bc 40 10 49 3e 9d 59 c2 3d e4 54 f4 bd
       -0.022088787 0.19635105 0.094897486 -0.11930254
000050 7f 46 64 3d d3 16 7f bc 49 b9 db bd 0f 32 82 3d
       0.055731293 -0.015569407 -0.107287 0.06357204
000060 66 48 62 be da b1 0e be 9b 00 99 be 1c 32 02 3e
       -0.2209793 -0.13935032 -0.29883274 0.12714428
000070 e2 73 5d 3c d7 4a 0f be 3c ba db 3d 4b 69 19 be
       0.013516398 -0.13993393 0.10728881 -0.14981572
000080 f5 d8 3c 3e 9b d5 d9 3c d7 e4 eb bd 43 65 db 3d
       0.18442138 0.026591113 -0.11518257 0.107126735
000090 b2 83 51 3d 6c 64 91 3d 57 6b 37 3c a1 af 9c bd
       0.051150985 0.07099232 0.011195025 -0.07650686
0000a0 4b 83 80 3d 89 d3 67 bd 9f 60 47 3e 1d 15 a7 3d
       0.06275042 -0.05659822 0.19470452 0.08158324
0000b0 53 24 71 3e e1 14 2b be e8 c8 02 3e 14 0b 90 3d
       0.23549013 -0.16707183 0.12771952 0.07033363
0000c0 d9 b8 0b 3e a3 c7 1a be f9 55 f4 bd 2b fc b1 bd
       0.13644733 -0.15115218 -0.119304605 -0.08690675
0000d0 f8 fc 5b be 56 5f 33 3e 85 f4 21 3e c3 85 16 3e
       -0.21483219 0.17516837 0.15815933 0.14699464
0000e0 49 3b d3 bd 90 76 2f be 32 f0 b5 3e b9 d3 f5 bd
       -0.10314042 -0.17135072 0.35534817 -0.120032735
0000f0 8c f2 6c 3d 77 ae f8 bd b2 a3 08 3d e4 28 a1 bd
       0.0578485 -0.121426515 0.033359237 -0.078691274
000100 e7 a9 11 3d e4 1e cb bd 20 bd 2e 3e 38 bd dd bd
       0.035562422 -0.09918001 0.17064333 -0.10827106
000110 c3 3f c2 bb 36 c7 83 be 90 19 78 3e f4 de 79 3d
       -0.005928011 -0.25737923 0.24228501 0.06100364
000120 44 01 c7 3e b0 9d 04 bf d9 8b 3a 3d e3 6a b8 bd
       0.38868153 -0.5180311 0.045543525 -0.09004762
000130 58 3f 89 bd a5 e7 41 3e 10 41 96 3d fa 3e df 3e
       -0.06701535 0.18936022 0.073366284 0.43602735
000140 e8 09 72 bd 04 8e ed bd 45 a2 38 3e e8 3c 84 be
       -0.05909148 -0.11599353 0.18030651 -0.25827718
000150 39 70 82 3d 15 d3 8b 3d 60 66 97 3e a5 43 4a be
       0.06369061 0.0682737 0.29570293 -0.19752367
000160 39 33 55 be 67 07 a0 be 1b 94 8e be 94 be 00 bd
       -0.20820321 -0.31255648 -0.2784737 -0.03143175
000170 fa 98 80 3c 14 64 09 3d 3e cb 10 bc dd 7d 0d 3c
       0.015697945 0.033542708 -0.008837519 0.008635965
000180 ac 9e 86 3d 4f 58 06 3c 71 22 ab bd 38 0a e4 bd
       0.06573233 0.008199765 -0.083561786 -0.111347616
000190 bf 12 9a be 62 da 89 3d b3 ec e5 bd 11 de 0f be
       -0.30092427 0.06731106 -0.112267874 -0.14049555
0001a0 3f a0 dd bc e4 43 fd bd 15 ee 69 be ff 7d 41 bd
       -0.02705395 -0.12366465 -0.22844727 -0.0472393
0001b0 0f 65 d5 bd b7 77 03 be 67 c0 8e 3e 75 7b 35 3d
       -0.10419666 -0.12838636 0.27881166 0.04430719
0001c0 ad 3a ba 3b 5b 34 1c be 96 e9 dc 39 ec f2 07 bd
       0.005683264 -0.15254347 0.00042135705 -0.033190653
0001d0 40 8e 0b 3e 09 2e 27 be 0d 37 7d bb ac 83 a9 3c
       0.13628483 -0.16326155 -0.003863755 0.020692669
0001e0 b9 8d 8a 3c 0d 75 f7 3d 04 62 ec 3b 25 c0 1a 3e
       0.016913282 0.120828725 0.007213833 0.1511236
0001f0 02 25 f8 bd d8 06 d2 bd 4a 60 7e bd 8d 42 a6 bd
       -0.12116434 -0.102552116 -0.062103547 -0.08118162
000200 90 21 08 3d 75 7e 0f 3d 64 75 be 3d 28 b0 e3 3d
       0.033235133 0.03503271 0.09299734 0.111175835
000210 2a 05 8d bd 7c 56 5b 3e 51 ee f9 3c 7c 0c d7 bb
       -0.068857506 0.2141971 0.030509146 -0.0065627676
000220 1b 9e a9 bd ca 6b 30 be f7 4b 13 bd ba 3c e8 ba
       -0.08282109 -0.17228618 -0.035961118 -0.0017718293
000230 33 e1 44 be 3b 3d 42 be f8 ea 38 bd 85 1b 99 be
       -0.19226532 -0.1896867 -0.04514596 -0.29903808
000240 a1 af 4c 3d 48 17 a2 3d 2c 70 f2 3d 93 e8 d4 3d
       0.04997218 0.07914597 0.11837801 0.103959225
000250 07 e5 03 3e 1f 29 1e be 4b a7 9b 3c d6 41 02 be
       0.12880336 -0.15445374 0.01900067 -0.12720427
000260 fb bd ae bd 6b 64 9c ba 65 21 04 3e f6 5e e1 bd
       -0.0853233 -0.0011931782 0.12903364 -0.110044405
000270 49 d1 fd 3c b3 0f 91 3d 96 92 20 3b a5 07 e4 bd
       0.030983584 0.070830725 0.0024501435 -0.111342706
000280 8c 4a 9a 3d c4 e1 80 3d 19 c3 6c 3d 96 64 2a be
       0.0753375 0.062930614 0.057803247 -0.16639933
000290 e2 e8 ac bd 0e 39 c3 bc dc 0b e4 3d 63 c7 10 3e
       -0.08442856 -0.023830917 0.111350745 0.1413856
0002a0 8a d0 90 3c cb b0 5b be b5 34 36 3e de 43 a1 bd
       0.017677564 -0.2145416 0.17793544 -0.07874273
0002b0 be 0d b0 3d da 40 d8 bd 8f 9b 5c bd d0 f4 56 3c
       0.08596371 -0.105592445 -0.05385929 0.013119891
0002c0 23 49 1f be bd 55 04 3e 80 25 ba 3d 22 72 73 be
       -0.15555243 0.12923332 0.09089184 -0.23774007
0002d0 a2 0b f8 3b d6 0a a3 3c d5 00 57 3d ab 0e 3c be
       0.007569746 0.019902628 0.052491028 -0.1836497
0002e0 7f fa a1 3e 6d 31 4f bd fd 19 30 3c ec 81 c2 bd
       0.31636426 -0.050584245 0.010748384 -0.09497437
0002f0 c6 33 0f be 77 55 38 bd 64 b1 84 bd 10 a1 52 3d
       -0.13984594 -0.04500338 -0.06479147 0.051423132
000300 f7 35 f0 3c f1 a1 00 3e 6e 96 a4 bb 94 a1 bb 3c
       0.029322607 0.12561776 -0.0050228154 0.022904195
000310 64 ea e0 3d e6 2c 34 3d e1 d7 88 bd 69 d0 30 bd
       0.109822065 0.04398813 -0.06681801 -0.043167505
000320 0a 58 1b be f0 93 23 3c 89 f1 2a 3e ea c7 46 bd
       -0.15170303 0.0099840015 0.16693701 -0.048530497
000330 0c d5 1a bd 64 a9 44 be 4a a2 13 be 86 90 1d bb
       -0.037800834 -0.19205242 -0.14417377 -0.0024042442
000340 db 5a 09 be 5d 0e a9 3d 18 a0 b7 3d 2d 3d 86 bd
       -0.13413565 0.08254693 0.08966082 -0.06554637
000350 e5 8e 8f be 9a a4 2f be 89 77 e9 bc 9e 6c 71 3e
       -0.28038707 -0.17152634 -0.028499382 0.2357659
000360 c0 7e be 3c f1 ba 2c be 12 6b b0 3d fe ba 40 be
       0.023253798 -0.16868187 0.08614172 -0.18821332
000370 67 5d e8 ba 27 0f 71 3e 46 60 19 3d 36 c3 39 be
       -0.0017728031 0.23540936 0.03744533 -0.18140873
000380 d4 66 0d bd dc aa 1a 3e d1 00 ba 3d ea 45 62 3d
       -0.034521893 0.1510424 0.09082187 0.055242456
000390 30 3f 61 be 8f 69 2a be 7d 5d bc bd 22 19 05 3e
       -0.2199676 -0.1664183 -0.09197519 0.12997869
0003a0 a7 f4 58 3d 9b d3 a5 3d 2b ca 33 3c 30 4f 01 3e
       0.052967694 0.08097001 0.010973494 0.12627864
0003b0 7a 02 0c bd 19 62 fe bd 72 45 f6 bc de bf 4e be
       -0.03418205 -0.124210544 -0.030062411 -0.20190379
0003c0 66 c5 bc 3c ba ee 13 bc 93 fd 33 3d c9 25 20 be
       0.023043346 -0.009029085 0.043943 -0.15639414
0003d0 34 0e c8 bd 80 74 2f be 88 96 17 be c0 57 8a 3d
       -0.09768334 -0.17134285 -0.14803517 0.06755018
0003e0 70 f2 a4 bd c2 98 90 bd 83 a2 3e be 2d cc ce bd
       -0.08054054 -0.07060386 -0.18616681 -0.10097537
0003f0 54 48 be 3c c9 9a 73 3d 1d d5 17 bd b3 f5 87 be
       0.023227848 0.059473787 -0.037068475 -0.2655464

blocks.0.mha.out_proj.bias f4 [32]
000000 b2 12 8d 3d 84 86 11 bc 10 30 bd 3d 01 fa c9 3d
       0.068883315 -0.008882169 0.09237683 0.098621376
000010 ed aa 2c bd 02 10 a7 3b 02 41 a6 3d 4e c8 ff 3c
       -0.042155195 0.005098344 0.08117868 0.031223442
000020 a6 2c 37 bd 3a a2 d4 bc 5a 41 cd bd 76 2f b5 bd
       -0.044720314 -0.025956262 -0.100222304 -0.08846943
000030 fb 00 bc 3d 6c 59 26 be 40 5c f7 bd 8d be 24 be
       0.091798745 -0.16245049 -0.12078142 -0.16088314
000040 da 12 a3 3d c9 1f 88 bd 55 4d 22 ba 26 4b 45 3e
       0.0796258 -0.066466875 -0.0006191333 0.19266948
000050 24 a9 d7 3c 0c 15 07 3d 3c 19 9c bc 6c 17 70 bc
       0.02632577 0.032979056 -0.019055001 -0.014654022
000060 9c 41 f6 3d e1 3e bc 3c 98 4f 30 bd 2c 46 85 3c
       0.12024233 0.022979202 -0.043044657 0.016268812
000070 be 57 bd bb 4e df 2f be 32 5f c3 3d d9 5d a5 bd
       -0.005778282 -0.17175028 0.095396414 -0.08074541

blocks.0.ln.weight f4 [90, 32]
000000 00 00 80 3f 00 00 80 3f 00 00 80 3f 00 00 80 3f
       1.0 1.0 1.0 1.0
000010 00 00 80 3f 00 00 80 3f 00 00 80 3f 00 00 80 3f
       1.0 1.0 1.0 1.0
000020 00 00 80 3f 00 00 80 3f 00 00 80 3f 00 00 80 3f
       1.0 1.0 1.0 1.0
000030 00 00 80 3f 00 00 80 3f 00 00 80 3f 00 00 80 3f
       1.0 1.0 1.0 1.0
000040 00 00 80 3f 00 00 80 3f 00 00 80 3f 00 00 80 3f
       1.0 1.0 1.0 1.0
000050 00 00 80 3f 00 00 80 3f 00 00 80 3f 00 00 80 3f
       1.0 1.0 1.0 1.0
000060 00 00 80 3f 00 00 80 3f 00 00 80 3f 00 00 80 3f
       1.0 1.0 1.0 1.0
000070 00 00 80 3f 00 00 80 3f 00 00 80 3f 00 00 80 3f
       1.0 1.0 1.0 1.0
000080 00 00 80 3f 00 00 80 3f 00 00 80 3f 00 00 80 3f
       1.0 1.0 1.0 1.0
000090 00 00 80 3f 00 00 80 3f 00 00 80 3f 00 00 80 3f
       1.0 1.0 1.0 1.0
0000a0 00 00 80 3f 00 00 80 3f 00 00 80 3f 00 00 80 3f
       1.0 1.0 1.0 1.0
0000b0 00 00 80 3f 00 00 80 3f 00 00 80 3f 00 00 80 3f
       1.0 1.0 1.0 1.0
0000c0 00 00 80 3f 00 00 80 3f 00 00 80 3f 00 00 80 3f
       1.0 1.0 1.0 1.0
0000d0 00 00 80 3f 00 00 80 3f 00 00 80 3f 00 00 80 3f
       1.0 1.0 1.0 1.0
0000e0 00 00 80 3f 00 00 80 3f 00 00 80 3f 00 00 80 3f
       1.0 1.0 1.0 1.0
0000f0 00 00 80 3f 00 00 80 3f 00 00 80 3f 00 00 80 3f
       1.0 1.0 1.0 1.0
000100 00 00 80 3f 00 00 80 3f 00 00 80 3f 00 00 80 3f
       1.0 1.0 1.0 1.0
000110 00 00 80 3f 00 00 80 3f 00 00 80 3f 00 00 80 3f
       1.0 1.0 1.0 1.0
000120 00 00 80 3f 00 00 80 3f 00 00 80 3f 00 00 80 3f
       1.0 1.0 1.0 1.0
000130 00 00 80 3f 00 00 80 3f 00 00 80 3f 00 00 80 3f
       1.0 1.0 1.0 1.0
000140 00 00 80 3f 00 00 80 3f 00 00 80 3f 00 00 80 3f
       1.0 1.0 1.0 1.0
000150 00 00 80 3f 00 00 80 3f 00 00 80 3f 00 00 80 3f
       1.0 1.0 1.0 1.0
000160 00 00 80 3f 00 00 80 3f 00 00 80 3f 00 00 80 3f
       1.0 1.0 1.0 1.0
000170 00 00 80 3f 00 00 80 3f 00 00 80 3f 00 00 80 3f
       1.0 1.0 1.0 1.0
000180 00 00 80 3f 00 00 80 3f 00 00 80 3f 00 00 80 3f
       1.0 1.0 1.0 1.0
000190 00 00 80 3f 00 00 80 3f 00 00 80 3f 00 00 80 3f
       1.0 1.0 1.0 1.0
0001a0 00 00 80 3f 00 00 80 3f 00 00 80 3f 00 00 80 3f
       1.0 1.0 1.0 1.0
0001b0 00 00 80 3f 00 00 80 3f 00 00 80 3f 00 00 80 3f
       1.0 1.0 1.0 1.0
0001c0 00 00 80 3f 00 00 80 3f 00 00 80 3f 00 00 80 3f
       1.0 1.0 1.0 1.0
0001d0 00 00 80 3f 00 00 80 3f 00 00 80 3f 00 00 80 3f
       1.0 1.0 1.0 1.0
0001e0 00 00 80 3f 00 00 80 3f 00 00 80 3f 00 00 80 3f
       1.0 1.0 1.0 1.0
0001f0 00 00 80 3f 00 00 80 3f 00 00 80 3f 00 00 80 3f
       1.0 1.0 1.0 1.0
000200 00 00 80 3f 00 00 80 3f 00 00 80 3f 00 00 80 3f
       1.0 1.0 1.0 1.0
000210 00 00 80 3f 00 00 80 3f 00 00 80 3f 00 00 80 3f
       1.0 1.0 1.0 1.0
000220 00 00 80 3f 00 00 80 3f 00 00 80 3f 00 00 80 3f
       1.0 1.0 1.0 1.0
000230 00 00 80 3f 00 00 80 3f 00 00 80 3f 00 00 80 3f
       1.0 1.0 1.0 1.0
000240 00 00 80 3f 00 00 80 3f 00 00 80 3f 00 00 80 3f
       1.0 1.0 1.0 1.0
000250 00 00 80 3f 00 00 80 3f 00 00 80 3f 00 00 80 3f
       1.0 1.0 1.0 1.0
000260 00 00 80 3f 00 00 80 3f 00 00 80 3f 00 00 80 3f
       1.0 1.0 1.0 1.0
000270 00 00 80 3f 00 00 80 3f 00 00 80 3f 00 00 80 3f
       1.0 1.0 1.0 1.0
000280 00 00 80 3f 00 00 80 3f 00 00 80 3f 00 00 80 3f
       1.0 1.0 1.0 1.0
000290 00 00 80 3f 00 00 80 3f 00 00 80 3f 00 00 80 3f
       1.0 1.0 1.0 1.0
0002a0 00 00 80 3f 00 00 80 3f 00 00 80 3f 00 00 80 3f
       1.0 1.0 1.0 1.0
0002b0 00 00 80 3f 00 00 80 3f 00 00 80 3f 00 00 80 3f
       1.0 1.0 1.0 1.0
0002c0 00 00 80 3f 00 00 80 3f 00 00 80 3f 00 00 80 3f
       1.0 1.0 1.0 1.0
0002d0 00 00 80 3f 00 00 80 3f 00 00 80 3f 00 00 80 3f
       1.0 1.0 1.0 1.0
0002e0 00 00 80 3f 00 00 80 3f 00 00 80 3f 00 00 80 3f
       1.0 1.0 1.0 1.0
0002f0 00 00 80 3f 00 00 80 3f 00 00 80 3f 00 00 80 3f
       1.0 1.0 1.0 1.0
000300 00 00 80 3f 00 00 80 3f 00 00 80 3f 00 00 80 3f
       1.0 1.0 1.0 1.0
000310 00 00 80 3f 00 00 80 3f 00 00 80 3f 00 00 80 3f
       1.0 1.0 1.0 1.0
000320 00 00 80 3f 00 00 80 3f 00 00 80 3f 00 00 80 3f
       1.0 1.0 1.0 1.0
000330 00 00 80 3f 00 00 80 3f 00 00 80 3f 00 00 80 3f
       1.0 1.0 1.0 1.0
000340 00 00 80 3f 00 00 80 3f 00 00 80 3f 00 00 80 3f
       1.0 1.0 1.0 1.0
000350 00 00 80 3f 00 00 80 3f 00 00 80 3f 00 00 80 3f
       1.0 1.0 1.0 1.0
000360 00 00 80 3f 00 00 80 3f 00 00 80 3f 00 00 80 3f
       1.0 1.0 1.0 1.0
000370 00 00 80 3f 00 00 80 3f 00 00 80 3f 00 00 80 3f
       1.0 1.0 1.0 1.0
000380 00 00 80 3f 00 00 80 3f 00 00 80 3f 00 00 80 3f
       1.0 1.0 1.0 1.0
000390 00 00 80 3f 00 00 80 3f 00 00 80 3f 00 00 80 3f
       1.0 1.0 1.0 1.0
0003a0 00 00 80 3f 00 00 80 3f 00 00 80 3f 00 00 80 3f
       1.0 1.0 1.0 1.0
0003b0 00 00 80 3f 00 00 80 3f 00 00 80 3f 00 00 80 3f
       1.0 1.0 1.0 1.0
0003c0 00 00 80 3f 00 00 80 3f 00 00 80 3f 00 00 80 3f
       1.0 1.0 1.0 1.0
0003d0 00 00 80 3f 00 00 80 3f 00 00 80 3f 00 00 80 3f
       1.0 1.0 1.0 1.0
0003e0 00 00 80 3f 00 00 80 3f 00 00 80 3f 00 00 80 3f
       1.0 1.0 1.0 1.0
0003f0 00 00 80 3f 00 00 80 3f 00 00 80 3f 00 00 80 3f
       1.0 1.0 1.0 1.0

blocks.0.ln.bias f4 [90, 32]
000000 00 00 00 00 00 00 00 00 00 00 00 00 00 00 00 00
       0.0 0.0 0.0 0.0
000010 00 00 00 00 00 00 00 00 00 00 00 00 00 00 00 00
       0.0 0.0 0.0 0.0
000020 00 00 00 00 00 00 00 00 00 00 00 00 00 00 00 00
       0.0 0.0 0.0 0.0
000030 00 00 00 00 00 00 00 00 00 00 00 00 00 00 00 00
       0.0 0.0 0.0 0.0
000040 00 00 00 00 00 00 00 00 00 00 00 00 00 00 00 00
       0.0 0.0 0.0 0.0
000050 00 00 00 00 00 00 00 00 00 00 00 00 00 00 00 00
       0.0 0.0 0.0 0.0
000060 00 00 00 00 00 00 00 00 00 00 00 00 00 00 00 00
       0.0 0.0 0.0 0.0
000070 00 00 00 00 00 00 00 00 00 00 00 00 00 00 00 00
       0.0 0.0 0.0 0.0
000080 00 00 00 00 00 00 00 00 00 00 00 00 00 00 00 00
       0.0 0.0 0.0 0.0
000090 00 00 00 00 00 00 00 00 00 00 00 00 00 00 00 00
       0.0 0.0 0.0 0.0
0000a0 00 00 00 00 00 00 00 00 00 00 00 00 00 00 00 00
       0.0 0.0 0.0 0.0
0000b0 00 00 00 00 00 00 00 00 00 00 00 00 00 00 00 00
       0.0 0.0 0.0 0.0
0000c0 00 00 00 00 00 00 00 00 00 00 00 00 00 00 00 00
       0.0 0.0 0.0 0.0
0000d0 00 00 00 00 00 00 00 00 00 00 00 00 00 00 00 00
       0.0 0.0 0.0 0.0
0000e0 00 00 00 00 00 00 00 00 00 00 00 00 00 00 00 00
       0.0 0.0 0.0 0.0
0000f0 00 00 00 00 00 00 00 00 00 00 00 00 00 00 00 00
       0.0 0.0 0.0 0.0
000100 00 00 00 00 00 00 00 00 00 00 00 00 00 00 00 00
       0.0 0.0 0.0 0.0
000110 00 00 00 00 00 00 00 00 00 00 00 00 00 00 00 00
       0.0 0.0 0.0 0.0
000120 00 00 00 00 00 00 00 00 00 00 00 00 00 00 00 00
       0.0 0.0 0.0 0.0
000130 00 00 00 00 00 00 00 00 00 00 00 00 00 00 00 00
       0.0 0.0 0.0 0.0
000140 00 00 00 00 00 00 00 00 00 00 00 00 00 00 00 00
       0.0 0.0 0.0 0.0
000150 00 00 00 00 00 00 00 00 00 00 00 00 00 00 00 00
       0.0 0.0 0.0 0.0
000160 00 00 00 00 00 00 00 00 00 00 00 00 00 00 00 00
       0.0 0.0 0.0 0.0
000170 00 00 00 00 00 00 00 00 00 00 00 00 00 00 00 00
       0.0 0.0 0.0 0.0
000180 00 00 00 00 00 00 00 00 00 00 00 00 00 00 00 00
       0.0 0.0 0.0 0.0
000190 00 00 00 00 00 00 00 00 00 00 00 00 00 00 00 00
       0.0 0.0 0.0 0.0
0001a0 00 00 00 00 00 00 00 00 00 00 00 00 00 00 00 00
       0.0 0.0 0.0 0.0
0001b0 00 00 00 00 00 00 00 00 00 00 00 00 00 00 00 00
       0.0 0.0 0.0 0.0
0001c0 00 00 00 00 00 00 00 00 00 00 00 00 00 00 00 00
       0.0 0.0 0.0 0.0
0001d0 00 00 00 00 00 00 00 00 00 00 00 00 00 00 00 00
       0.0 0.0 0.0 0.0
0001e0 00 00 00 00 00 00 00 00 00 00 00 00 00 00 00 00
       0.0 0.0 0.0 0.0
0001f0 00 00 00 00 00 00 00 00 00 00 00 00 00 00 00 00
       0.0 0.0 0.0 0.0
000200 00 00 00 00 00 00 00 00 00 00 00 00 00 00 00 00
       0.0 0.0 0.0 0.0
000210 00 00 00 00 00 00 00 00 00 00 00 00 00 00 00 00
       0.0 0.0 0.0 0.0
000220 00 00 00 00 00 00 00 00 00 00 00 00 00 00 00 00
       0.0 0.0 0.0 0.0
000230 00 00 00 00 00 00 00 00 00 00 00 00 00 00 00 00
       0.0 0.0 0.0 0.0
000240 00 00 00 00 00 00 00 00 00 00 00 00 00 00 00 00
       0.0 0.0 0.0 0.0
000250 00 00 00 00 00 00 00 00 00 00 00 00 00 00 00 00
       0.0 0.0 0.0 0.0
000260 00 00 00 00 00 00 00 00 00 00 00 00 00 00 00 00
       0.0 0.0 0.0 0.0
000270 00 00 00 00 00 00 00 00 00 00 00 00 00 00 00 00
       0.0 0.0 0.0 0.0
000280 00 00 00 00 00 00 00 00 00 00 00 00 00 00 00 00
       0.0 0.0 0.0 0.0
000290 00 00 00 00 00 00 00 00 00 00 00 00 00 00 00 00
       0.0 0.0 0.0 0.0
0002a0 00 00 00 00 00 00 00 00 00 00 00 00 00 00 00 00
       0.0 0.0 0.0 0.0
0002b0 00 00 00 00 00 00 00 00 00 00 00 00 00 00 00 00
       0.0 0.0 0.0 0.0
0002c0 00 00 00 00 00 00 00 00 00 00 00 00 00 00 00 00
       0.0 0.0 0.0 0.0
0002d0 00 00 00 00 00 00 00 00 00 00 00 00 00 00 00 00
       0.0 0.0 0.0 0.0
0002e0 00 00 00 00 00 00 00 00 00 00 00 00 00 00 00 00
       0.0 0.0 0.0 0.0
0002f0 00 00 00 00 00 00 00 00 00 00 00 00 00 00 00 00
       0.0 0.0 0.0 0.0
000300 00 00 00 00 00 00 00 00 00 00 00 00 00 00 00 00
       0.0 0.0 0.0 0.0
000310 00 00 00 00 00 00 00 00 00 00 00 00 00 00 00 00
       0.0 0.0 0.0 0.0
000320 00 00 00 00 00 00 00 00 00 00 00 00 00 00 00 00
       0.0 0.0 0.0 0.0
000330 00 00 00 00 00 00 00 00 00 00 00 00 00 00 00 00
       0.0 0.0 0.0 0.0
000340 00 00 00 00 00 00 00 00 00 00 00 00 00 00 00 00
       0.0 0.0 0.0 0.0
000350 00 00 00 00 00 00 00 00 00 00 00 00 00 00 00 00
       0.0 0.0 0.0 0.0
000360 00 00 00 00 00 00 00 00 00 00 00 00 00 00 00 00
       0.0 0.0 0.0 0.0
000370 00 00 00 00 00 00 00 00 00 00 00 00 00 00 00 00
       0.0 0.0 0.0 0.0
000380 00 00 00 00 00 00 00 00 00 00 00 00 00 00 00 00
       0.0 0.0 0.0 0.0
000390 00 00 00 00 00 00 00 00 00 00 00 00 00 00 00 00
       0.0 0.0 0.0 0.0
0003a0 00 00 00 00 00 00 00 00 00 00 00 00 00 00 00 00
       0.0 0.0 0.0 0.0
0003b0 00 00 00 00 00 00 00 00 00 00 00 00 00 00 00 00
       0.0 0.0 0.0 0.0
0003c0 00 00 00 00 00 00 00 00 00 00 00 00 00 00 00 00
       0.0 0.0 0.0 0.0
0003d0 00 00 00 00 00 00 00 00 00 00 00 00 00 00 00 00
       0.0 0.0 0.0 0.0
0003e0 00 00 00 00 00 00 00 00 00 00 00 00 00 00 00 00
       0.0 0.0 0.0 0.0
0003f0 00 00 00 00 00 00 00 00 00 00 00 00 00 00 00 00
       0.0 0.0 0.0 0.0

blocks.0.ffn.0.weight f4 [90, 32]
000000 fe e1 8a 3f be 5e 88 3f 75 8f 81 3f f3 0a 82 3f
       1.0850217 1.0653913 1.0121905 1.0159591
000010 da 17 91 3f 2a 82 73 3f 9d 57 a4 3f 7e 57 81 3f
       1.1335404 0.9512049 1.2839237 1.0104825
000020 21 78 82 3f 2e e7 9a 3f 87 53 16 3f 1f 91 af 3f
       1.019291 1.21018 0.587212 1.3716162
000030 c9 ac 70 3f 58 d9 78 3f 13 e1 86 3f b0 52 3a 3f
       0.9401365 0.9720664 1.0537437 0.7278242
000040 9a db 48 3f 1b d8 80 3f 50 1d 95 3f 55 2e 83 3f
       0.78460085 1.006595 1.164957 1.0248514
000050 ce 04 3d 3f c3 06 7d 3f ab 11 44 3f dc df 9c 3f
       0.73835456 0.9883844 0.7658946 1.2255816
000060 2a c7 9b 3f ff af 3c 3f e8 87 84 3f a9 67 5e 3f
       1.2170155 0.7370605 1.0353975 0.8687692
000070 e9 7b 81 3f 22 d8 6b 3f 51 15 67 3f cd f2 a0 3f
       1.0115939 0.9212667 0.902669 1.2574097
000080 97 a9 9d 3f 76 c2 21 3f bf fb 5b 3f 25 06 25 3f
       1.231738 0.6318735 0.8593101 0.644625
000090 89 a3 8e 3f f2 0c 83 3f 27 d1 51 3f 94 dc 80 3f
       1.1143657 1.0238326 0.81959766 1.0067315
0000a0 ad 13 74 3f 28 57 b1 3f 6e d1 57 3f 60 97 46 3f
       0.9534252 1.3854723 0.8430394 0.7757473
0000b0 fd c7 69 3f b7 d7 86 3f ad ca 7d 3f 66 32 71 3f
       0.9132078 1.0534581 0.99137384 0.94217527
0000c0 e7 5b 54 3f 04 d4 9d 3f 23 6d 3d 3f 22 a3 89 3f
       0.8295273 1.2330327 0.73994654 1.0752909
0000d0 b8 0d 52 3f 2e 84 9c 3f 4b de 6b 3f 20 2c 58 3f
       0.82052183 1.2227838 0.9213607 0.8444233
0000e0 2b 23 82 3f 8b 66 8b 3f 26 e2 15 3f 26 52 74 3f
       1.0166982 1.0890669 0.585482 0.9543785
0000f0 e7 6a 6c 3f 4d bb 91 3f fb 41 64 3f e4 98 60 3f
       0.9235062 1.1385285 0.8916318 0.8773329
000100 47 1d 5d 3f 6a c2 7d 3f 5a 81 70 3f 2a 92 7e 3f
       0.863728 0.9912478 0.93947375 0.9944178
000110 1c 9a 99 3f d1 14 87 3f ac 54 90 3f a6 b0 55 3f
       1.2000155 1.0553228 1.127584 0.8347267
000120 19 db 52 3f d7 d7 8e 3f 81 e5 29 3f ce 12 54 3f
       0.82365566 1.1159619 0.6636582 0.82841194
000130 ab d9 71 3f 5c 1d 74 3f a0 7a 94 3f ce 7e 28 3f
       0.9447276 0.953573 1.1599922 0.6581849
000140 40 dc 72 3f 46 e7 99 3f 9e 0a 4e 3f f3 01 87 3f
       0.94867325 1.2023704 0.8048495 1.054747
000150 ac 01 68 3f cc 80 59 3f 25 0f 73 3f 8d 6e 8a 3f
       0.9062755 0.84962153 0.94944984 1.0814987
000160 4d 65 5f 3f 1d 00 68 3f c9 c0 96 3f 4e 84 68 3f
       0.8726395 0.9062517 1.1777583 0.9082688
000170 c6 2c 76 3f 71 a2 8f 3f 9d 8e 70 3f 37 5f 62 3f
       0.9616207 1.1221448 0.9396761 0.88426536
000180 fb ac 5b 3f 40 b5 8d 3f 48 4c 40 3f e5 19 93 3f
       0.8581082 1.1070938 0.75116396 1.1492277
000190 25 98 6a 3f b2 0a 8a 3f 0c 79 64 3f 4b 9f 43 3f
       0.91638404 1.0784514 0.892472 0.76414937
0001a0 83 1e 5a 3f 85 cb 60 3f b5 4f 44 3f 6c 65 45 3f
       0.8520281 0.87810546 0.76684123 0.7710788
0001b0 7a 99 83 3f 7c 44 41 3f 41 b7 3d 3f 02 79 79 3f
       1.0281212 0.75495124 0.7410775 0.9745027
0001c0 a6 8c 65 3f ac ce 45 3f 6f 05 2e 3f 11 5c 9d 3f
       0.8966774 0.7726848 0.6797704 1.2293721
0001d0 e1 9d 16 3f 93 0d 72 3f 7a 10 74 3f 98 d1 6e 3f
       0.58834654 0.9455196 0.9533764 0.93288565
0001e0 7c 74 88 3f c4 b0 76 3f 35 21 95 3f f2 9f 28 3f
       1.0660548 0.9636347 1.1650759 0.6586906
0001f0 e0 6b 44 3f f3 12 87 3f 19 0c 9a 3f f4 c3 81 3f
       0.76727104 1.0552658 1.2034942 1.0137925
000200 0d 7b 76 3f 60 65 35 3f b7 8a 90 3f a6 e1 72 3f
       0.9628151 0.7085781 1.1292332 0.9487556
000210 c8 73 88 3f bb 2b 8a 3f 27 f5 8b 3f 0b 21 69 3f
       1.0660334 1.0794595 1.093419 0.91066045
000220 b5 85 89 3f 97 12 3f 3f 42 38 54 3f 27 99 95 3f
       1.0743929 0.7463774 0.8289834 1.1687363
000230 7f b7 3d 3f 38 51 44 3f 7d 48 be 3f cb 48 63 3f
       0.7410812 0.7668643 1.4865872 0.8878295
000240 5e fa 51 3f cc 0c 79 3f 22 b9 81 3f 5a 9d 87 3f
       0.82022655 0.9728515 1.0134623 1.0594895
000250 41 9c 6f 3f f5 1c 8d 3f 46 10 8e 3f 1f e5 96 3f
       0.935978 1.1024462 1.1098716 1.1788672
000260 d1 f8 26 3f 9d 8e 5b 3f 50 07 8b 3f 97 17 70 3f
       0.65223414 0.85764486 1.0861607 0.93785995
000270 33 1f 79 3f ef 16 75 3f 29 4e 5d 3f b9 14 5c 3f
       0.9731323 0.9573812 0.8644739 0.8596912
000280 65 ed 88 3f 59 68 86 3f 41 65 49 3f 76 5e 90 3f
       1.0697447 1.0500594 0.78670126 1.1278827
000290 f1 bc 7c 3f bc eb 7d 3f 6d 24 5c 3f 9b 06 72 3f
       0.987258 0.9918783 0.8599308 0.9454133
0002a0 34 09 57 3f 58 04 34 3f 53 7a 16 3f c6 85 8f 3f
       0.8399842 0.7031913 0.587804 1.12127
0002b0 c3 1b 0a 3f d5 36 3a 3f 93 3f 8c 3f d1 65 3d 3f
       0.5394861 0.7273992 1.0956901 0.73983485
0002c0 ce 1b 4f 3f 98 14 7a 3f 8d 22 50 3f 57 29 61 3f
       0.809018 0.97687674 0.8130272 0.87953705
0002d0 89 f7 84 3f fb 8a 8c 3f 28 d7 87 3f 4b 6d 64 3f
       1.0388042 1.0979913 1.0612535 0.8922927
0002e0 a6 da ad 3f 7e 40 4f 3f 4b 21 9a 3f e6 69 89 3f
       1.3582351 0.8095778 1.204141 1.0735443
0002f0 a2 4f 57 3f ce 4b 1d 3f 8b 45 a2 3f df 2d 72 3f
       0.84105885 0.61443794 1.2677473 0.94601244
000300 17 b3 89 3f 91 db 64 3f 31 37 5e 3f 2d 1b 91 3f
       1.0757779 0.8939753 0.86802965 1.1336418
000310 68 60 82 3f 34 19 aa 3f 76 82 4d 3f 82 13 7b 3f
       1.0185671 1.3288941 0.8027719 0.9807664
000320 ba 32 56 3f 12 97 53 3f d9 05 48 3f 2c 18 8c 3f
       0.8367115 0.8265239 0.7813392 1.0944877
000330 0a 8b 41 3f a0 2a 28 3f 1f ed 39 3f 0d 00 15 3f
       0.7560278 0.6569004 0.72627443 0.582032
000340 04 9f 97 3f 26 0d 51 3f 2e 08 90 3f 80 71 4f 3f
       1.1845403 0.8166069 1.1252496 0.8103256
000350 4c f7 7a 3f 6f 3a 70 3f 50 16 91 3f e0 9b 79 3f
       0.98033595 0.9383916 1.1334934 0.9750347
000360 1d a8 55 3f e9 ee 56 3f 81 08 5c 3f bc dc 87 3f
       0.83459646 0.839583 0.85950476 1.0614238
000370 9f 05 7d 3f cf 9d 6a 3f 91 be 73 3f d2 58 2b 3f
       0.988367 0.91647047 0.95212656 0.66932404
000380 3f 8c 6f 3f 6a 73 66 3f 1d ca 12 3f f7 06 83 3f
       0.93573374 0.9001986 0.5733965 1.02365
000390 80 e1 4c 3f da 94 93 3f 01 c1 87 3f 00 db 6e 3f
       0.80031586 1.1529801 1.0605775 0.9330292
0003a0 18 31 66 3f 3d 41 80 3f 8e 27 97 3f cd c1 6f 3f
       0.8991866 1.0019909 1.1808946 0.9365509
0003b0 ef fe 7b 3f a3 69 83 3f 05 be 46 3f b1 35 70 3f
       0.9843587 1.0266613 0.77633697 0.93831927
0003c0 69 c2 40 3f f4 c1 aa 3f 5d ec 5a 3f a6 49 90 3f
       0.75296646 1.334044 0.8551691 1.1272476
0003d0 1d ba 99 3f f4 3a 97 3f 8a 10 32 3f f7 60 75 3f
       1.2009922 1.1814866 0.69556487 0.9585108
0003e0 d0 7a 89 3f 92 fc 6c 3f c0 4b 8a 3f 75 28 6f 3f
       1.0740604 0.9257289 1.0804367 0.9342111
0003f0 3b 86 7e 3f 81 ca a2 3f d1 fd 8e 3f 6a a3 82 3f
       0.9942357 1.2718049 1.1171209 1.020612
