models/experiment_BCH_N63_K45_transformer_d=32_N=2_mask_lr=0.0003_epochs=200.pth (torch, 280740 bytes, 32 tensors)

embedding f4 [81, 32]
-0.12381083 -0.18311715 -0.2204227 0.114425756 -0.055751864 -0.19450441 -0.2104826 0.0348115
-0.21861088 -0.11414165 0.039845224 0.05310402 0.065092646 -0.11217563 -0.19876397 -0.13205558
0.18472725 -0.012310394 -0.083794296 0.22248639 0.08030895 0.17690265 0.1720967 0.15639834
-0.19704983 -0.16785586 0.13110071 -0.26729828 0.08406071 -0.32222944 -0.07570173 -0.109322995
-0.05051909 0.27369785 -0.2099083 -0.13685293 0.03301429 0.020555371 -0.1687845 -0.020919614
0.2731992 -0.008201745 -0.18987353 0.4817054 0.12007166 -0.015177816 -0.04147521 -0.16630478
-0.13886724 -0.058544748 -0.25574273 0.16802132 -0.08322879 0.2609296 -0.1666393 -0.042468976
-0.11826688 -0.24149221 0.102530465 -0.2464774 -0.016723061 -0.2233681 -0.23614646 -0.1725698
-0.08807507 0.2634995 0.16834468 0.3395873 -0.14323618 0.092788026 -0.012117006 0.07422718
0.080935694 -0.050380215 -0.14622879 0.25869393 -0.18025254 0.16902544 -0.19757332 -0.1940014
-0.065278485 0.072490446 -0.19478256 0.028443664 -0.112407446 0.30599657 0.016436784 -0.047709595
-0.2003615 0.023569731 0.10507181 0.04684896 -0.28072438 -0.27535394 0.044548683 0.028557995
-0.08108562 0.33421877 0.077968836 0.18460356 -0.04553639 0.086382024 -0.09488785 0.08757633
0.18179399 0.04473755 -0.033752292 0.42689505 -0.025270574 0.030107308 -0.076876126 -0.12936617
-0.18363473 -0.12501548 -0.21081023 0.19297472 -0.1429068 0.16377684 -0.12441031 -0.08606028
-0.21530731 -0.2308137 0.005761661 -0.052675765 -0.17461449 -0.072964534 -0.150339 -0.045756232
0.23284325 0.10393525 0.085240684 0.12360684 0.073746935 -0.019609407 0.008319636 -0.1288299
0.13424958 -0.33662233 0.12664291 0.019179594 -0.0783328 0.051552035 -0.25610083 -0.39066923
0.067283966 0.09742601 0.13738358 0.2891538 0.3269646 -0.066973455 0.0068611135 0.19392551
-0.1687842 -0.23697828 0.07179383 0.36891752 -0.14477424 -0.017082736 0.2838161 0.17339101
-0.11459168 0.1567173 0.08903083 0.23946033 -0.11417144 -0.1508149 0.100231394 0.25033015
0.010809891 -0.1139773 0.0974661 0.08485541 0.06982175 0.1540985 -0.0039190776 -0.19564068
0.11547336 -0.050736655 0.16109562 0.044674177 0.09923101 0.040291857 0.07089305 -0.06206515
-0.17638135 -0.119295955 0.011625324 0.22636291 -0.15715268 -0.18828243 -0.21408649 0.05379422
0.25887042 0.1518242 0.08748447 0.27828392 0.0068374844 -0.067617714 0.071731724 0.24215055
-0.11637007 -0.22335596 -0.033486765 -0.04199694 0.17752133 0.0050931596 -0.04466872 -0.18659468
-0.24632674 0.061842743 0.15827845 0.16234687 0.1853485 -0.016647171 0.08555649 -0.09122576
-0.2723706 -0.07963861 -0.24687548 0.31346866 -0.11500437 -0.019891392 0.18611419 0.03467949
0.19506598 0.014152291 -0.006610443 -0.06785683 -0.13933298 0.0917946 -0.1056495 -0.010973825
-0.028239153 -0.100952454 -0.20429969 0.15453741 0.17817046 0.13441975 -0.13319278 -0.34464747
-0.069600455 0.07564301 0.07701632 0.32699016 -0.15233865 0.16449489 -0.16911136 0.028170036
-0.27997798 -0.2571867 -0.25455838 -0.12621568 -0.13455577 -0.27380833 -0.2818971 0.10157572
00000000: 8890 fdbd 1083 3bbe 7db6 61be 0d58 ea3d
00000010: 115c 64bd 2a2c 47be c088 57be 8196 0e3d
00000020: 88db 5fbe 19c3 e9bd bf34 233d 9a83 593d
00000030: 4b4f 853d 56bc e5bd c888 4bbe 9439 07be
00000040: 2429 3d3e 89b1 49bc 589c abbd 79d3 633e
00000050: 0579 a43d f825 353e 1e3a 303e e326 203e
00000060: 6ec7 49be 68e2 2bbe 443f 063e 52db 88be
00000070: 0628 ac3d 42fb a4be 8209 9bbd bce4 dfbd
00000080: 1bed 4ebd 2022 8c3e 34f2 56be 2d23 0cbe
00000090: fe39 073d bd63 a83c d8d5 2cbe 9c5f abbc
000000a0: c4e0 8b3e 9d60 06bc 356e 42be 17a2 f63e
000000b0: 21e8 f53d 60ac 78bc e9e1 29bd cd4b 2abe
000000c0: 3733 0ebe 9ecc 6fbd b6f0 82be c80d 2c3e
000000d0: db73 aabd 9198 853e 7ea3 2abe f3f3 2dbd
000000e0: e835 f2bd bc49 77be 7efb d13d 9264 7cbe
000000f0: cdfe 88bc 9bba 64be 61d0 71be 23b6 30be
00000100: b460 b4bd 68e9 863e 8c62 2c3e 63de ad3e
00000110: 81ac 12be a607 be3d 6886 46bc 6b04 983d
00000120: 9dc1 a53d 7c5b 4ebd 00bd 15be 8873 843e
00000130: 1f94 38be 0115 2d3e a950 4abe 4ea8 46be
00000140: bab0 85bd df75 943d 1475 47be b002 e93c
00000150: e035 e6bd 95ab 9c3e 6fa6 863c 236b 43bd
00000160: 912b 4dbe 4f15 c13c e42f d73d b2e4 3f3d
00000170: 1bbb 8fbe 31fb 8cbe ae78 363d 75f2 e93c
00000180: 3810 a6bd b91e ab3e 20ae 9f3d b708 3d3e
00000190: 5e84 3abd 0fe9 b03d 9054 c2bd 385b b33d
000001a0: 3428 3a3e b93e 373d d83f 0abd fd91 da3e
000001b0: 3c04 cfbc 9aa3 f63c 3b71 9dbd 9178 04be
000001c0: be0a 3cbe 0f04 00be a3de 57be 2a9b 453e
000001d0: 2956 12be 1eb5 273e d5ca febd 5f40 b0bd
000001e0: 8579 5cbe 6d5a 6cbe 51cc bc3b 8bc2 57bd
000001f0: 24ce 32be 6e6e 95bd 78f2 19be e36a 3bbd
00000200: 766e 6e3e 01dc d43d ab92 ae3d 9525 fd3d
00000210: a208 973d e8a3 a0bc 154f 083c fceb 03be
00000220: b978 093e c359 acbe aeae 013e 861e 9d3c
00000230: f26c a0bd 3a28 533d a61f 83be cc05 c8be
00000240: 2dcc 893d 4a87 c73d 48ae 0c3e f80b 943e
00000250: e767 a73e 6129 89bd 31d3 e03b 6994 463e
00000260: c4d5 2cbe 6faa 72be a508 933d c2e2 bc3e
00000270: b33f 14be 18f1 8bbc 5850 913e 6a8d 313e
00000280: 0baf eabd 807a 203e cc55 b63d 1735 753e
00000290: b7d2 e9bd 396f 1abe 1e46 cd3d 462b 803e
000002a0: f81b 313c ee6c e9bd 4e9c c73d acc8 ad3d
000002b0: b5fe 8e3d ffcb 1d3e 9b6b 80bb 0856 48be
000002c0: 4c7d ec3d 3dd1 4fbd 40f6 243e 45fc 363d
000002d0: a139 cb3d 1309 253d 6030 913d 0738 7ebd
000002e0: 509d 34be 7051 f4bd 2578 3e3c aecb 673e
000002f0: a2ec 20be 1ccd 40be 7d39 5bbe 5457 5c3d
00000300: aa8a 843e ce77 1b3e 0f2b b33d 3b7b 8e3e
00000310: fa0c e03b 287b 8abd 15e8 923d 50f6 773e
00000320: 6e53 eebd 6db7 64be 6b29 09bd fc04 2cbd
00000330: 27c8 353e 85e4 a63b 8cf6 36bd ad12 3fbe
00000340: 143d 7cbe d14e 7d3d bf13 223e 423e 263e
00000350: ffcb 3d3e a65f 88bc 3e38 af3d 92d4 babd
00000360: 2974 8bbe 9119 a3bd edcc 7cbe f77e a03e
00000370: 6987 ebbd 46f3 a2bc b894 3e3e 150c 0e3d
00000380: 60bf 473e 03df 673c 6a9c d8bb 86f8 8abd
00000390: 4ead 0ebe cffe bb3d c45e d8bd 8fcb 33bc
000003a0: cc55 e7bc 29c0 cebd f033 51be 0e3f 1e3e
000003b0: 5172 363e 55a5 093e b063 08be a275 b0be
000003c0: af8a 8ebd b9ea 9a3d bbba 9d3d 416b a73e
000003d0: aafe 1bbe 5971 283e 872b 2dbe d9c4 e63c
000003e0: 4659 8fbe faad 83be 7a55 82be af3e 01be
000003f0: fdc8 09be 9b30 8cbe d154 90be ee06 d03d

blocks.0.W_QKV f4 [32, 96]
-0.2150929 -0.0345325 -0.049666345 -0.04068259 0.02623051 0.06016686 0.09440933 -0.1213012
-0.039274357 0.04438221 0.058794316 -0.13878275 0.21196301 -0.22066978 -0.19788653 -0.027726071
0.035100535 -0.019755632 -0.19908507 0.07104056 0.031625852 -0.025736554 0.08342655 0.08273058
-0.055413228 0.13948986 -0.026686091 0.016133497 0.05250366 0.09210831 0.1680287 0.123110995
0.093507305 0.32723498 0.20481038 -0.0029068296 -0.19308454 -0.09734393 -0.1932158 -0.1965848
0.209494 -0.15302333 0.39145896 -0.36878088 -0.20924993 0.11993976 -0.033541914 -0.18901828
0.17149968 -0.20721313 -0.09394016 -0.24771734 -0.014232391 -0.35195082 0.14845176 -0.24906991
-0.012632615 -0.18855259 -0.09393318 0.023725698 0.20531298 0.13817644 0.13118856 -0.085556686
0.14517526 0.19136578 -0.012967188 0.14657412 -0.34635836 -0.033186264 -0.24937336 -0.1425641
-0.069935575 -0.10539937 -0.07535286 -0.2743647 0.37635016 -0.17316775 0.14885318 0.03799832
0.0069744545 0.04337664 -0.2545186 0.05221004 -0.072617054 0.24888174 0.16885194 -0.15669759
-0.21369553 0.2811095 0.009664643 -0.29539427 -0.20729834 -0.063655905 0.00035513073 -0.11391802
-0.01913104 0.14950626 0.14143498 -0.00033040912 0.010778861 0.15271387 0.068133146 0.14078866
-0.02235971 0.15958725 0.16425046 -0.2331 -0.03556975 0.19634093 0.082199834 -0.17372324
0.091422014 -0.09846143 -0.08127004 0.08878205 -0.09431397 -0.14948702 0.19538987 0.026465546
-0.10259794 -0.21003601 -0.074529536 -0.0009309434 0.010092773 0.076515235 -0.016202006 0.2327501
0.5425797 0.53200936 0.16035642 -0.5380546 -0.6802496 0.14134581 -0.25993735 0.14713505
-0.30210385 0.1350301 -0.32596263 0.051129527 0.16740023 0.13788226 0.12843454 0.07568863
0.10797173 0.40131468 0.5394577 -0.35458684 -0.37655944 -0.077691674 0.0034122097 0.47870937
-0.35032746 0.19291781 0.006671209 -0.038891178 -0.08885201 0.13784823 -0.023017095 -0.42990878
-0.018355684 -0.1626457 0.08553796 -0.14811817 0.011687574 -0.011668997 -0.3403663 -0.19340523
0.13895446 -0.22629055 -0.040480886 -0.16263416 -0.030803507 0.066957 -0.010810286 0.03324184
-0.16442713 -0.23403925 -0.05717134 0.115911566 0.13709678 0.08786086 0.050833646 0.16514693
0.22371373 -0.06416206 -0.10604442 0.17256498 -0.27088806 -0.24912322 0.15446383 -0.26924095
-0.32850292 -0.190331 0.10983436 -0.18253355 0.13601136 -0.078386195 -0.033518426 -0.0830895
-0.09865692 0.2549921 -0.045309186 -0.23482642 0.08806704 0.12557293 -0.18221122 -0.09113765
0.11919601 -0.077371836 0.0010048321 -0.11900457 -0.1844685 -0.17120738 0.06354909 0.044306353
0.044799294 0.015987081 0.060129896 0.2455329 0.08379367 0.13167405 0.06620023 0.02326793
-0.018092819 -0.3717218 0.11564095 0.118456274 0.17328668 0.04472592 0.23705243 0.045154832
-0.0898763 -0.079388596 -0.1883956 -0.02090687 0.31899786 0.16545872 -0.08644257 -0.045126185
-0.104890965 -0.14624658 -0.36754546 0.34226575 0.10115113 0.0970488 -0.15056081 -0.14714621
0.18693937 0.22798851 -0.144029 -0.016543541 -0.036328856 0.13199952 -0.31061953 0.18788356
00000000: 5041 5cbe f371 0dbd f06e 4bbd caa2 26bd
00000010: 5ee1 d63c 8771 763d ae59 c13d c36c f8bd
00000020: 26de 20bd 1fca 353d 4fd2 703d 111d 0ebe
00000030: d50c 593e 42f7 61be c4a2 4abe c921 e3bc
00000040: 94c5 0f3d 90d6 a1bc f5dc 4bbe b77d 913d
00000050: 1c8a 013d 77d5 d2bc 8adb aa3d a66e a93d
00000060: fbf8 62bd 6ed6 0e3e ca9c dabc 652a 843c
00000070: 140e 573d 48a3 bc3d b70f 2c3e 9e21 fc3d
00000080: c280 bf3d 588b a73e d0b9 513e 8280 3ebb
00000090: f4b7 45be 415c c7bd 5dda 45be 874d 49be
000000a0: 9885 563e 26b2 1cbe 4f6d c83e d9d0 bcbe
000000b0: 9d45 56be faa2 f53d 3f63 09bd 028e 41be
000000c0: 9d9d 2f3e ae2f 54be b363 c0bd 9da9 7dbe
000000d0: f92e 69bc e632 b4be bd03 183e 2f0c 7fbe
000000e0: 07f9 4ebc ee13 41be 0a60 c0bd 655c c23c
000000f0: 913d 523e 207e 0d3e 4b56 063e 5838 afbd
00000100: d3a8 143e 64f5 433e 5474 54bc 8717 163e
00000110: e255 b1be 52ee 07bd bb5b 7fbe 53fc 11be
00000120: 623a 8fbd a0db d7bd 9a52 9abd 8879 8cbe
00000130: f8b0 c03e e352 31be f86c 183e 20a4 1b3d
00000140: f789 e43b b4ab 313d 4350 82be 32da 553d
00000150: 40b8 94bd dbda 7e3e 86e7 2c3e 5575 20be
00000160: 00d3 5abe 96ed 8f3e 7358 1e3c eb3d 97be
00000170: 0446 54be 075e 82bd d730 ba39 da4d e9bd
00000180: b3b8 9cbc 2b18 193e 55d4 103e c33a adb9
00000190: d299 303c 0661 1c3e 6489 8b3d e72a 103e
000001a0: b62b b7bc d76a 233e 4631 283e c4b1 6ebe
000001b0: 96b1 11bd 990d 493e 6358 a83d 81e4 31be
000001c0: 773b bb3d 25a6 c9bd e870 a6bd 5dd3 b53d
000001d0: af27 c1bd 2013 19be 4814 483e 46ce d83c
000001e0: de1e d2bd ae13 57be f1a2 98bd 8e0a 74ba
000001f0: 285c 253c 05b4 9c3d 12ba 84bc 0b56 6e3e
00000200: 81e6 0a3f c431 083f 7934 243e f2bd 09bf
00000210: d624 2ebf f5bc 103e 8216 85be 92aa 163e
00000220: 5bad 9abe 5545 0a3e 93e4 a6be 326d 513d
00000230: f76a 2b3e 0231 0d3e 5884 033e a402 9b3d
00000240: 4820 dd3d 1e79 cd3e e619 0a3f 688c b5be
00000250: 66cc c0be d01c 9fbd 619f 5f3b 6519 f53e
00000260: 1f5e b3be 3f8c 453e 289a da3b 5b4c 1fbd
00000270: 0bf8 b5bd 1628 0d3e 598e bcbc 011d dcbe
00000280: a95e 96bc 988c 26be 872e af3d 4aac 17be
00000290: 3d7d 3f3c 522f 3fbc 7e44 aebe 050c 46be
000002a0: 144a 0e3e b6b8 67be 49cf 25bd 9289 26be
000002b0: a357 fcbc c020 893d a01d 31bc 9828 083d
000002c0: 965f 28be fca7 6fbe 7f2c 6abd 0b63 ed3d
000002d0: 1963 0c3e 65f0 b33d f136 503d 471c 293e
000002e0: 3615 653e 6667 83bd d12d d9bd e0b4 303e
000002f0: d7b1 8abe 281a 7fbe c42b 1e3e f3d9 89be
00000300: 8931 a8be 21e6 42be d6f0 e03d 13ea 3abe
00000310: 9046 0b3e f188 a0bd 9e4a 09bd d42a aabd
00000320: a40c cabd 538e 823e 2096 39bd 5676 70be
00000330: 7e5c b43d 3196 003e 9495 3abe 60a6 babd
00000340: 0a1d f43d 2075 9ebd 92b4 833a abb8 f3bd
00000350: 4fe5 3cbe fd50 2fbe 0626 823d 947a 353d
00000360: 777f 373d 57f7 823c c44a 763d fa6c 7b3e
00000370: 049c ab3d 90d5 063e fc93 873d 639c be3c
00000380: 6437 94bc 5252 bebe 2ad5 ec3d 3499 f23d
00000390: 1072 313e 8732 373d dfbd 723e 46f4 383d
000003a0: 1111 b8bd 7d96 a2bd c7ea 40be e244 abbc
000003b0: b053 a33e 036e 293e cd08 b1bd 3cd6 38bd
000003c0: 13d1 d6bd aac1 15be eb2e bcbe 753d af3e
000003d0: 5328 cf3d 85c1 c63d 9d2c 1abe 7fad 16be
000003e0: 096d 3f3e d275 693e 577c 13be 5286 87bc
000003f0: 91cd 14bd e22a 073e 8609 9fbe 8c64 403e

blocks.0.mha.in_proj_weight f4 [96, 32]
0.074832045 -0.14901863 -0.009221942 -0.091014534 -0.11423581 0.1782859 0.17228083 0.10215872
-0.098825686 0.08382412 0.08060238 0.12567195 0.10421419 0.13635461 0.13040829 0.21867467
0.00079848256 0.098800495 -0.051102877 0.018853003 -0.097552136 -0.008149284 -0.03514501 -0.15688938
-0.017266475 -0.079519935 -0.05775684 -0.1827226 -0.027330179 0.08095525 0.15425152 0.10306325
-0.12928346 -0.18627672 -0.00023081635 0.048714865 -0.19984756 0.17457491 0.10074657 -0.025039785
-0.122946925 0.13580583 0.0713621 0.061448902 -0.04401384 0.03180629 0.07447769 0.1381523
-0.072448306 0.15071614 -0.021241084 0.03621453 -0.019943222 0.10016355 -0.16549668 -0.16816555
-0.007973255 0.04076449 -0.08660269 0.048867326 0.072623804 0.1215432 0.1548292 0.121193066
-0.02282949 -0.16449171 0.08980486 -0.18382333 0.15900174 -0.12979998 0.054680195 0.124359794
0.08738589 0.021188013 -0.13316357 0.18019682 0.02503625 -0.19146478 0.23699011 -0.08022941
0.0046846042 0.23387606 -0.07816902 -0.04702775 0.045309562 -0.053418986 -0.023733838 -0.15696613
0.007590919 -0.012075492 -0.018311169 -0.05189321 0.11589637 -0.049181696 -0.08166941 0.072299756
0.049885347 0.07090568 -0.10973691 0.0054893405 0.21187173 0.069212876 -0.10801054 0.08306282
0.0047318684 0.09341137 0.10718147 0.13944247 -0.046796624 0.139656 -0.11615174 0.007017926
-0.04894461 0.03573125 -0.022099806 -0.034892384 -0.12317689 0.08813035 0.11262645 0.1677327
0.034894016 0.039045125 0.13140568 0.024647687 0.008638761 0.029153505 -0.1279477 -0.11047354
0.18568057 -0.109484285 -0.13325788 -0.39916754 -0.18243316 0.5137452 -0.8149201 0.7295974
0.8155201 0.2268249 -0.35271856 0.65179086 -0.41226158 -0.28094625 -0.36326146 0.11172862
0.16519676 -0.23582128 0.60145265 0.54272115 -0.27128816 -0.5714001 -0.06688092 -0.20506127
0.2660171 0.6591266 0.36722416 -0.61846924 -0.46570873 0.79755586 -0.44814882 -0.05395259
0.6989776 -0.27540162 -0.09682339 0.41109145 -0.47556672 0.22180133 0.02014017 -0.5347211
0.23799823 -0.5989966 0.11916676 0.860735 -0.35955566 -0.4523831 0.41512457 0.60629255
-0.13861075 -0.26703748 0.48425177 -0.33340257 0.46375233 0.10916063 0.32698467 -0.708254
0.33412635 0.2326478 0.47528413 -0.30436176 -0.07958374 0.2645732 -0.6952775 -0.70183307
-0.56388074 0.30228913 0.17936702 -0.8075135 0.27255115 -0.10692564 -0.09520338 0.7091883
-0.084595636 0.6594269 0.093870476 -0.7536576 0.47695926 0.46880463 -0.57787615 -0.7508302
0.47567388 0.4699335 -0.37636206 0.45874295 -0.61069936 -0.32709697 -0.36244386 0.9969691
-0.49129105 -0.16732363 -0.6497984 0.3275382 0.31857583 -0.14110449 0.5431725 0.7884609
-0.52603066 0.11330373 0.12875238 -0.7168821 0.13239375 0.22240716 -0.059819967 0.4074844
0.22213517 0.6435721 0.18800767 -0.28359488 0.58521867 0.061521143 -0.3786382 -0.3552822
0.07555708 0.03768571 -0.08075518 0.49755883 -0.57566583 -0.23037614 -0.34974417 0.9094669
-0.41309166 0.024064193 -0.314055 -0.17815095 -0.04540426 -0.05975066 0.4532145 0.7648673
00000000: 8b41 993d 5798 18be a117 17bc d465 babd
00000010: 77f4 e9bd 9490 363e 636a 303e 9738 d13d
00000020: 1f65 cabd fbab ab3d dc12 a53d 26b0 003e
00000030: 406e d53d 8ba0 0b3e c089 053e 41ec 5f3e
00000040: 4251 513a ea57 ca3d 4051 51bd 9d71 9a3c
00000050: 6ac9 c7bd 9384 05bc 37f4 0fbd 9ca7 20be
00000060: 6c72 8dbc 59db a2bd 7092 6cbd a21b 3bbe
00000070: 8ae3 dfbc decb a53d 1cf4 1d3e d312 d33d
00000080: e262 04be 53bf 3ebe 4b07 72b9 3d89 473d
00000090: d7a4 4cbe c4c3 323e 3854 ce3d 3c20 cdbc
000000a0: 99cb fbbd af10 0b3e 4b26 923d d8b1 7b3d
000000b0: db47 34bd 5047 023d c287 983d cc77 0d3e
000000c0: c75f 94bd 5555 1a3e c801 aebc b055 143d
000000d0: f85f a3bc 8c22 cd3d f677 29be 9733 2cbe
000000e0: 41a2 02bc aaf8 263d c05c b1bd 1b29 483d
000000f0: cabb 943d a4eb f83d 8c8b 1e3e 1234 f83d
00000100: e904 bbbc 8470 28be 9ceb b73d 2f3c 3cbe
00000110: 5ad1 223e 49ea 04be 57f8 5f3d 59b0 fe3d
00000120: 60f7 b23d 7c92 ad3c 085c 08be 8485 383e
00000130: d218 cd3c 580f 44be 89ad 723e 514f a4bd
00000140: 4f81 993b 357d 6f3e 1417 a0bd 2ca0 40bd
00000150: 8596 393d decd 5abd 776d c2bc bbbb 20be
00000160: 3ebd f83b 49d8 45bc 4e01 96bc f98d 54bd
00000170: 135b ed3d bf72 49bd 4b42 a7bd e511 943d
00000180: 9454 4c3d ff36 913d bfbd e0bd eddf b33b
00000190: e7f4 583e 7bbf 8d3d a134 ddbd d71c aa3d
000001a0: ca0d 9b3b 764e bf3d f581 db3d 02ca 0e3e
000001b0: d1ad 3fbd fc01 0f3e f7e0 edbd a1f6 e53b
000001c0: 257a 48bd ee5a 123d a70a b5bc 51eb 0ebd
000001d0: 2a44 fcbd af7d b43d b2a8 e63d 1fc2 2b3e
000001e0: 07ed 0e3d c8ed 1f3d 368f 063e f2e9 c93c
000001f0: 9789 0d3c 55d3 ee3c b904 03be f43f e2bd
00000200: 0c23 3e3e 4c39 e0bd c174 08be b05f ccbe
00000210: c2cf 3abe ce84 033f 9b9e 50bf e5c6 3a3f
00000220: edc5 503f c944 683e 8797 b4be c4db 263f
00000230: f313 d3be 30d8 8fbe 68fd b9be fad1 e43d
00000240: 5729 293e 227b 71be cdf8 193f c6ef 0a3f
00000250: 48e6 8abe 4747 12bf ddf8 88bd 95fb 51be
00000260: 6533 883e 85bc 283f ce04 bc3e 0054 1ebf
00000270: 6071 eebe 9f2c 4c3f c373 e5be 64fd 5cbd
00000280: 32f0 323f 7101 8dbe 574b c6bd 947a d23e
00000290: 7b7d f3be e31f 633e fffc a43c 7be3 08bf
000002a0: cfb5 733e d757 19bf b40d f43d 2159 5c3f
000002b0: ae17 b8be c29e e7be 358b d43e fd35 1b3f
000002c0: faef 0dbe 23b9 88be d9ef f73e beb3 aabe
000002d0: f270 ed3e 9c8f df3d 896a a73e 2250 35bf
000002e0: 9c12 ab3e 3a3b 6e3e 7158 f33e 4ed5 9bbe
000002f0: cdfc a2bd 2376 873e b5fd 31bf 55ab 33bf
00000300: 7d5a 10bf a4c5 9a3e fdab 373e 34b9 4ebf
00000310: d38b 8b3e d4fb dabd fdf9 c2bd 5d8d 353f
00000320: 7a40 adbd 34d0 283f 2a3f c03d b4ef 40bf
00000330: 0134 f43e 2907 f03e b1ef 13bf 6836 40bf
00000340: 878b f33e 209b f03e 87b2 c0be 5be0 ea3e
00000350: cb56 1cbf 4179 a7be 3e92 b9be 5e39 7f3f
00000360: 808a fbbe e356 2bbe 3059 26bf 16b3 a73e
00000370: 5f1c a33e b27d 10be 5a0d 0b3f 93d8 493f
00000380: f2a9 06bf c90b e83d aad7 033e 9685 37bf
00000390: 3a92 073e b4be 633e c805 75bd cca1 d03e
000003a0: 6777 633e 24c1 243f 1585 403e 5933 91be
000003b0: e4d0 153f 98fd 7b3d dedc c1be 8ce7 b5be
000003c0: acbd 9a3d 555c 1a3d f962 a5bd 08c0 fe3e
000003d0: d65e 13bf b9e7 6bbe ab11 b3be d3d2 683f
000003e0: c080 d3be 4522 c53c d1cb a0be 346d 36be
000003f0: d1f9 39bd 1cbd 74bd bb0b e83e 58ce 433f

blocks.0.mha.in_proj_bias f4 [96]
0.24268182 -0.3252945 0.11973957 -0.14614224 0.10474531 -0.0039358307 0.002308415 0.0024403632
-1.2153834 -1.7143078 1.4533244 1.3325093 -0.38752162 -0.81377864 0.6083842 -0.29686284
0.51158106 -0.17771561 0.13903147 0.63267004 0.090634994 0.3030731 0.1484887 0.16356829
-0.1525186 8.0895115e-05 0.32728893 0.44149745 -0.42624998 0.82969564 -0.28894246 0.11135566
2.4152487e-05 0.00014598404 -6.233145e-05 -2.7281769e-05 3.7614194e-05 0.00022569402 -0.00030882235 -0.0001539284
-0.00021010116 0.0012100493 -0.0005407104 -5.1247982e-05 8.8076384e-05 0.0008936112 -0.001364778 -6.785724e-05
0.0005540551 -0.0003666819 0.000220923 0.001506079 4.22815e-05 5.0560422e-05 -7.247422e-05 -1.8865101e-05
-0.00016222706 0.00023373944 6.407594e-05 0.0001346848 0.00081213505 -0.0006195112 0.00042924294 -0.00041019233
-0.08340163 -0.12576677 0.39865837 -0.15841638 -0.07856331 -0.116381645 0.065324634 -0.070418596
-0.088464566 -0.12533772 -0.18626702 0.02046328 -0.2895887 0.002106617 -0.10949966 0.22017513
-0.03016366 -0.31572762 -0.14366642 -0.10658632 -0.13534975 -0.19688615 0.0031155061 0.12642965
0.012820118 -0.029906826 0.17511034 -0.058544155 -0.01502651 -0.24011481 0.16869237 -0.099666394
00000000: 9581 783e 008d a6be 053a f53d 50a6 15be
00000010: b684 d63d 24f8 80bb c748 173b 80ee 1f3b
00000020: af91 9bbf 706e dbbf 8906 ba3f aa8f aa3f
00000030: 3c69 c6be cc53 50bf 11bf 1b3f 68fe 97be
00000040: faf6 023f 15fb 35be 445e 0e3e aaf6 213f
00000050: d79e b93d 662c 9b3e 6c0d 183e 727e 273e
00000060: d62d 1cbe 3ca6 a938 6a92 a73e f40b e23e
00000070: 703d dabe ef66 543f 44f0 93be 700e e43d
00000080: 129b ca37 4b13 1939 f1b7 82b8 27db e4b7
00000090: efc3 1d38 47a8 6c39 6fe9 a1b9 d767 21b9
000000a0: 9a4e 5cb9 849a 9e3a 76be 0dba 1af3 56b8
000000b0: a6b5 b838 3c41 6a3a 5ae2 b2ba 944e 8eb8
000000c0: 023e 113a 363f c0b9 91a7 6739 a067 c53a
000000d0: 6a57 3138 d710 5438 4dfd 97b8 7f40 9eb7
000000e0: 7f1b 2ab9 f417 7539 8260 8638 2d3a 0d39
000000f0: 76e5 543a b166 22ba 030c e139 150f d7b9
00000100: 79ce aabd 01c9 00be f31c cc3e e737 22be
00000110: cde5 a0bd 8059 eebd ecc8 853d a037 90bd
00000120: e92c b5bd 8858 00be c8bc 3ebe 9ca2 a73c
00000130: f844 94be 2b0f 0a3b 5c41 e0bd 9775 613e
00000140: c819 f7bc 0da7 a1be 4a1d 13be ee49 dabd
00000150: 2099 0abe 869c 49be 852d 4c3b c676 013e
00000160: 790b 523c 29ff f4bc 2050 333e ffcb 6fbd
00000170: c031 76bc a8e0 75be b1bd 2c3e e51d ccbd

blocks.0.mha.out_proj.weight f4 [32, 32]
0.15052089 0.25585958 -0.012510661 -0.21636124 0.08965606 0.028107941 -0.059137724 0.10948674
0.205707 -0.2189223 0.059939466 -0.018519428 0.23370549 0.038016904 -0.08676953 0.022178985
0.013907224 0.13366617 -0.00088469253 0.34552482 -0.06936575 0.013276155 -0.0374713 0.1756275
-0.20163284 0.04353474 0.019248076 -0.032462116 0.06745212 -0.2999376 0.29841867 -0.09271894
-0.053025797 -0.24205193 0.059108533 0.19759142 -0.045864604 0.13028754 0.024084447 -0.017294213
-0.06743006 0.080321364 -0.0063392525 0.3224176 0.1720136 0.07405378 0.05044834 0.13122469
0.09759436 -0.09242846 -0.13100602 0.13733862 -0.24851719 0.31082338 -0.09758329 0.11522242
0.00073762634 -0.110762015 0.21059686 0.11521746 -0.24507548 0.025834654 -0.1534156 -0.35377046
0.073283136 0.027685504 0.24231412 -0.29809105 -0.124481626 -0.12377186 0.08722691 -0.043253228
0.287077 -0.2841532 -0.031153686 -0.18045278 -0.1500921 0.13491654 -0.093413986 0.1392975
-0.09736159 -0.08136188 0.11660665 -0.005825021 0.16442607 -0.020785525 0.24243979 0.14804246
-0.09028223 0.026674345 0.007000715 -0.044402357 0.049282968 0.06904551 -0.06878465 -0.07447141
0.23536037 -0.047710676 -0.06504135 -0.29088163 -0.13657035 0.049720638 -0.020150432 -0.056376815
0.04393649 -0.20772395 -0.16637084 -0.21124946 -0.08949646 -0.19647104 0.33527452 0.23015602
-0.05527882 -0.20213059 -0.1246761 0.13986215 0.24003862 -0.15270497 0.15291332 0.1222067
-0.016292581 0.01730939 -0.071368225 -0.3078313 -0.26732266 -0.088086374 -0.18817666 -0.3122786
0.21820796 0.1143069 0.11913753 0.093038216 -0.24894643 -0.11850001 -0.2598907 -0.29086375
-0.28156427 -0.0018521915 0.13176294 0.027196975 0.05204225 -0.24089873 0.0031042947 -0.30573973
-0.10052145 0.12050832 0.09257223 -0.070488885 0.12703165 -0.04635966 0.142857 -0.055780485
0.082875445 -0.0037481966 0.17860119 -0.19201463 0.49214074 0.10660014 0.14409903 0.2743972
0.28009316 0.29757816 -0.0010463791 -0.52284944 -0.047586013 -0.0051667565 -0.15388337 0.07435487
0.03714516 -0.013513344 -0.12267419 0.051869296 0.11097431 0.061480228 -0.0074724923 -0.18177834
-0.27012202 0.22662808 0.20974393 -0.41918162 0.17650518 -0.0528825 0.12238804 -0.008890353
0.16773629 0.00849999 0.24906349 -0.20079204 0.02168896 0.07545691 0.007684807 0.2363419
0.20654853 0.38245878 -0.025443796 -0.43702373 -0.08789891 0.0008007688 0.030978378 -0.028203452
-0.065124996 0.0040402557 0.20003203 0.09490645 -0.047242712 -0.06556757 -0.23214647 -0.1692184
-0.019441828 0.047466204 0.07646606 -0.08610319 0.013497897 -0.18980607 0.026017286 0.1832444
-0.09915787 -0.0519308 0.07399192 0.040906634 -0.24147889 0.1022584 -0.13453384 0.10985712
-0.07454658 0.18708223 -0.028840858 0.18834087 -0.0815958 -0.10360648 -0.056168955 0.08509873
0.21290644 0.028741585 0.082760684 -0.014520657 0.14971346 -0.24124798 -0.16750468 -0.41246182
-0.12536256 0.14874767 0.16984814 -0.19434518 0.15283224 -0.15314245 -0.0010954796 0.10751981
-0.19862165 0.12915713 -0.12383009 0.03728585 0.022240069 0.16767158 -0.22222555 -0.20267957
00000000: 2622 1a3e 0700 833e 84f9 4cbc cd8d 5dbe
00000010: 999d b73d a042 e63c 663a 72bd 953a e03d
00000020: dba4 523e 2b2d 60be 1683 753d 0eb6 97bc
00000030: 7e50 6f3e 9db7 1b3d 39b4 b1bd b4b0 b53c
00000040: 20db 633c c9df 083e b6ea 67ba a1e8 b03e
00000050: a10f 8ebd 3b84 593c 827b 19bd b2d7 333e
00000060: d778 4ebe 7c51 323d 24ae 9d3c fff6 04bd
00000070: 5624 8a3d 6c91 99be 55ca 983e 6de3 bdbd
00000080: 9431 59bd 76dc 77be ca1b 723d 6855 4a3e
00000090: 86dc 3bbd 196a 053e bf4c c53c 98ac 8dbc
000000a0: c518 8abd 877f a43d 81b9 cfbb eb13 a53e
000000b0: 5524 303e 82a9 973d eba2 4e3d c45f 063e
000000c0: 8ddf c73d 224b bdbd 7126 06be 7fa2 0c3e
000000d0: 4a7b 7ebe 3e24 9f3e bfd9 c7bd bbf9 eb3d
000000e0: 445d 413a 32d7 e2bd b4a6 573e 22f7 eb3d
000000f0: 11f5 7abe 32a3 d33c fb18 1dbe 6721 b5be
00000100: 7815 963d b6cc e23c 3121 783e 649f 98be
00000110: 39f0 febd 1a7c fdbd 06a4 b23d 4c2a 31bd
00000120: c2fb 923e 877c 91be 0436 ffbc 9dc8 38be
00000130: beb1 19be 9027 0a3e d54f bfbd 01a4 0e3e
00000140: 8365 c7bd 0fa1 a6bd 78cf ee3d d1df bebb
00000150: 4f5f 283e 6846 aabc 2342 783e 7198 173e
00000160: e4e5 b8bd 2884 da3c 4166 e53b 3fdf 35bd
00000170: f0dc 493d bb67 8d3d f7de 8cbd 7784 98bd
00000180: 4f02 713e 456c 43bd 6634 85bd 70ee 94be
00000190: 19d9 0bbe dea7 4b3d 8512 a5bc 60eb 66bd
000001a0: c0f6 333d 96b5 54be 1e5d 2abe c751 58be
000001b0: ec49 b7bd b42f 49be 1aa9 ab3e 05ae 6b3e
000001c0: 0b6c 62bd 52fb 4ebe 2f56 ffbd 0638 0f3e
000001d0: afcc 753e b15e 1cbe 4f95 1c3e 8247 fa3d
000001e0: 0578 85bc 6ccc 8d3c 8129 92bd 109c 9dbe
000001f0: 84de 88be a166 b4bd 62b1 40be fbe2 9fbe
00000200: e871 5f3e bc19 ea3d 61fe f33d d28a be3d
00000210: d0eb 7ebe 22b0 f2bd 6510 85be 18ec 94be
00000220: 3129 90be 3cc5 f2ba ddec 063e 31cc de3c
00000230: 412a 553d 28ae 76be 6c71 4b3b eb89 9cbe
00000240: 31de cdbd 11cd f63d 8296 bd3d 7a5c 90bd
00000250: 9614 023e a0e3 3dbd 1b49 123e 147a 64bd
00000260: 9aba a93d 4ea4 75bb 3be3 363e 7c9f 44be
00000270: dff9 fb3e 2d51 da3d b28e 133e ca7d 8c3e
00000280: 5f68 8f3e 2a5c 983e a826 89ba 76d9 05bf
00000290: 8de9 42bd e54d a9bb 9a93 1dbe 5e47 983d
000002a0: 8625 183d 1367 5dbc 9b3c fbbd e674 543d
000002b0: 8046 e33d b1d2 7b3d cfdb f4bb 1a24 3abe
000002c0: 6f4d 8abe 3111 683e 1dc7 563e f99e d6be
000002d0: c6bd 343e 529b 58bd 95a6 fa3d d8a8 11bc
000002e0: 10c3 2b3e 8b43 0b3c 800a 7f3e 6e9c 4dbe
000002f0: 0cad b13c 2789 9a3d d5d0 fb3b 9c03 723e
00000300: 7581 533e a3d1 c33e 826f d0bc 93c1 dfbe
00000310: 5804 b4bd afea 513a 5ec6 fd3c ed0a e7bc
00000320: 4160 85bd 1f64 843b 32d5 4c3e 505e c23d
00000330: 9381 41bd 4a48 86bd ceb7 6dbe 9747 2dbe
00000340: 7844 9fbc ec6b 423d 3d9a 9c3d df56 b0bd
00000350: 4926 5d3c 865c 42be 3422 d53c 6ca4 3b3e
00000360: 4813 cbbd 64b5 54bd 1389 973d b78d 273d
00000370: 3e46 77be da6c d13d 3dc3 09be c5fc e03d
00000380: e1ab 98bd 7c92 3f3e aa43 ecbc 6edc 403e
00000390: b31b a7bd a22f d4bd 6b11 66bd 3e48 ae3d
000003a0: 2504 5a3e 7973 eb3c 6f7e a93d 0de8 6dbc
000003b0: 7c4e 193e b609 77be 5986 2bbe 322e d3be
000003c0: 0b5f 00be 4f51 183e acec 2d3e 6c02 47be
000003d0: 0e80 1c3e 60d1 1cbe 3296 8fba 5933 dc3d
000003e0: 7963 4bbe c441 043e a19a fdbd 0cb9 183d
000003f0: ce30 b63c 19b2 2b3e 188f 63be 3c8b 4fbe

blocks.0.mha.out_proj.bias f4 [32]
0.11899632 0.22739047 0.1094531 0.079033345 0.047470186 0.0712419 0.1814646 0.078876
-0.08607845 -0.15376727 -0.056405015 0.124188 -0.09461936 -0.3683632 -0.11080422 -0.24311998
-0.1604481 -0.25795108 0.42668375 -0.26674116 0.18262972 -0.04709479 0.13955174 -0.063592985
0.08460436 -0.18519981 0.18064779 -0.08496911 0.036550887 0.09945028 -0.051200133 0.16912098
00000000: 58b4 f33d 0cd9 683e f228 e03d 3cdc a13d
00000010: 1970 423d 46e7 913d dbd1 393e be89 a13d
00000020: e649 b0bd 2b75 1dbe f208 67bd 4756 fe3d
00000030: ccc7 c1bd 1a9a bcbe 53ed e2bd 72f4 78be
00000040: 824c 24be 2a12 84be 4b76 da3e 4c92 88be
00000050: 4903 3b3e 77e6 40bd a7e6 0e3e 0a3d 82bd
00000060: 0d45 ad3d 05a5 3dbe bcfb 383e 4904 aebd
00000070: 62b6 153d 97ac cb3d 3bb7 51bd 0d2e 2d3e

blocks.0.ln.weight f4 [81, 32]
1.0 1.0 1.0 1.0 1.0 1.0 1.0 1.0
1.0 1.0 1.0 1.0 1.0 1.0 1.0 1.0
1.0 1.0 1.0 1.0 1.0 1.0 1.0 1.0
1.0 1.0 1.0 1.0 1.0 1.0 1.0 1.0
1.0 1.0 1.0 1.0 1.0 1.0 1.0 1.0
1.0 1.0 1.0 1.0 1.0 1.0 1.0 1.0
1.0 1.0 1.0 1.0 1.0 1.0 1.0 1.0
1.0 1.0 1.0 1.0 1.0 1.0 1.0 1.0
1.0 1.0 1.0 1.0 1.0 1.0 1.0 1.0
1.0 1.0 1.0 1.0 1.0 1.0 1.0 1.0
1.0 1.0 1.0 1.0 1.0 1.0 1.0 1.0
1.0 1.0 1.0 1.0 1.0 1.0 1.0 1.0
1.0 1.0 1.0 1.0 1.0 1.0 1.0 1.0
1.0 1.0 1.0 1.0 1.0 1.0 1.0 1.0
1.0 1.0 1.0 1.0 1.0 1.0 1.0 1.0
1.0 1.0 1.0 1.0 1.0 1.0 1.0 1.0
1.0 1.0 1.0 1.0 1.0 1.0 1.0 1.0
1.0 1.0 1.0 1.0 1.0 1.0 1.0 1.0
1.0 1.0 1.0 1.0 1.0 1.0 1.0 1.0
1.0 1.0 1.0 1.0 1.0 1.0 1.0 1.0
1.0 1.0 1.0 1.0 1.0 1.0 1.0 1.0
1.0 1.0 1.0 1.0 1.0 1.0 1.0 1.0
1.0 1.0 1.0 1.0 1.0 1.0 1.0 1.0
1.0 1.0 1.0 1.0 1.0 1.0 1.0 1.0
1.0 1.0 1.0 1.0 1.0 1.0 1.0 1.0
1.0 1.0 1.0 1.0 1.0 1.0 1.0 1.0
1.0 1.0 1.0 1.0 1.0 1.0 1.0 1.0
1.0 1.0 1.0 1.0 1.0 1.0 1.0 1.0
1.0 1.0 1.0 1.0 1.0 1.0 1.0 1.0
1.0 1.0 1.0 1.0 1.0 1.0 1.0 1.0
1.0 1.0 1.0 1.0 1.0 1.0 1.0 1.0
1.0 1.0 1.0 1.0 1.0 1.0 1.0 1.0
00000000: 0000 803f 0000 803f 0000 803f 0000 803f
00000010: 0000 803f 0000 803f 0000 803f 0000 803f
00000020: 0000 803f 0000 803f 0000 803f 0000 803f
00000030: 0000 803f 0000 803f 0000 803f 0000 803f
00000040: 0000 803f 0000 803f 0000 803f 0000 803f
00000050: 0000 803f 0000 803f 0000 803f 0000 803f
00000060: 0000 803f 0000 803f 0000 803f 0000 803f
00000070: 0000 803f 0000 803f 0000 803f 0000 803f
00000080: 0000 803f 0000 803f 0000 803f 0000 803f
00000090: 0000 803f 0000 803f 0000 803f 0000 803f
000000a0: 0000 803f 0000 803f 0000 803f 0000 803f
000000b0: 0000 803f 0000 803f 0000 803f 0000 803f
000000c0: 0000 803f 0000 803f 0000 803f 0000 803f
000000d0: 0000 803f 0000 803f 0000 803f 0000 803f
000000e0: 0000 803f 0000 803f 0000 803f 0000 803f
000000f0: 0000 803f 0000 803f 0000 803f 0000 803f
00000100: 0000 803f 0000 803f 0000 803f 0000 803f
00000110: 0000 803f 0000 803f 0000 803f 0000 803f
00000120: 0000 803f 0000 803f 0000 803f 0000 803f
00000130: 0000 803f 0000 803f 0000 803f 0000 803f
00000140: 0000 803f 0000 803f 0000 803f 0000 803f
00000150: 0000 803f 0000 803f 0000 803f 0000 803f
00000160: 0000 803f 0000 803f 0000 803f 0000 803f
00000170: 0000 803f 0000 803f 0000 803f 0000 803f
00000180: 0000 803f 0000 803f 0000 803f 0000 803f
00000190: 0000 803f 0000 803f 0000 803f 0000 803f
000001a0: 0000 803f 0000 803f 0000 803f 0000 803f
000001b0: 0000 803f 0000 803f 0000 803f 0000 803f
000001c0: 0000 803f 0000 803f 0000 803f 0000 803f
000001d0: 0000 803f 0000 803f 0000 803f 0000 803f
000001e0: 0000 803f 0000 803f 0000 803f 0000 803f
000001f0: 0000 803f 0000 803f 0000 803f 0000 803f
00000200: 0000 803f 0000 803f 0000 803f 0000 803f
00000210: 0000 803f 0000 803f 0000 803f 0000 803f
00000220: 0000 803f 0000 803f 0000 803f 0000 803f
00000230: 0000 803f 0000 803f 0000 803f 0000 803f
00000240: 0000 803f 0000 803f 0000 803f 0000 803f
00000250: 0000 803f 0000 803f 0000 803f 0000 803f
00000260: 0000 803f 0000 803f 0000 803f 0000 803f
00000270: 0000 803f 0000 803f 0000 803f 0000 803f
00000280: 0000 803f 0000 803f 0000 803f 0000 803f
00000290: 0000 803f 0000 803f 0000 803f 0000 803f
000002a0: 0000 803f 0000 803f 0000 803f 0000 803f
000002b0: 0000 803f 0000 803f 0000 803f 0000 803f
000002c0: 0000 803f 0000 803f 0000 803f 0000 803f
000002d0: 0000 803f 0000 803f 0000 803f 0000 803f
000002e0: 0000 803f 0000 803f 0000 803f 0000 803f
000002f0: 0000 803f 0000 803f 0000 803f 0000 803f
00000300: 0000 803f 0000 803f 0000 803f 0000 803f
00000310: 0000 803f 0000 803f 0000 803f 0000 803f
00000320: 0000 803f 0000 803f 0000 803f 0000 803f
00000330: 0000 803f 0000 803f 0000 803f 0000 803f
00000340: 0000 803f 0000 803f 0000 803f 0000 803f
00000350: 0000 803f 0000 803f 0000 803f 0000 803f
00000360: 0000 803f 0000 803f 0000 803f 0000 803f
00000370: 0000 803f 0000 803f 0000 803f 0000 803f
00000380: 0000 803f 0000 803f 0000 803f 0000 803f
00000390: 0000 803f 0000 803f 0000 803f 0000 803f
000003a0: 0000 803f 0000 803f 0000 803f 0000 803f
000003b0: 0000 803f 0000 803f 0000 803f 0000 803f
000003c0: 0000 803f 0000 803f 0000 803f 0000 803f
000003d0: 0000 803f 0000 803f 0000 803f 0000 803f
000003e0: 0000 803f 0000 803f 0000 803f 0000 803f
000003f0: 0000 803f 0000 803f 0000 803f 0000 803f

blocks.0.ln.bias f4 [81, 32]
0.0 0.0 0.0 0.0 0.0 0.0 0.0 0.0
0.0 0.0 0.0 0.0 0.0 0.0 0.0 0.0
0.0 0.0 0.0 0.0 0.0 0.0 0.0 0.0
0.0 0.0 0.0 0.0 0.0 0.0 0.0 0.0
0.0 0.0 0.0 0.0 0.0 0.0 0.0 0.0
0.0 0.0 0.0 0.0 0.0 0.0 0.0 0.0
0.0 0.0 0.0 0.0 0.0 0.0 0.0 0.0
0.0 0.0 0.0 0.0 0.0 0.0 0.0 0.0
0.0 0.0 0.0 0.0 0.0 0.0 0.0 0.0
0.0 0.0 0.0 0.0 0.0 0.0 0.0 0.0
0.0 0.0 0.0 0.0 0.0 0.0 0.0 0.0
0.0 0.0 0.0 0.0 0.0 0.0 0.0 0.0
0.0 0.0 0.0 0.0 0.0 0.0 0.0 0.0
0.0 0.0 0.0 0.0 0.0 0.0 0.0 0.0
0.0 0.0 0.0 0.0 0.0 0.0 0.0 0.0
0.0 0.0 0.0 0.0 0.0 0.0 0.0 0.0
0.0 0.0 0.0 0.0 0.0 0.0 0.0 0.0
0.0 0.0 0.0 0.0 0.0 0.0 0.0 0.0
0.0 0.0 0.0 0.0 0.0 0.0 0.0 0.0
0.0 0.0 0.0 0.0 0.0 0.0 0.0 0.0
0.0 0.0 0.0 0.0 0.0 0.0 0.0 0.0
0.0 0.0 0.0 0.0 0.0 0.0 0.0 0.0
0.0 0.0 0.0 0.0 0.0 0.0 0.0 0.0
0.0 0.0 0.0 0.0 0.0 0.0 0.0 0.0
0.0 0.0 0.0 0.0 0.0 0.0 0.0 0.0
0.0 0.0 0.0 0.0 0.0 0.0 0.0 0.0
0.0 0.0 0.0 0.0 0.0 0.0 0.0 0.0
0.0 0.0 0.0 0.0 0.0 0.0 0.0 0.0
0.0 0.0 0.0 0.0 0.0 0.0 0.0 0.0
0.0 0.0 0.0 0.0 0.0 0.0 0.0 0.0
0.0 0.0 0.0 0.0 0.0 0.0 0.0 0.0
0.0 0.0 0.0 0.0 0.0 0.0 0.0 0.0
00000000: 0000 0000 0000 0000 0000 0000 0000 0000
00000010: 0000 0000 0000 0000 0000 0000 0000 0000
00000020: 0000 0000 0000 0000 0000 0000 0000 0000
00000030: 0000 0000 0000 0000 0000 0000 0000 0000
00000040: 0000 0000 0000 0000 0000 0000 0000 0000
00000050: 0000 0000 0000 0000 0000 0000 0000 0000
00000060: 0000 0000 0000 0000 0000 0000 0000 0000
00000070: 0000 0000 0000 0000 0000 0000 0000 0000
00000080: 0000 0000 0000 0000 0000 0000 0000 0000
00000090: 0000 0000 0000 0000 0000 0000 0000 0000
000000a0: 0000 0000 0000 0000 0000 0000 0000 0000
000000b0: 0000 0000 0000 0000 0000 0000 0000 0000
000000c0: 0000 0000 0000 0000 0000 0000 0000 0000
000000d0: 0000 0000 0000 0000 0000 0000 0000 0000
000000e0: 0000 0000 0000 0000 0000 0000 0000 0000
000000f0: 0000 0000 0000 0000 0000 0000 0000 0000
00000100: 0000 0000 0000 0000 0000 0000 0000 0000
00000110: 0000 0000 0000 0000 0000 0000 0000 0000
00000120: 0000 0000 0000 0000 0000 0000 0000 0000
00000130: 0000 0000 0000 0000 0000 0000 0000 0000
00000140: 0000 0000 0000 0000 0000 0000 0000 0000
00000150: 0000 0000 0000 0000 0000 0000 0000 0000
00000160: 0000 0000 0000 0000 0000 0000 0000 0000
00000170: 0000 0000 0000 0000 0000 0000 0000 0000
00000180: 0000 0000 0000 0000 0000 0000 0000 0000
00000190: 0000 0000 0000 0000 0000 0000 0000 0000
000001a0: 0000 0000 0000 0000 0000 0000 0000 0000
000001b0: 0000 0000 0000 0000 0000 0000 0000 0000
000001c0: 0000 0000 0000 0000 0000 0000 0000 0000
000001d0: 0000 0000 0000 0000 0000 0000 0000 0000
000001e0: 0000 0000 0000 0000 0000 0000 0000 0000
000001f0: 0000 0000 0000 0000 0000 0000 0000 0000
00000200: 0000 0000 0000 0000 0000 0000 0000 0000
00000210: 0000 0000 0000 0000 0000 0000 0000 0000
00000220: 0000 0000 0000 0000 0000 0000 0000 0000
00000230: 0000 0000 0000 0000 0000 0000 0000 0000
00000240: 0000 0000 0000 0000 0000 0000 0000 0000
00000250: 0000 0000 0000 0000 0000 0000 0000 0000
00000260: 0000 0000 0000 0000 0000 0000 0000 0000
00000270: 0000 0000 0000 0000 0000 0000 0000 0000
00000280: 0000 0000 0000 0000 0000 0000 0000 0000
00000290: 0000 0000 0000 0000 0000 0000 0000 0000
000002a0: 0000 0000 0000 0000 0000 0000 0000 0000
000002b0: 0000 0000 0000 0000 0000 0000 0000 0000
000002c0: 0000 0000 0000 0000 0000 0000 0000 0000
000002d0: 0000 0000 0000 0000 0000 0000 0000 0000
000002e0: 0000 0000 0000 0000 0000 0000 0000 0000
000002f0: 0000 0000 0000 0000 0000 0000 0000 0000
00000300: 0000 0000 0000 0000 0000 0000 0000 0000
00000310: 0000 0000 0000 0000 0000 0000 0000 0000
00000320: 0000 0000 0000 0000 0000 0000 0000 0000
00000330: 0000 0000 0000 0000 0000 0000 0000 0000
00000340: 0000 0000 0000 0000 0000 0000 0000 0000
00000350: 0000 0000 0000 0000 0000 0000 0000 0000
00000360: 0000 0000 0000 0000 0000 0000 0000 0000
00000370: 0000 0000 0000 0000 0000 0000 0000 0000
00000380: 0000 0000 0000 0000 0000 0000 0000 0000
00000390: 0000 0000 0000 0000 0000 0000 0000 0000
000003a0: 0000 0000 0000 0000 0000 0000 0000 0000
000003b0: 0000 0000 0000 0000 0000 0000 0000 0000
000003c0: 0000 0000 0000 0000 0000 0000 0000 0000
000003d0: 0000 0000 0000 0000 0000 0000 0000 0000
000003e0: 0000 0000 0000 0000 0000 0000 0000 0000
000003f0: 0000 0000 0000 0000 0000 0000 0000 0000

blocks.0.ffn.0.weight f4 [81, 32]
0.82037663 0.9656736 1.1646029 1.3645751 0.88538367 0.8410761 0.6914014 0.7379297
0.84514344 0.96269333 0.93325734 1.4502954 0.99471974 1.088827 0.94256085 0.36350644
0.6841911 0.45476812 1.0578939 0.7468842 0.74655515 0.45901152 0.6993347 0.7293067
0.7547837 1.0309966 0.9168089 1.0360056 0.69424844 1.1463261 1.0909287 0.9126229
0.9769877 0.9459195 1.1357229 1.1358716 0.917226 1.2637424 1.0690929 1.0177696
0.9941348 1.2266958 1.0599666 1.1687957 0.9531005 1.0445476 0.59778214 1.2192563
0.97916096 0.7171137 1.1155173 0.9302497 1.2281953 0.76727057 0.89208883 0.6890013
1.2192535 1.0317479 1.0211352 1.0066211 0.97775066 1.0715659 1.0594466 1.0284208
0.99901444 0.9471126 1.0568331 0.987403 0.903114 1.3680694 0.96960247 1.0727202
0.99623394 1.1567459 0.8389029 1.2760252 1.1099526 1.251645 0.65865505 1.0790904
0.88218105 0.7796807 1.0630747 0.89258957 1.3116201 0.88446045 0.6358125 0.6653053
1.0143781 1.0669235 1.0100003 1.2534801 1.2150313 0.93784714 1.0676192 1.2030988
0.8655261 0.8718134 1.0331898 1.0163432 0.91219574 1.1232451 1.2605855 0.93354684
0.94402844 1.0191774 0.78859264 1.1949853 0.8538572 1.2327571 0.49691713 1.215783
1.0554699 0.792775 1.3257186 0.90232724 1.1353776 0.77642393 0.7486059 0.79638344
1.2126641 1.0495963 0.9643776 1.1412194 0.91412723 1.0590606 1.0324757 1.1943039
0.7473963 1.0079892 1.1054971 1.0641392 0.90421826 1.2667216 1.1251016 0.9508778
1.0092804 1.1587421 0.9585667 1.1016464 1.0782318 1.0258323 0.66831404 1.3853126
1.1355143 0.8056208 1.3805205 0.80498433 1.0827315 0.97479993 0.7569607 0.84511524
1.2068585 1.1489366 0.65614134 1.1778333 0.99812 1.1147659 1.1071271 1.2305703
1.0108553 1.005779 1.1131082 1.178303 1.0012565 0.88785374 0.92521745 0.8556299
0.74961823 1.1141475 1.025575 1.2184331 1.0082989 0.91763675 0.8512534 1.2327884
0.96367717 0.7890402 1.3399726 0.9360525 1.0551523 0.7947622 0.98196244 1.0496556
0.7305482 1.0001024 1.0598153 0.8189662 0.840742 0.9836601 1.1344969 1.0739044
0.79570764 0.8308853 0.986926 0.92173237 0.86254036 1.2961228 1.1430866 0.8559112
1.0775537 1.2139672 0.75931185 0.90343803 1.0204195 1.2165139 0.6598364 1.495607
0.51762885 0.6670262 1.5887601 0.91305 1.164345 1.0747908 1.0867469 0.88608694
1.0895785 1.2345372 1.0248175 1.0461322 0.8445869 1.207397 1.1491877 1.1919873
0.9307574 1.0682629 1.123556 1.1430497 1.0918127 0.99549514 1.0223821 1.0498031
0.81327474 0.91795003 1.0909861 1.0897754 0.9482239 0.98475176 0.9178695 1.1929597
0.75633574 0.91278285 1.3239685 0.93533033 0.8632989 0.8987936 0.9264753 1.1444228
1.012036 1.0761694 1.2046108 0.9688334 0.8727251 1.1120099 1.0733969 1.116714
00000000: 3404 523f 6336 773f b511 953f 66aa ae3f
00000010: 81a8 623f c350 573f afff 303f f6e8 3c3f
00000020: 525b 583f 1273 763f f4e9 6e3f 48a3 b93f
00000030: f4a5 7e3f af5e 8b3f ab4b 713f 841d ba3e
00000040: 2627 2f3f 5ed7 e83e 1169 873f ce33 3f3f
00000050: 3d1e 3f3f 8f03 eb3e 9907 333f d8b3 3a3f
00000060: 8139 413f b2f7 833f fdb3 6a3f d59b 843f
00000070: 44ba 313f d0ba 923f 8da3 8b3f a8a1 693f
00000080: de1b 7a3f c827 723f 5e5f 913f 3e64 913f
00000090: 53cf 6a3f 50c2 a13f 09d8 883f 4646 823f
000000a0: 9e7f 7e3f 5e04 9d3f fcac 873f 199b 953f
000000b0: 65fe 733f bcb3 853f 4008 193f 9710 9c3f
000000c0: 4baa 7a3f c394 373f 45c9 8e3f d824 6e3f
000000d0: 8135 9d3f d86b 443f ef5f 643f 6462 303f
000000e0: 8010 9c3f 5110 843f 8fb4 823f f6d8 803f
000000f0: de4d 7a3f 1229 893f f29b 873f 4ba3 833f
00000100: 69bf 7f3f f975 723f 4f46 873f 71c6 7c3f
00000110: 7b32 673f e61c af3f de37 783f e54e 893f
00000120: 3009 7f3f 4010 943f 57c2 563f cb54 a33f
00000130: ed12 8e3f e735 a03f 9e9d 283f a21f 8a3f
00000140: 9ed6 613f 2899 473f d512 883f c080 643f
00000150: 2be3 a73f 006c 623f 9cc4 223f 7351 2a3f
00000160: 24d7 813f f390 883f b147 813f 0972 a03f
00000170: 2586 9b3f c016 703f bfa7 883f 24ff 993f
00000180: 1e93 5d3f 2a2f 5f3f 903f 843f 8917 823f
00000190: a985 693f 7fc6 8f3f de5a a13f edfc 6e3f
000001a0: d9ab 713f 6874 823f 35e1 493f 47f5 983f
000001b0: 6396 5a3f fcca 9d3f ec6b fe3e c79e 9b3f
000001c0: a319 873f 4df3 4a3f 26b1 a93f ebfe 663f
000001d0: 0e54 913f b8c3 463f a3a4 3f3f c9df 4b3f
000001e0: 9438 9b3f 2c59 863f 73e1 763f 7a13 923f
000001f0: 3e04 6a3f 4c8f 873f 2a28 843f f3de 983f
00000200: 5d55 3f3f ca05 813f ee80 8d3f b735 883f
00000210: d97a 673f ef23 a23f 5403 903f ba6c 733f
00000220: 1a30 813f a951 943f a164 753f c002 8d3f
00000230: 8003 8a3f 794e 833f a116 2b3f ec51 b13f
00000240: 8858 913f 2a3d 4e3f e5b4 b03f 7413 4e3f
00000250: f296 8a3f 7d8c 793f 2dc8 413f 7959 583f
00000260: 577a 9a3f 5b10 933f e1f8 273f 3ec3 963f
00000270: cb84 7f3f a6b0 8e3f 57b6 8d3f 5483 9d3f
00000280: b563 813f 5ebd 803f 547a 8e3f a2d2 963f
00000290: 2c29 803f 624a 633f 0ddb 6c3f 900a 5b3f
000002a0: fbe6 3f3f 639c 8e3f 0b46 833f 9ef5 9b3f
000002b0: f00f 813f 3eea 6a3f beeb 593f 03cc 9d3f
000002c0: 8cb3 763f 8afe 493f 3984 ab3f 23a1 6f3f
000002d0: 3b0f 873f 8975 4b3f e461 7b3f 1d5b 863f
000002e0: 3505 3b3f 5b03 803f 07a8 873f c5a7 513f
000002f0: de3a 573f 26d1 7b3f 3237 913f b375 893f
00000300: 7fb3 4b3f e6b4 543f 2fa7 7c3f a7f6 6b3f
00000310: 72cf 5c3f 5ae7 a53f a950 923f ff1c 5b3f
00000320: 48ed 893f 4763 9b3f 4362 423f b747 673f
00000330: 1b9d 823f bab6 9b3f 0aeb 283f 0d70 bf3f
00000340: 5383 043f 3bc2 2a3f 7e5c cb3f a5bd 693f
00000350: 4209 953f bf92 893f 861a 8b3f 98d6 623f
00000360: 4f77 8b3f 5105 9e3f 382d 833f a9e7 853f
00000370: d936 583f fc8b 9a3f 9518 933f 0a93 983f
00000380: 1e46 6e3f d7bc 883f afd0 8f3f 744f 923f
00000390: 85c0 8b3f c5d8 7e3f 6bdd 823f f35f 863f
000003a0: c632 503f c6fe 6a3f 6fa5 8b3f c37d 8b3f
000003b0: cdbe 723f b118 7c3f 7ff9 6a3f e7b2 983f
000003c0: 389f 413f 23ac 693f cd77 a93f cf71 6f3f
000003d0: 2801 5d3f 5617 663f 7c2d 6d3f 727c 923f
000003e0: 658a 813f ebbf 893f b030 9a3f 7705 783f
000003f0: ea6a 5f3f 5756 8e3f 1265 893f 7cf0 8e3f

blocks.0.ffn.0.bias f4 [81, 32]
-0.18681426 -0.2681253 0.11121199 -0.079382315 -0.004258389 -0.2390469 -0.2806098 -0.63411486
0.27725935 -0.24405488 -0.052902512 0.40431347 -0.14808542 -0.199012 0.25920913 -0.11000478
0.6777051 0.7829477 -0.034938965 -0.25169533 -0.16341794 -0.1641963 -0.027650911 -0.31420374
-0.120628394 -0.42575002 0.06346094 -0.005516749 -0.14546737 0.08878591 0.14427032 -0.48586693
-0.31232873 -0.23594308 0.10416709 -0.07140125 0.02331066 -0.07339281 -0.17071652 -0.19083406
-0.14255674 0.09087348 0.13202846 0.23060714 0.07547308 -0.20816559 0.4219896 -0.1034701
0.69842905 0.44314316 -0.25898737 0.007383742 -0.5406533 -0.026938787 -0.024378708 -0.24062671
-0.030977752 -0.31160218 0.08927358 0.0013884847 -0.15011126 0.1074326 0.12454456 -0.21740869
-0.41709194 -0.25518757 0.07636305 -0.1012005 -0.10182259 -0.1802456 -0.17047383 -0.2747379
-0.024203904 -0.18066017 0.23083355 0.112776116 -0.050215427 -0.18872859 0.49394983 -0.27351043
0.7086167 0.45233288 -0.1990664 -0.14208859 -0.3334122 0.0037262246 0.06754084 -0.25837734
-0.04344934 -0.313407 0.20402548 0.055682223 -0.26985583 0.1447955 0.07418276 -0.26998097
-0.30574077 -0.30890927 -0.025069095 -0.09483228 -0.04775014 -0.114261895 -0.07945621 -0.29459462
-0.13215314 -0.16006546 0.17586204 0.07275613 0.03009701 -0.15703066 0.30424598 -0.15960394
0.6012974 0.6620518 -0.14475648 -0.06751707 -0.34153664 -0.08651829 -0.069054335 -0.34658182
-0.19759148 -0.23012961 0.051365063 -9.3438626e-05 -0.11187087 0.1130034 0.13649505 -0.27793962
-0.13246895 -0.2883359 0.14100617 -0.061975125 -0.06468027 -0.09101305 -0.067362264 -0.04868762
-0.17734618 -0.07174822 0.19237344 -0.01145276 -0.07566906 -0.22954677 0.3461174 -0.2857442
0.56033534 0.34386623 0.012389865 -0.17416252 -0.23524815 -0.04440123 0.07836656 -0.006087424
-0.06291494 -0.43567833 0.112997696 0.09102108 -0.12957908 0.14726494 0.16228102 -0.07613597
-0.18879898 -0.3067485 -0.026871799 -0.01981503 0.11099219 -0.22502019 -0.043420132 -0.10895032
-0.046959814 -0.12788048 0.06723112 0.05714066 -0.03471108 -0.04504951 0.09832124 -0.27298987
0.43878084 0.16812435 -0.1119566 -0.045458287 -0.1536976 -0.099095844 -0.055991806 -0.16970277
-0.14416976 -0.36792174 -0.063789 -0.04588443 0.013923828 -0.019879354 0.0312788 -0.21614318
-0.11549106 -0.2695033 0.07762351 -0.12845404 0.024101254 -0.048869863 0.1398569 -0.103076845
-0.12728031 -0.1688398 0.11898906 -0.07361698 -0.019311687 -0.14787585 0.2634707 -0.2487451
0.35808182 0.18574055 0.0543587 -0.11104983 -0.20120668 -0.05182271 0.0861482 -0.07684055
-0.04341267 -0.31652397 0.017664721 0.14398187 -0.12558974 0.049604706 0.15396306 -0.044955026
-0.115503624 -0.2058129 0.021977434 -0.08974326 0.011464041 -0.1369053 -0.0021063287 -0.062887914
0.087272435 -0.080295 0.09015417 0.098332725 -0.044917107 -0.020839663 0.20589247 -0.25027972
0.38287443 0.15828848 -0.113009244 -0.089187056 -0.20835166 -0.119381405 -0.07108736 -0.23229973
-0.048285197 -0.28643414 -0.00055746024 -0.031923868 0.017773168 0.037637733 0.1101033 -0.12499081
00000000: 3d4c 3fbe b847 89be 1dc3 e33d 3293 a2bd
00000010: f589 8bbb b6c8 74be 16ac 8fbe 5a55 22bf
00000020: f0f4 8d3e 86e9 79be 4eb0 58bd 2d02 cf3e
00000030: b4a3 17be cdc9 4bbe 0fb7 843e 304a e1bd
00000040: 157e 2d3f 436f 483f 291c 0fbd 36de 80be
00000050: 0857 27be 1323 28be 2a84 e2bc 50df a0be
00000060: 050c f7bd e8fb d9be cff7 813d d8c5 b4bb
00000070: 66f5 14be 63d5 b53d 99bb 133e 8dc3 f8be
00000080: 8de9 9fbe 109b 71be 8e55 d53d d23a 92bd
00000090: fff5 be3c f84e 96bd 50d0 2ebe 016a 43be
000000a0: 65fa 11be e01b ba3d 7832 073e 4724 6c3e
000000b0: a191 9a3d 5c29 55be 050f d83e 22e8 d3bd
000000c0: 3fcc 323f a9e3 e23e fe99 84be 51f3 f13b
000000d0: 4168 0abf bbae dcbc dbb5 c7bc d966 76be
000000e0: 0ec5 fdbc 528a 9fbe 11d5 b63d d1fd b53a
000000f0: c4b6 19be 9f05 dc3d 3811 ff3d 62a0 5ebe
00000100: 138d d5be f2a7 82be 3b64 9c3d 3542 cfbd
00000110: 5d88 d0bd 4d92 38be b190 2ebe 72aa 8cbe
00000120: 4447 c6bc fbfe 38be a15f 6c3e 2af7 e63d
00000130: b1ae 4dbd 1142 41be fee6 fc3e 8f09 8cbe
00000140: e767 353f 2d98 e73e 10d8 4bbe ac7f 11be
00000150: 01b5 aabe ad33 743b da52 8a3d 094a 84be
00000160: eff7 31bd e276 a0be 0eec 503e 0b13 643d
00000170: 8b2a 8abe 4645 143e 22ed 973d f23a 8abe
00000180: 0e8a 9cbe 5b29 9ebe b45d cdbc 6d37 c2bd
00000190: a795 43bd 2402 eabd f0b9 a2bd 1bd5 96be
000001a0: 2753 07be 33e8 23be 2e15 343e 2a01 953d
000001b0: 018e f63c a5cc 20be 21c6 9b3e 376f 23be
000001c0: a0ee 193f 3a7c 293f 0b3b 14be 6446 8abd
000001d0: e4dd aebe 8030 b1bd 5c6c 8dbd 2c73 b1be
000001e0: 6c55 4abe 19a7 6bbe 2c64 523d 7bf4 c3b8
000001f0: 8e1c e5bd 546e e73d 5cc5 0b3e 1a4e 8ebe
00000200: f1a5 07be c3a0 93be ec63 103e a1d9 7dbd
00000210: 1777 84bd 0d65 babd 3af5 89bd ab6c 47bd
00000220: 3d9a 35be bbf0 92bd 8bfd 443e 5ba4 3bbc
00000230: 61f8 9abd 4f0e 6bbe 4d36 b13e 104d 92be
00000240: 2372 0f3f 3c0f b03e dcfe 4a3c a957 32be
00000250: e4e4 70be 10de 35bd a67e a03d 0379 c7bb
00000260: 8cd9 80bd 3b11 dfbe 566b e73d 4369 ba3d
00000270: 61b0 04be 9fcc 163e ff2c 263e 2ded 9bbd
00000280: 8554 41be 240e 9dbe 3f22 dcbc 2153 a2bc
00000290: e04f e33d b16b 66be 4fd9 31bd 5821 dfbd
000002a0: ef58 40bd 1af3 02be 78b0 893d 530c 6a3d
000002b0: 352d 0ebd d685 38bd a55c c93d 54c5 8bbe
000002c0: e2a7 e03e ca28 2c3e 8049 e5bd 7832 3abd
000002d0: e762 1dbe c3f2 cabd aa57 65bd 90c6 2dbe
000002e0: 3da1 13be 3d60 bcbe cfa3 82bd 50f1 3bbd
000002f0: c420 643c 07da a2bc 331e 003d a354 5dbe
00000300: 9486 ecbd 56fc 89be 13f9 9e3d 7589 03be
00000310: fe6f c53c c42b 48bd a636 0f3e f419 d3bd
00000320: c555 02be 57e4 2cbe 89b0 f33d 80c4 96bd
00000330: 8b33 9ebc c46c 17be a2e5 863e 09b7 7ebe
00000340: 8056 b73e c532 3e3e 3aa7 5e3d 186e e3bd
00000350: 2009 4ebe 0d44 54bd 786e b03d 945e 9dbd
00000360: 7cd1 31bd 6e0f a2be 9bb5 903c fc6f 133e
00000370: 999a 00be 4e2e 4b3d 7ea8 1d3e c322 38bd
00000380: 2a8d ecbd 9ec0 52be 050a b43c 50cb b7bd
00000390: acd3 3b3c e730 0cbe 550a 0abb 61cb 80bd
000003a0: e4bb b23d b471 a4bd c0a2 b83d ab62 c93d
000003b0: 00fb 37bd f1b7 aabc 7ad5 523e aa24 80be
000003c0: 1e08 c43e 6016 223e 6471 e7bd b4a7 b6bd
000003d0: 235a 55be 3d7e f4bd 4096 91bd fbdf 6dbe
000003e0: b3c6 45bd 7fa7 92be 8622 12ba 9ac2 02bd
000003f0: 0999 913c 062a 1a3d d77d e13d 2ffb ffbd
