models/experiment_POLAR_N64_K32_transformer_d=32_N=2_nomask_lr=0.0003_epochs=200.pth (torch, 301245 bytes, 32 tensors)

embedding f4 [96, 32]
00000000: 0537 80be b94c 8bbe f492 b6bd 691b 4d3c
00000010: aa9d 8fbc 5b67 7bbd 2d23 7abe e1ee 823d
00000020: ca55 56be 6b7c c13c 591b 773d 8eb8 95bd
00000030: 1243 d7bd 7540 04be bc3a c9bd 5f7f 8f3e
00000040: 9e41 4f3e 44f3 dabd 468c aabe 1801 a13d
00000050: e997 00be b364 533e ea0a e03d 0a78 203d
00000060: f0eb b7bd 84a6 933d 7c44 0a3e 4066 b2be
00000070: 6c76 893c c0d9 83be 3670 9ebd 0478 c0bd
00000080: 4fa7 a43c eec3 cc3e 7c1f 0fbf 8424 b2be
00000090: 9be6 bdbc 7ac4 f5bd 1180 efbd 42bb cbbe
000000a0: 59e7 9a3e 6586 84bd 7c3c babe 8d75 0c3f
000000b0: dd11 823e e077 233d e85f e3bc d09e 27be
000000c0: 75c2 c6bc d622 4ebd ba33 7fbd ed4b 933e
000000d0: eda4 993d e07f b33d 011b 96be 6071 1c3e
000000e0: ebd9 0abe addd 8ebe 6184 883d 6355 70be
000000f0: 05fd b93e 3870 cbbc ee4f dabe fde0 61bb
00000100: 7a21 bcbd bf76 3d3d 59f0 f63d 89b4 563e
00000110: 1d9b f3bd ea60 f03d 994c 15bc dea1 3a3c
00000120: 8e20 e2bd b2b0 c7bd ea27 12bd bc86 663e
00000130: 49ca a63c 86b9 f23d e7ae 04bd 63e8 89bd
00000140: 2677 a0bd 7963 243e 0fc7 de3a b498 ab3d
00000150: 8c6d 92bd 8773 463d 4e17 b43b 0524 7b3d
00000160: f528 36be cfcb 65bc ff41 073d 94f3 fe3d
00000170: 50a8 15be 1cc7 c0bd d7a3 123e efc1 673d
00000180: 6243 7b3c 8f40 613e 1353 2abe 30ba 623d
00000190: 35fa 82be 380e 30bc 8e8b 61be 470c b0be
000001a0: 25c5 923e 8f10 8ebe b65e 39bc 529f ae3e
000001b0: 87b5 633e a6aa 973d 512d e73c 60a2 52be
000001c0: 43b1 8dbe 1cd6 69be f41b 633e 6d4a 953e
000001d0: 6e09 93b9 519b f93d 24d9 a3be 4ec5 713d
000001e0: b291 f9bd 3940 87be 9a0d 0fbe 1019 b5bd
000001f0: 5dc0 fd3b b8eb 783e 4c0c c2be 521a 393e
00000200: 11b8 8d3e 7966 313d 5874 023a 9dc8 07bd
00000210: 5bf7 0f3e e184 5d3c f59d 13bd c35b 6abe
00000220: 3adf 3ebc a2fd 2abe 1e32 da3d a13f c5bd
00000230: 6ee0 e8bd 8550 e63c da20 c4bd fc5b 55be
00000240: 415b c13c b176 df3d 5fe1 b13a 04e6 6c3d
00000250: 67ad e13d bdf8 75be 178a 98bd 49c3 823d
00000260: fd45 e0bc d80e 0ebe 0de7 be3d e1a2 2a3e
00000270: 70be aabb f2fb 6cbd 5b66 873d d5e5 d43b
00000280: f86a c5bd 501a 56bd e146 d53d bbe9 5c3e
00000290: 19f5 4dbe 503a 863c 6814 a83d 051a 393e
000002a0: 3ff6 143d c3e9 4abe 4aa4 1f3d b466 13be
000002b0: c22e 083b fdd0 203e e53f e13d 5ca4 15be
000002c0: 8c60 023e 56fb 223e d24a 663e 310c f3bc
000002d0: 59ea 80bc 5728 64be 28ff 423e e15d 27bd
000002e0: 3913 7d3c 2775 a2be b8d4 54bd 6394 9d3b
000002f0: d4c7 7cbe 03ba 0abe 18af 36be 905c 7a3e
00000300: f005 fcbd 1c21 d8bd 8fef 283e 2abd 543e
00000310: beb3 963d 8d25 b8bd bd01 9e3d ea04 d23d
00000320: e197 07be 7c2b 90be d0e0 91bd 9243 4bbe
00000330: ab52 01bd f577 553e 789c 8a3c 5158 85bd
00000340: 6c06 83be 50e4 9abd 93d1 c43d 0efd 623e
00000350: f2cb 503d 751a dcbd 6df2 883d a8c2 97bc
00000360: 350c 9dbd 3d82 ce3d 6f1b 54be 002a 783e
00000370: 1a0d b8bd fd84 61bd 20bd 043e 4d86 4dbd
00000380: 6128 943d 089f e63d e553 12be ebf7 1c3c
00000390: e659 43be 44b4 863e 229a 06be deab 02be
000003a0: 4f7b 6d3b 53ef 1abe 8585 20be c66c 4f3d
000003b0: 819b 1a3e 07f6 4dbe aa13 35be 4000 51be
000003c0: 29e7 a23d 1507 ec3d 7cb8 603e 8525 8d3e
000003d0: 177e aa3c 9bd5 8f3d ad8b cb3c de72 ecbd
000003e0: 85e6 33be 0708 aabd edb7 ecbd 384e 7abe
000003f0: abdc 85be 60f9 80be b854 80be 39f9 813d
-0.25041977 -0.27206972 -0.08914748 0.012518742 -0.017531235 -0.061377864 -0.24427481 0.06393219
-0.20931163 0.023618897 0.060328815 -0.07310592 -0.105108395 -0.12915213 -0.09825656 0.28026864
0.20239875 -0.106909305 -0.33310145 0.07861537 -0.12557949 0.20643882 0.10939582 0.03917698
-0.089805484 0.07209495 0.13502687 -0.34843636 0.0167801 -0.25752068 -0.07736246 -0.09397891
0.02009931 0.39993232 -0.55907416 -0.34793484 -0.02318125 -0.120003656 -0.116943486 -0.39791304
0.3025463 -0.06470946 -0.3637427 0.5486687 0.25404254 0.039909244 -0.027755693 -0.16369176
-0.024262646 -0.05032619 -0.06230519 0.28768864 0.0750216 0.087646246 -0.29317477 0.15277624
-0.13559692 -0.279035 0.06665874 -0.23470072 0.3632585 -0.024833784 -0.42639107 -0.003446638
-0.09186073 0.046255823 0.120575614 0.20967306 -0.1189482 0.11737235 -0.009112501 0.011391131
-0.110413656 -0.09750499 -0.035682596 0.22512335 0.020360129 0.11851792 -0.032393362 -0.067337774
-0.07835226 0.16053571 0.001699658 0.08378735 -0.07149801 0.04845002 0.005495942 0.061313648
-0.17789061 -0.014025643 0.033021923 0.124488026 -0.14614987 -0.09412977 0.14320312 0.056581434
0.0153358895 0.21997283 -0.16633253 0.055353343 -0.25581518 -0.0107455775 -0.22025892 -0.34384367
0.28666034 -0.27747008 -0.011314085 0.34105927 0.22237216 0.074055955 0.02821985 -0.20569754
-0.27674302 -0.22835582 0.22178632 0.29158345 -0.0002804505 0.121878274 -0.32001603 0.059026055
-0.12185992 -0.26416185 -0.13970032 -0.08842671 0.0077438788 0.2430867 -0.37900007 0.18076447
0.27679494 0.043310616 0.0004976443 -0.033150304 0.14059202 0.01352045 -0.03603931 -0.22886567
-0.011649901 -0.16698316 0.1065409 -0.09631277 -0.113709316 0.028114567 -0.095765784 -0.2083587
0.023603084 0.109113105 0.0013571194 0.057836547 0.11019402 -0.24020667 -0.074482135 0.06384904
-0.027377123 -0.1387285 0.09321413 0.16663696 -0.00521069 -0.05785746 0.0661132 0.0064971247
-0.09639543 -0.052271187 0.1041391 0.21573536 -0.20113029 0.016385227 0.08207017 0.18076332
0.03636765 -0.19815736 0.038975038 -0.14394647 0.0020779823 0.15704723 0.10998515 -0.1461348
0.12732142 0.1591619 0.22489479 -0.0296689 -0.015736746 -0.22281013 0.19042647 -0.040861014
0.015446478 -0.31730005 -0.051960677 0.004808949 -0.24685603 -0.1354752 -0.1784023 0.24449372
-0.1230582 -0.1055319 0.16497634 0.20775285 0.07358502 -0.08991537 0.07715175 0.102548435
-0.13241531 -0.28158176 -0.07122958 -0.19849995 -0.03157298 0.20846541 0.016920313 -0.06510986
-0.25590837 -0.075630784 0.096102856 0.22166845 0.050975747 -0.10747234 0.06686864 -0.018525437
-0.07668344 0.10083435 -0.2071359 0.24234772 -0.08986874 -0.055058468 0.1296277 -0.050176907
0.07234264 0.112608016 -0.14289816 0.009580593 -0.19077262 0.26309407 -0.13144735 -0.12760875
0.0036236828 -0.15130357 -0.15675934 0.050640844 0.15098383 -0.20113383 -0.17683282 -0.20410252
0.079542466 0.11524788 0.21945375 0.27567688 0.020812077 0.07023164 0.024846876 -0.11545347
-0.17568405 -0.08302312 -0.115585186 -0.244439 -0.2614492 -0.25190258 -0.25064635 0.063463636

blocks.0.W_QKV f4 [32, 96]
00000000: 13db 2039 c254 59be 8bc8 e1bd b7a3 683d
00000010: 1cec 673d 083b d43d d581 6bbc 5404 95be
00000020: bf12 bd3d 5967 bdbd 14f1 6c3d ebb7 07be
00000030: 4f30 eb3d 1d1d a1be 6a39 93be abeb c33d
00000040: 1797 88bd 0e6b b73c 498f 2ebe c0ef dd3d
00000050: 612a d93d 1fc4 20bc 8adb e53c ae42 203e
00000060: 5461 22bc 13f1 693e b251 66bd 4f5f 24bd
00000070: b880 6d3d 19db c43c e3f1 61bc 361f 583c
00000080: d01b 3f3e 98c7 3f3e 3c23 c4bb 26ab 32be
00000090: 1a08 23be 2685 7e3e 599d 7ebe 7dd0 9cbe
000000a0: 5452 b33e a616 8cbc 2527 5d3e a4ea bebe
000000b0: 7a14 8abe 84c9 bcbc 4cc0 5abd c5f8 233e
000000c0: f42d e8bd 1199 8cbe 07a4 96be 85b9 38bd
000000d0: dea8 bfbe 8be9 3ebd de71 983e 0bc5 5d3d
000000e0: 58a8 82bc b7b4 24be bace 10be 3c31 973e
000000f0: 88fe dc3c ffc1 68bd 18af 123e 140e acbe
00000100: 7daf f73d fecc 5f3e 16b5 86bc 3cff 703e
00000110: 7d99 a4be e2cd 54be 15a3 4cbe a261 693d
00000120: afc7 47bd 3f4a 99bd d236 b33c cd0c 5dbb
00000130: 7176 203e 0066 d13d 666e 583e 7e90 c9bd
00000140: 256a 4e3e e044 e83d 3355 61be 626a a0bd
00000150: 1b38 90be a8dc 363e 3495 01be e059 69bd
00000160: c0cb 4dbe e009 953e 0d31 333d e536 a3ba
00000170: 7ac1 09be 0be6 6f3d d087 3bbc 0477 47be
00000180: 27ee 6ebe 1a1c ae3e 7dcb 4dbd 6acc c7bd
00000190: f180 47be e9b8 5dbc 289a a23e 6c4b aa3e
000001a0: 560b d73d 1588 143e a05c b43e fa62 babe
000001b0: 57b5 a9be 3e18 853e 108f 3a3e c539 323e
000001c0: 79c4 d4bd 1a53 bcbe 4721 62be eedd 02be
000001d0: f1c6 6a3d 3cbb 94be 9ee4 313e 7ec7 1abe
000001e0: 4aa7 8e3d ee14 d4be b856 febd c98c 893e
000001f0: 5eae 95be 3932 8b3e e34b c33c 41d9 5dbd
00000200: 3734 bd3e 973c 323e 5733 0dbe 8a00 cdbe
00000210: a716 2dbe aaec b5bd 1d5e c1be e45b 433e
00000220: f863 5e3e 4d99 873e f6f5 b0be b6ba 7dbe
00000230: b358 42bc 4ef7 e2bd f8f3 8ebe d5b6 8b3e
00000240: a90a 2abd b821 29be f064 0b3e d8f3 cbbe
00000250: b574 a3be 8b6f f03d 0f5e 943e 0854 913e
00000260: 407e 28be b243 eb3d c582 023d 1009 ba3d
00000270: 2510 523e 9655 b7bc 7132 ad3d 1072 febd
00000280: ca88 eebd 110a 79be 2bdd e53c cd4b c5bd
00000290: 7184 593e ff72 203c 02e4 89be 15a6 40bd
000002a0: a392 733e 579a 4bbe ca15 073d cb05 90be
000002b0: 43a9 51bd f4e4 663d 4df7 c73d 20ac 073e
000002c0: 4710 a8bc cc18 54be 93cd af3c a37e e33d
000002d0: 4913 fb3b 5fa0 e2bb af93 5dbc c33d 713e
000002e0: 9005 7b3d ad3e a0bd 8275 24bc 48ab 793e
000002f0: 20bf 773d 268c 64be fb21 7f3e ebc1 0ebd
00000300: 6142 c8bc e016 c8be 013d 543e 841d e83c
00000310: dbb7 8f3e 2e24 85bc 6a4e 3abe 0046 cbbe
00000320: f3e9 6abe 4096 423e 6a8c f2bd b786 00be
00000330: 32bf 033e 96e7 76bd 52d5 c4be f9cc eebb
00000340: f6a6 b73d 1e58 9b3d 7c59 4a3e e8f3 3b3c
00000350: 7c8d e9bd a06e 303c 757e babc 2275 673e
00000360: ed23 0dbd 3421 383e fc7b 0a3e 7757 073e
00000370: aacf 4d3e 7793 bdbc d6ba 2cbd 19f8 223e
00000380: cd1e dabd ea6e dbbe 6ad1 4c3e e52b ba3e
00000390: 4762 8d3e f195 9dbc c462 fd3e 0bcd d3bd
000003a0: a28b fcbe 73cf dcbe f198 343e d811 883e
000003b0: 95ce bc3e ccc1 ab3e 73de e63e 734e a8be
000003c0: e9fa f03e 6b9a 983e bfbf 7f3e 281a c93e
000003d0: b142 ba3e 758e a6be 05c9 9bbe c2ba 4fbe
000003e0: e82e a73e 7eb1 973e a084 5f3b 2830 efbe
000003f0: 07b4 88be a200 5f3e 9162 8ebe 07f7 033f
0.000153404 -0.21223739 -0.11024579 0.056796756 0.056621656 0.10362822 -0.014374216 -0.29104865
0.09232091 -0.092482276 0.057847098 -0.13253753 0.114838235 -0.31467524 -0.2875474 0.095664345
-0.06669443 0.022389915 -0.17046846 0.10836744 0.10603786 -0.009812384 0.028058786 0.15650436
-0.0099109 0.22845869 -0.056230254 -0.040129956 0.057984084 0.024030255 -0.01379058 0.013191035
0.18662953 0.18728483 -0.0059856456 -0.174481 -0.15921059 0.2485548 -0.24864711 -0.30627814
0.3502375 -0.017100643 0.21596964 -0.37288392 -0.26968747 -0.023045309 -0.053406045 0.16012867
-0.1133689 -0.2746053 -0.29422018 -0.0450988 -0.37433523 -0.046609443 0.29774374 0.054142993
-0.015949413 -0.16084562 -0.1414136 0.2952975 0.026976839 -0.056825634 0.14324605 -0.3360449
0.120940186 0.21855542 -0.01644377 0.23534864 -0.32148352 -0.20781663 -0.19984086 0.056977876
-0.048774417 -0.074848644 0.021876726 -0.0033729554 0.15670182 0.10224533 0.21135864 -0.09842013
0.20157678 0.11341262 -0.22005157 -0.07832791 -0.28167805 0.17857611 -0.12654573 -0.056970477
-0.20097256 0.29109097 0.04374795 -0.0012452273 -0.13452712 0.058568995 -0.011445954 -0.19478995
-0.23333035 0.34005815 -0.05024289 -0.09755786 -0.19482781 -0.013532856 0.31758237 0.33260667
0.10500209 0.14505036 0.35226917 -0.36403638 -0.33146164 0.25995058 0.18218637 0.1740485
-0.10389037 -0.3678215 -0.22083007 -0.12779972 0.05731863 -0.29049098 0.17372367 -0.15115163
0.069655016 -0.41422218 -0.12418884 0.26865223 -0.29234594 0.27186754 0.023839897 -0.054162268
0.369539 0.17405926 -0.13789116 -0.40039474 -0.16903172 -0.08883031 -0.37767115 0.19078022
0.21717823 0.26484147 -0.34562653 -0.24778256 -0.011861968 -0.11082326 -0.27920508 0.27287927
-0.041514073 -0.16516769 0.13612723 -0.39834476 -0.31924978 0.11740025 0.2897801 0.28384423
-0.1645441 0.11487521 0.031862993 0.0908376 0.20513971 -0.022379678 0.084568866 -0.124240994
-0.11647184 -0.24320246 0.028059563 -0.096335985 0.21241929 0.009793042 -0.2693177 -0.04703339
0.23786406 -0.19883095 0.032979764 -0.2812942 -0.05118681 0.05637069 0.09763966 0.13249254
-0.020515574 -0.20712584 0.02146033 0.111081384 0.007662211 -0.0069160904 -0.01352398 0.23558716
0.0612846 -0.078244545 -0.010037782 0.24381745 0.060485005 -0.22319087 0.24915306 -0.034852903
-0.024445714 -0.39079952 0.20726396 0.028334387 0.28069958 -0.016252603 -0.18193975 -0.39701843
-0.22940807 0.19002628 -0.11843188 -0.1255139 0.12865904 -0.06027945 -0.38444 -0.0072876182
0.08967392 0.075851664 0.19760698 0.011471726 -0.11403939 0.010768563 -0.022765378 0.22603276
-0.03445809 0.17981416 0.13523859 0.13216959 0.20098749 -0.023141606 -0.042170368 0.15914954
-0.10650406 -0.42858058 0.2000176 0.36361614 0.27614042 -0.019236537 0.49489415 -0.10341843
-0.4932528 -0.4312702 0.17636468 0.26576114 0.3687636 0.33546293 0.4509159 -0.32872352
0.4706643 0.29805312 0.24975489 0.39277768 0.36379007 -0.3253056 -0.30426803 -0.20286086
0.32652974 0.29627603 0.003410615 -0.46716428 -0.2669985 0.21777585 -0.27809575 0.5154881

blocks.0.mha.in_proj_weight f4 [96, 32]
00000000: c222 8dbd e02c 14be 0b8a 8fbd 932c 07bd
00000010: cba9 fdbd 1eef bdbb 88b5 293e 22d4 f73d
00000020: 9767 0cbe c87c b93c 1cc7 a83d aa9d 643e
00000030: 2595 e33d eca3 b03d ab77 8d3d fb7e 573e
00000040: df26 983c 00e9 203e a451 2bbd 0001 5e3d
00000050: e3f4 06bd aa9d eebb 1a1f d2bd 2554 2bbd
00000060: 07e6 8ebd d673 43bd 5762 86be a4ab 35be
00000070: b265 15bd ef17 053e c6c1 0e3e 36e8 063e
00000080: 3487 ffbd 0707 37be 46d9 5e3d d0d1 33bb
00000090: 211b efbd 05d1 1b3e a87b 213e c24e a739
000000a0: e926 06be eb58 9d3d 730a dfbc 9559 803c
000000b0: 2b75 ebbd 198b 283e 5e70 88bd c49d 0c3e
000000c0: 099a 0dbe 9c4d f83d 7d7d 1d3d 9446 da3d
000000d0: 9574 8cbd 05a9 283d bc86 cd3c 7fbf edbd
000000e0: cc9b a5bd dc60 383e 2f5a ad3c 2783 9a3d
000000f0: 655c ad3b d90a 043e 539b 643d abe0 343d
00000100: 4a7b 19bd 53ee 23be 6cb3 573d 5f1c 99bd
00000110: e6be 113e 7edf 5cbe af8f 453d 7929 513e
00000120: c404 543d 2c84 24bd d89b 34bc e588 1a3e
00000130: 17f9 82bc 9d0a 06be 0b1b 203e 5144 00bd
00000140: f092 843d 5f29 593e e693 aabd bbad 18be
00000150: 247c 123d c417 2cbd 179f 3c3d 495a 2abe
00000160: 8a6d 273c 56c6 6bbd aed4 efbd b918 49bd
00000170: ceb9 dbbc 2576 5ebd fcda bdbd b250 0b3e
00000180: 4348 f73b 3e83 da3b 6d92 9bbd aeae f23c
00000190: b9a7 423e 594d c7bd 0610 2bbe 787f 153e
000001a0: b9af f33c 3858 973d 19ac 403e f290 433e
000001b0: c30b 25be 97f7 5a3d 6c4c 08be fdd2 2e3c
000001c0: 93a7 983c 82b3 bfbc d133 3fbd 2c63 41bd
000001d0: 0a0a 7cbd 750d 0e3e 5c20 453e 8d8e de3d
000001e0: 6224 863d aef2 fc3c 903c 253d b742 29bd
000001f0: ad09 9e3d 07fb b73d 8750 1cbe 4d13 27be
00000200: 1dc1 f43d b050 ccbd d3b2 aebc 9c74 a3bd
00000210: 08f0 823c 5fac b6bd 8a6b 053d f6e4 483e
00000220: a5b1 203e af55 1cbe 50bd 1f3c 54d3 0abe
00000230: a22d 2ebe 689f b9bd ea45 57bd 599e feba
00000240: 7455 1fbe b23b c53b 4f7d c1bd b7e0 a73d
00000250: 882f 40be 1b55 a8bd d4a2 9fbd 70b3 8f3c
00000260: 9e0c 143e 8d82 cb3d 5470 393e 1440 f4bd
00000270: 79b4 6ebd b318 203d 910f acbd 497f 363e
00000280: 22f7 043e 2389 87bd 0f0b 863d 52b0 26bd
00000290: 00ce 23be 956f de3d d26c 1a3e 5a40 23bd
000002a0: 4fa9 383e f8a3 95be fac5 083e 9f7d f43d
000002b0: 771f 92bc ea57 e3bd 5dd0 fa3c b351 293d
000002c0: 54ef a9bc 9df8 2f3d dc7e 7d3d 7e7e a6bd
000002d0: fb03 123e 5010 943c c4a5 313e 6561 1e3e
000002e0: 0a4a 84bd be60 b23c 75f2 a0bd c370 dbbd
000002f0: 98e3 bf3d af9b a7bd c4d3 0d3b d6c5 99bd
00000300: 4c2e 22be 6c91 573d 5854 9b3c 739a 45be
00000310: 4eea 1abe 7cbf 2c3d 0dc7 93bd 3ba9 493e
00000320: 17b8 c6bd 1461 1b3d 6797 5a3c 895f 26be
00000330: 5202 80bc 83a4 033e 1384 f5bd 58ec a3bd
00000340: 0d61 a63e 6b54 f03d 970a ccbd a723 1f3e
00000350: d824 2fbe 7c00 c6bd 5826 8bbd f231 ad3d
00000360: 9e06 d6bb 95a2 c83b f0c2 5dbe f78b e73d
00000370: 944d dd3c 2706 ef3c b8fb 57be 863f 6e3d
00000380: 9a54 13be 554a 07be 4b28 afbd e860 f03c
00000390: 23db 81bd 46e0 ac3e ac82 c73d 1c46 0abe
000003a0: 4fec b83d ceb9 27be 62cf 3b3e c0b7 d03d
000003b0: 93a8 003e 526b 89bd 1df5 983d 0b18 723e
000003c0: 7162 bfbd 24cf cebd 1bf4 053c 16b5 d33d
000003d0: bb19 a4bd 8696 bf3d 93c7 183d d165 ae3d
000003e0: 80aa 1b3c 7455 023e 1362 2cbc 2cd8 15be
000003f0: a32e 97b9 13e5 f1bd 6278 f33d 8cdd 453e
-0.06891395 -0.14470243 -0.070087515 -0.033001494 -0.12385901 -0.0057963273 0.16573155 0.12101008
-0.13711391 0.022642508 0.08241102 0.22325769 0.111124314 0.086250156 0.069075905 0.21044533
0.018573223 0.15713882 -0.041825905 0.054200172 -0.032948386 -0.0072819786 -0.102598384 -0.041828293
-0.06977468 -0.04771789 -0.26246902 -0.17741257 -0.036473937 0.12997411 0.13941106 0.13174519
-0.1247696 -0.17873774 0.054406427 -0.002743829 -0.11675096 0.15216453 0.15769827 0.000319114
-0.1310078 0.076829754 -0.027226662 0.015667716 -0.114969574 0.16459312 -0.06662057 0.13732058
-0.13828291 0.12124178 0.038449753 0.10657993 -0.06858174 0.041176815 0.02508866 -0.116087906
-0.080863565 0.18005699 0.021161167 0.075445466 0.0052905553 0.12894763 0.05581219 0.044159573
-0.037471093 -0.16008882 0.052661344 -0.074761145 0.14232978 -0.2156963 0.04823273 0.20425977
0.051762357 -0.04016511 -0.011023484 0.15091284 -0.015987916 -0.13089986 0.15635316 -0.03131515
0.064733386 0.21207188 -0.08328991 -0.14910023 0.03576292 -0.042014852 0.046050157 -0.16636004
0.010218987 -0.057562195 -0.11710487 -0.049095843 -0.026821997 -0.05431189 -0.092702836 0.13605002
0.007546456 0.0066684773 -0.07596288 0.02962431 0.19009294 -0.0973155 -0.16705331 0.14599407
0.029746877 0.07389873 0.1881565 0.19098261 -0.16117768 0.053458776 -0.13310403 0.010670421
0.018634593 -0.023401026 -0.046680275 -0.04721372 -0.06153301 0.13872321 0.19250625 0.10867033
0.06549908 0.030877437 0.04034096 -0.04132339 0.07716689 0.089834265 -0.15265094 -0.16315956
0.11950896 -0.099763274 -0.021325504 -0.07981226 0.015983596 -0.08919596 0.03257326 0.19618592
0.15692766 -0.1526706 0.009749725 -0.13557178 -0.17009595 -0.090636075 -0.05255691 -0.0019425853
-0.15559942 0.006019079 -0.09447729 0.08197158 -0.18768132 -0.082193576 -0.07794729 0.017541617
0.14457938 0.0993701 0.18109256 -0.119262844 -0.05827758 0.039086055 -0.084014066 0.17821993
0.12984899 -0.06617954 0.06545078 -0.040695496 -0.15996552 0.10861126 0.15080574 -0.039856292
0.18033336 -0.2922666 0.13356772 0.11938023 -0.01783727 -0.11100753 0.030616933 0.04133768
-0.020744003 0.042961705 0.06188856 -0.08129595 0.14259331 0.018074185 0.17348391 0.1546684
-0.06459434 0.021774646 -0.07858745 -0.10714867 0.09369582 -0.08183991 0.0021641115 -0.07508437
-0.15837973 0.05262892 0.018961117 -0.19297199 -0.15128443 0.0421748 -0.072157 0.19693463
-0.09703081 0.037934378 0.013341761 -0.16247381 -0.015626106 0.12855725 -0.11988082 -0.08004063
0.3249592 0.117348514 -0.09962957 0.15540944 -0.17103899 -0.09668061 -0.06794423 0.08456792
-0.0065315505 0.006122897 -0.21656394 0.11305993 0.027014531 0.029177738 -0.21092117 0.05816605
-0.14387742 -0.13211949 -0.08552607 0.029343084 -0.06340625 0.33764857 0.097417206 -0.13503307
0.09029447 -0.16379473 0.18340829 0.101912975 0.12564306 -0.06709923 0.07468627 0.23641984
-0.09344948 -0.10098103 0.008175875 0.10337274 -0.0801272 0.09354882 0.037299704 0.08515514
0.0095011 0.1272791 -0.01052143 -0.14633244 -0.0002883571 -0.118112706 0.118881956 0.19322795

blocks.0.mha.in_proj_bias f4 [96]
00000000: 4ae2 ccbe a952 ea3e bcbd f03e c866 58be
00000010: 8f17 17bf 4fa6 f5bd 758b 59be 23d8 113e
00000020: 74a0 ae3e a3c9 08bf f9b5 b83e a8b8 763e
00000030: 2631 79be 0e0d 97be de0c bb3e 1e56 ddbe
00000040: b625 ddbc 51e7 f23c e3ef 6ebc 5ce1 3d3c
00000050: 5823 1c3d 3553 213d b6ee ffbb 0233 07bd
00000060: bf04 28bc 573c 653a 486a 03bd 9fea 39bd
00000070: 63da c9be 45c2 d93e a16a 5dbe e9cc 673e
00000080: 4346 3a38 8faf 25b7 83c0 20b9 c7c3 ddb8
00000090: 69b7 bf37 4bc5 8138 12d5 c6b8 e761 6a38
000000a0: 4f47 afb8 d426 8836 7d47 df38 fa4d ca38
000000b0: d06d d4b6 9cc1 e7b7 7d0f c4b7 7862 3e39
000000c0: 7766 0a3b fc72 0bbb ad72 12bb 99ae 0f3b
000000d0: 9a6a 773b d618 6abb 5a36 7a3b b1b0 5e3b
000000e0: 2bc0 1eb8 6a79 f3b7 703a 0ab8 28c6 8437
000000f0: 455c 0f38 6c97 8bb8 fb1b 9cb8 fcac 0138
00000100: 0632 1d3e 3466 2cbe 7009 dcbd ef29 043d
00000110: 68c9 29bd 1b69 c53d cffa 4b3b e30a c4bd
00000120: d2c7 d13c 3ecc 123e d30f 0dbd 30c9 4a3d
00000130: 55b4 ebbd f356 01bd c921 b8bd 9348 15bd
00000140: a750 ce3d f9b6 0fbe fb6e 81bd 36b8 5d3e
00000150: 01a3 0a3e ac97 223e 1685 8e3b bde6 433d
00000160: d210 09bd 49d6 8abb da93 39be d764 74bd
00000170: c58a 3d3e 0917 bebe 3799 7ebb 2991 a5bd
-0.40016395 0.4576619 0.47019756 -0.21132958 -0.5902032 -0.119946115 -0.21244605 0.14242606
0.3410679 -0.53432673 0.36076334 0.24093878 -0.24335155 -0.29502147 0.36533254 -0.43229765
-0.026995521 0.029651316 -0.014583561 0.011589374 0.038119644 0.039385993 -0.007810439 -0.03300763
-0.010255038 0.0008744648 -0.03208378 -0.045389768 -0.39424428 0.42531028 -0.21622707 0.22636761
4.4411292e-05 -9.875642e-06 -0.00015330505 -0.000105745676 2.2854381e-05 6.187948e-05 -9.481063e-05 5.5881126e-05
-8.3579325e-05 4.057636e-06 0.00010646784 9.646635e-05 -6.330876e-06 -2.7627502e-05 -2.3372233e-05 0.00018156494
0.0021118203 -0.0021278253 -0.0022346184 0.0021924137 0.0037752748 -0.003572037 0.0038179369 0.0033979828
-3.7849106e-05 -2.9024395e-05 -3.2956188e-05 1.58279e-05 3.417979e-05 -6.656241e-05 -7.4438714e-05 3.09171e-05
0.15351114 -0.16835862 -0.107439876 0.032266553 -0.04145184 0.09639188 0.0031124835 -0.09572389
0.025607977 0.14335725 -0.03443892 0.049508274 -0.11509005 -0.03157706 -0.08990819 -0.036446165
0.10073977 -0.14034642 -0.06319996 0.21652302 0.13538744 0.1587817 0.004349361 0.04782747
-0.033463307 -0.0042369706 -0.18122807 -0.05966648 0.18509968 -0.3712695 -0.0038848647 -0.08084328

blocks.0.mha.out_proj.weight f4 [32, 32]
00000000: c388 a43b 6ea5 883e 5149 9c3e 2cbe 833e
00000010: 8861 f73b 5545 1abc 2588 8cbc c10f fb39
00000020: 6217 e23d 47ea e8bd 69b0 1b3e b59c 33bd
00000030: b155 65be d141 713d ce6e 7d3d ca59 283c
00000040: 3d50 b03d 9e24 193e 58d8 eb3d 9c9f f9bb
00000050: 546c 1abe 6e9d 4cbd 7743 0bbe 18a9 123e
00000060: 8baf 32be 705c f3bc 9948 253d 4256 b6bc
00000070: 37a4 1a3e ee81 21be 1eb6 0c3e 1d1b bbbc
00000080: e6ab 603e 0efd 1d3e 9d60 0dbe 06c5 b03d
00000090: c331 d13e 4dc3 353e 8393 ef3d 5c06 1fbe
000000a0: 6046 3fbd 3834 f5bc a2da dabd 3629 bfbc
000000b0: 7a6c 93be 5571 b53c f01e d03d 8069 46be
000000c0: 6724 a63d d83f c0bd fc9f 25be 0609 6abd
000000d0: 09fb 50bd ba7a 1f3e e42a 3d3c 6d2e abbc
000000e0: b3f0 933c 1a64 8c3d d3b3 1abb 9599 953c
000000f0: 0ee0 1cbc bcba 62be 8d37 af3d 7c39 283d
00000100: dde9 443d 52e8 aabd df74 d13e 0058 eebc
00000110: c17c a3bd e1ec a3bd 9512 343e 5237 a13d
00000120: c091 b63d 996d 7c3c fcde 85be 8abf b83d
00000130: 0b5b 79be 8509 0ebe b48d fbbd e193 bdbd
00000140: 79f0 193d c6ff 66be fa3d 0ebd 1c99 a23c
00000150: d5ec 363e 353e 0c3e 66fa 263e 5699 45be
00000160: 0517 58bd a452 803c 3abc adbc 6d0a 5d3d
00000170: 2c81 8ebb 4c78 383e 8032 b8bd 5f02 a1bc
00000180: fb56 ea3e ef2e 7e3e 31df ebbd c8c7 edbb
00000190: 88d8 41be fd39 5f3e 4b46 23be 71ea 6b3c
000001a0: ecbb 2e3c fb72 7a3c b2d6 04be f3e0 43bc
000001b0: ee18 3fbe d3cb a5bd cda5 423c d3c0 573d
000001c0: be93 573d f87a 0ebe 5185 dbbd e73d 43bd
000001d0: 667e a13d 01ae fcbd 7e60 d9bd 7dee 98bd
000001e0: 5070 6dbc 6071 99bd 3206 af3d 1ac8 9d3c
000001f0: a25a a73e 6a22 2ebe 17bd a8bd 5550 40be
00000200: 4f7b 353e 8b0d e03d a7a0 81bd 1ec8 923e
00000210: 6f64 44bc 7a59 ff3d 861f 5fbd 9989 fcbd
00000220: 2551 7dbd 3f5e afbd e65e 023e ff11 2bbd
00000230: 374b 363e c09a acbe 154c 003e 89af a8bd
00000240: f621 0a3d 3db3 993d 338f b53d c1af 043e
00000250: 862b 8b3c b285 28be 0827 89bd d7a4 983d
00000260: a448 27bd cdb6 7dbd 3598 e33d 29be 04bd
00000270: 8bbf fb3d ec19 a7bd 48d8 613d 0f61 debd
00000280: c0d5 e83d 2189 e9bd 7b1e 383f bd3c e9bd
00000290: 2e6f cebd 21bd c3bc 130e 73be 0cc1 1e3e
000002a0: eab6 793e 5785 c7be 1095 163e c594 77be
000002b0: f492 c83d d562 92bd 3356 94bd 4251 373b
000002c0: 7e9f 54be 15ea 103e f1fc 0d3e bb48 eabd
000002d0: 1322 bebd 9fab 693c c26a 0f3e 1abc e13c
000002e0: bfaf eb3c 4257 c63b 2910 13be eaa2 b8bb
000002f0: 41e5 683d 2ee1 83bd 92f9 06bd e5ff 1f3d
00000300: 704a 7c3d f750 cabd 088a 553e 77ce 2abe
00000310: c2ed 7cbe 97e3 35bd 9293 093c 7002 b23d
00000320: 7fc5 24be c909 22be 8b9f 253e 646f 20bd
00000330: 2229 25be 81b7 5abe e812 0cbc 7689 24be
00000340: 25f2 0bbe 1629 1d3e 6e13 333e 3936 c7bd
00000350: cec5 24be 3e30 0bbe 6bb9 a43b 0113 163e
00000360: e64f 39bc fb19 b5bd 8180 bd3c 3295 7abd
00000370: b76f 4d3c 400c 1e3e 52cc 1ebe 1fe8 c3bd
00000380: 7d5f acbe 32fc 993e 6aa6 553d 3691 673e
00000390: a774 a03d 6a40 16be 0390 e2bd 5fa2 c03c
000003a0: 0aaf 163e 511f 763e 3aad 563e 66ef ef3d
000003b0: c398 943e 2494 61bd 3e76 d2bd 360d 93bd
000003c0: 94ab 363e 58f7 71be 3e2c 45be 9da7 f93c
000003d0: 7b0d 823d 61e7 f23b e0e3 3fbe 4dfa 6bbb
000003e0: 1da0 853d 4da6 b0bc 5335 903d c861 bcba
000003f0: b0dc c6bd 31f4 10be f060 90bd 6427 81bd
0.005021186 0.26688713 0.30524686 0.25731027 0.0075494684 -0.009415944 -0.017154763 0.00047886188
0.11039616 -0.1137281 0.15204014 -0.04385062 -0.2239597 0.058900658 0.06187325 0.010275314
0.08609054 0.14955375 0.11515874 -0.007617904 -0.15080386 -0.049954824 -0.13599955 0.14322317
-0.17449777 -0.029707164 0.040352438 -0.022257928 0.15101705 -0.1577222 0.13741347 -0.022840077
0.21940574 0.15428564 -0.13806386 0.08631329 0.40858278 0.17750283 0.116980575 -0.1552977
-0.046697974 -0.029932126 -0.10686232 -0.02333508 -0.287937 0.022148767 0.10162151 -0.19376183
0.08112412 -0.09387177 -0.1617431 -0.05713751 -0.051020656 0.1557416 0.01154587 -0.020896161
0.01805911 0.0685503 -0.0023605719 0.01826171 -0.009574903 -0.22141546 0.08555517 0.041070446
0.048074592 -0.08345093 0.40909478 -0.029094696 -0.07982779 -0.080041654 0.17585213 0.0787188
0.08914518 0.0154069895 -0.26146686 0.09020908 -0.24351136 -0.13870819 -0.12282887 -0.09256721
0.03758285 -0.22558507 -0.034727074 0.019848399 0.17863782 0.13695605 0.16306457 -0.19296774
-0.052756328 0.015664406 -0.021207917 0.05396502 -0.0043488946 0.1801464 -0.08994007 -0.019654451
0.45769486 0.24822591 -0.1151718 -0.007256482 -0.18930256 0.21799465 -0.15944783 0.014399157
0.010664921 0.015286203 -0.12972525 -0.011955488 -0.18661854 -0.08095517 0.01188035 0.052674126
0.052631132 -0.13914096 -0.107187875 -0.047666457 0.07885437 -0.12337876 -0.106141075 -0.07467363
-0.014492109 -0.07492328 0.085461035 0.019260455 0.32686335 -0.17005315 -0.08239191 -0.18780644
0.1772282 0.10940083 -0.0632947 0.28668302 -0.011986836 0.12468238 -0.054473422 -0.12330932
-0.061844964 -0.08562898 0.12731513 -0.04176521 0.1780213 -0.33711815 0.12529023 -0.08236606
0.033723794 0.0750489 0.08865204 0.1295767 0.016988527 -0.1645725 -0.06696898 0.07453316
-0.04084076 -0.06194191 0.111130156 -0.032407913 0.12292393 -0.08159241 0.055137902 -0.10858356
0.113688946 -0.114031084 0.7192151 -0.11388538 -0.100797996 -0.023893895 -0.23735838 0.15503329
0.24386182 -0.38968918 0.147053 -0.24177845 0.09793654 -0.07147757 -0.07243004 0.0027972017
-0.20763966 0.14151795 0.1386602 -0.114396535 -0.09283843 0.014262109 0.14005569 0.027555514
0.028770326 0.0060528824 -0.14361633 -0.0056346552 0.05685926 -0.06439434 -0.032952853 0.0390624
0.061594427 -0.09878724 0.20853436 -0.16680323 -0.24700072 -0.0444065 0.008397 0.08691871
-0.16090964 -0.15824045 0.16174142 -0.03916873 -0.16128972 -0.21359064 -0.0085494295 -0.16068062
-0.1366659 0.15347704 0.1748788 -0.09727139 -0.16091082 -0.13592622 0.0050269864 0.14655687
-0.011310553 -0.08842846 0.023132564 -0.06117744 0.012538842 0.1543436 -0.1550763 -0.09565758
-0.33666602 0.30075222 0.052160658 0.22613987 0.0783475 -0.1467301 -0.11062624 0.023514925
0.1471521 0.24035384 0.20964518 0.117155835 0.29022798 -0.05507292 -0.10276459 -0.07180254
0.1783889 -0.2362951 -0.19255158 0.030475432 0.063502274 0.0074128364 -0.18739271 -0.0036007345
0.0652468 -0.021563673 0.07041421 -0.0014372403 -0.097100616 -0.14155652 -0.07049739 -0.06306341

blocks.0.mha.out_proj.bias f4 [32]
00000000: e530 103e ad78 233d 327a ecbd 5d15 3f3e
00000010: d111 ed3d 2b1e f0bd 7d33 6cbd b458 593c
00000020: 65e3 ba3d 6899 5ebd 71d6 3cbe aff5 e6bd
00000030: 1d31 00be c636 853d ad5d 933d 3bcb eebc
00000040: c10d 92bd 2045 2bbd 6e5d 02be 90ac 60bc
00000050: 129f 793e a1b7 463d 73e1 c83c 6116 043b
00000060: d2c4 66bd 2869 673d be2a d6bd 97a5 18be
00000070: 7faa 823d 7f31 0c3e 5ab4 84bc 750b e13b
0.14081152 0.039910007 -0.115467444 0.18660493 0.11575664 -0.11724504 -0.05766629 0.013265777
0.09125403 -0.05434552 -0.18441178 -0.11277329 -0.12518735 0.06504588 0.071956016 -0.029149642
-0.071315296 -0.04181397 -0.12730953 -0.013713017 0.24377087 0.048514966 0.024521565 0.002015494
-0.056340046 0.05649677 -0.10457371 -0.14906918 0.06380176 0.13690756 -0.01619928 0.006867821

blocks.0.ln.weight f4 [96, 32]
00000000: 0000 803f 0000 803f 0000 803f 0000 803f
00000010: 0000 803f 0000 803f 0000 803f 0000 803f
00000020: 0000 803f 0000 803f 0000 803f 0000 803f
00000030: 0000 803f 0000 803f 0000 803f 0000 803f
00000040: 0000 803f 0000 803f 0000 803f 0000 803f
00000050: 0000 803f 0000 803f 0000 803f 0000 803f
00000060: 0000 803f 0000 803f 0000 803f 0000 803f
00000070: 0000 803f 0000 803f 0000 803f 0000 803f
00000080: 0000 803f 0000 803f 0000 803f 0000 803f
00000090: 0000 803f 0000 803f 0000 803f 0000 803f
000000a0: 0000 803f 0000 803f 0000 803f 0000 803f
000000b0: 0000 803f 0000 803f 0000 803f 0000 803f
000000c0: 0000 803f 0000 803f 0000 803f 0000 803f
000000d0: 0000 803f 0000 803f 0000 803f 0000 803f
000000e0: 0000 803f 0000 803f 0000 803f 0000 803f
000000f0: 0000 803f 0000 803f 0000 803f 0000 803f
00000100: 0000 803f 0000 803f 0000 803f 0000 803f
00000110: 0000 803f 0000 803f 0000 803f 0000 803f
00000120: 0000 803f 0000 803f 0000 803f 0000 803f
00000130: 0000 803f 0000 803f 0000 803f 0000 803f
00000140: 0000 803f 0000 803f 0000 803f 0000 803f
00000150: 0000 803f 0000 803f 0000 803f 0000 803f
00000160: 0000 803f 0000 803f 0000 803f 0000 803f
00000170: 0000 803f 0000 803f 0000 803f 0000 803f
00000180: 0000 803f 0000 803f 0000 803f 0000 803f
00000190: 0000 803f 0000 803f 0000 803f 0000 803f
000001a0: 0000 803f 0000 803f 0000 803f 0000 803f
000001b0: 0000 803f 0000 803f 0000 803f 0000 803f
000001c0: 0000 803f 0000 803f 0000 803f 0000 803f
000001d0: 0000 803f 0000 803f 0000 803f 0000 803f
000001e0: 0000 803f 0000 803f 0000 803f 0000 803f
000001f0: 0000 803f 0000 803f 0000 803f 0000 803f
00000200: 0000 803f 0000 803f 0000 803f 0000 803f
00000210: 0000 803f 0000 803f 0000 803f 0000 803f
00000220: 0000 803f 0000 803f 0000 803f 0000 803f
00000230: 0000 803f 0000 803f 0000 803f 0000 803f
00000240: 0000 803f 0000 803f 0000 803f 0000 803f
00000250: 0000 803f 0000 803f 0000 803f 0000 803f
00000260: 0000 803f 0000 803f 0000 803f 0000 803f
00000270: 0000 803f 0000 803f 0000 803f 0000 803f
00000280: 0000 803f 0000 803f 0000 803f 0000 803f
00000290: 0000 803f 0000 803f 0000 803f 0000 803f
000002a0: 0000 803f 0000 803f 0000 803f 0000 803f
000002b0: 0000 803f 0000 803f 0000 803f 0000 803f
000002c0: 0000 803f 0000 803f 0000 803f 0000 803f
000002d0: 0000 803f 0000 803f 0000 803f 0000 803f
000002e0: 0000 803f 0000 803f 0000 803f 0000 803f
000002f0: 0000 803f 0000 803f 0000 803f 0000 803f
00000300: 0000 803f 0000 803f 0000 803f 0000 803f
00000310: 0000 803f 0000 803f 0000 803f 0000 803f
00000320: 0000 803f 0000 803f 0000 803f 0000 803f
00000330: 0000 803f 0000 803f 0000 803f 0000 803f
00000340: 0000 803f 0000 803f 0000 803f 0000 803f
00000350: 0000 803f 0000 803f 0000 803f 0000 803f
00000360: 0000 803f 0000 803f 0000 803f 0000 803f
00000370: 0000 803f 0000 803f 0000 803f 0000 803f
00000380: 0000 803f 0000 803f 0000 803f 0000 803f
00000390: 0000 803f 0000 803f 0000 803f 0000 803f
000003a0: 0000 803f 0000 803f 0000 803f 0000 803f
000003b0: 0000 803f 0000 803f 0000 803f 0000 803f
000003c0: 0000 803f 0000 803f 0000 803f 0000 803f
000003d0: 0000 803f 0000 803f 0000 803f 0000 803f
000003e0: 0000 803f 0000 803f 0000 803f 0000 803f
000003f0: 0000 803f 0000 803f 0000 803f 0000 803f
1.0 1.0 1.0 1.0 1.0 1.0 1.0 1.0
1.0 1.0 1.0 1.0 1.0 1.0 1.0 1.0
1.0 1.0 1.0 1.0 1.0 1.0 1.0 1.0
1.0 1.0 1.0 1.0 1.0 1.0 1.0 1.0
1.0 1.0 1.0 1.0 1.0 1.0 1.0 1.0
1.0 1.0 1.0 1.0 1.0 1.0 1.0 1.0
1.0 1.0 1.0 1.0 1.0 1.0 1.0 1.0
1.0 1.0 1.0 1.0 1.0 1.0 1.0 1.0
1.0 1.0 1.0 1.0 1.0 1.0 1.0 1.0
1.0 1.0 1.0 1.0 1.0 1.0 1.0 1.0
1.0 1.0 1.0 1.0 1.0 1.0 1.0 1.0
1.0 1.0 1.0 1.0 1.0 1.0 1.0 1.0
1.0 1.0 1.0 1.0 1.0 1.0 1.0 1.0
1.0 1.0 1.0 1.0 1.0 1.0 1.0 1.0
1.0 1.0 1.0 1.0 1.0 1.0 1.0 1.0
1.0 1.0 1.0 1.0 1.0 1.0 1.0 1.0
1.0 1.0 1.0 1.0 1.0 1.0 1.0 1.0
1.0 1.0 1.0 1.0 1.0 1.0 1.0 1.0
1.0 1.0 1.0 1.0 1.0 1.0 1.0 1.0
1.0 1.0 1.0 1.0 1.0 1.0 1.0 1.0
1.0 1.0 1.0 1.0 1.0 1.0 1.0 1.0
1.0 1.0 1.0 1.0 1.0 1.0 1.0 1.0
1.0 1.0 1.0 1.0 1.0 1.0 1.0 1.0
1.0 1.0 1.0 1.0 1.0 1.0 1.0 1.0
1.0 1.0 1.0 1.0 1.0 1.0 1.0 1.0
1.0 1.0 1.0 1.0 1.0 1.0 1.0 1.0
1.0 1.0 1.0 1.0 1.0 1.0 1.0 1.0
1.0 1.0 1.0 1.0 1.0 1.0 1.0 1.0
1.0 1.0 1.0 1.0 1.0 1.0 1.0 1.0
1.0 1.0 1.0 1.0 1.0 1.0 1.0 1.0
1.0 1.0 1.0 1.0 1.0 1.0 1.0 1.0
1.0 1.0 1.0 1.0 1.0 1.0 1.0 1.0

blocks.0.ln.bias f4 [96, 32]
00000000: 0000 0000 0000 0000 0000 0000 0000 0000
00000010: 0000 0000 0000 0000 0000 0000 0000 0000
00000020: 0000 0000 0000 0000 0000 0000 0000 0000
00000030: 0000 0000 0000 0000 0000 0000 0000 0000
00000040: 0000 0000 0000 0000 0000 0000 0000 0000
00000050: 0000 0000 0000 0000 0000 0000 0000 0000
00000060: 0000 0000 0000 0000 0000 0000 0000 0000
00000070: 0000 0000 0000 0000 0000 0000 0000 0000
00000080: 0000 0000 0000 0000 0000 0000 0000 0000
00000090: 0000 0000 0000 0000 0000 0000 0000 0000
000000a0: 0000 0000 0000 0000 0000 0000 0000 0000
000000b0: 0000 0000 0000 0000 0000 0000 0000 0000
000000c0: 0000 0000 0000 0000 0000 0000 0000 0000
000000d0: 0000 0000 0000 0000 0000 0000 0000 0000
000000e0: 0000 0000 0000 0000 0000 0000 0000 0000
000000f0: 0000 0000 0000 0000 0000 0000 0000 0000
00000100: 0000 0000 0000 0000 0000 0000 0000 0000
00000110: 0000 0000 0000 0000 0000 0000 0000 0000
00000120: 0000 0000 0000 0000 0000 0000 0000 0000
00000130: 0000 0000 0000 0000 0000 0000 0000 0000
00000140: 0000 0000 0000 0000 0000 0000 0000 0000
00000150: 0000 0000 0000 0000 0000 0000 0000 0000
00000160: 0000 0000 0000 0000 0000 0000 0000 0000
00000170: 0000 0000 0000 0000 0000 0000 0000 0000
00000180: 0000 0000 0000 0000 0000 0000 0000 0000
00000190: 0000 0000 0000 0000 0000 0000 0000 0000
000001a0: 0000 0000 0000 0000 0000 0000 0000 0000
000001b0: 0000 0000 0000 0000 0000 0000 0000 0000
000001c0: 0000 0000 0000 0000 0000 0000 0000 0000
000001d0: 0000 0000 0000 0000 0000 0000 0000 0000
000001e0: 0000 0000 0000 0000 0000 0000 0000 0000
000001f0: 0000 0000 0000 0000 0000 0000 0000 0000
00000200: 0000 0000 0000 0000 0000 0000 0000 0000
00000210: 0000 0000 0000 0000 0000 0000 0000 0000
00000220: 0000 0000 0000 0000 0000 0000 0000 0000
00000230: 0000 0000 0000 0000 0000 0000 0000 0000
00000240: 0000 0000 0000 0000 0000 0000 0000 0000
00000250: 0000 0000 0000 0000 0000 0000 0000 0000
00000260: 0000 0000 0000 0000 0000 0000 0000 0000
00000270: 0000 0000 0000 0000 0000 0000 0000 0000
00000280: 0000 0000 0000 0000 0000 0000 0000 0000
00000290: 0000 0000 0000 0000 0000 0000 0000 0000
000002a0: 0000 0000 0000 0000 0000 0000 0000 0000
000002b0: 0000 0000 0000 0000 0000 0000 0000 0000
000002c0: 0000 0000 0000 0000 0000 0000 0000 0000
000002d0: 0000 0000 0000 0000 0000 0000 0000 0000
000002e0: 0000 0000 0000 0000 0000 0000 0000 0000
000002f0: 0000 0000 0000 0000 0000 0000 0000 0000
00000300: 0000 0000 0000 0000 0000 0000 0000 0000
00000310: 0000 0000 0000 0000 0000 0000 0000 0000
00000320: 0000 0000 0000 0000 0000 0000 0000 0000
00000330: 0000 0000 0000 0000 0000 0000 0000 0000
00000340: 0000 0000 0000 0000 0000 0000 0000 0000
00000350: 0000 0000 0000 0000 0000 0000 0000 0000
00000360: 0000 0000 0000 0000 0000 0000 0000 0000
00000370: 0000 0000 0000 0000 0000 0000 0000 0000
00000380: 0000 0000 0000 0000 0000 0000 0000 0000
00000390: 0000 0000 0000 0000 0000 0000 0000 0000
000003a0: 0000 0000 0000 0000 0000 0000 0000 0000
000003b0: 0000 0000 0000 0000 0000 0000 0000 0000
000003c0: 0000 0000 0000 0000 0000 0000 0000 0000
000003d0: 0000 0000 0000 0000 0000 0000 0000 0000
000003e0: 0000 0000 0000 0000 0000 0000 0000 0000
000003f0: 0000 0000 0000 0000 0000 0000 0000 0000
0.0 0.0 0.0 0.0 0.0 0.0 0.0 0.0
0.0 0.0 0.0 0.0 0.0 0.0 0.0 0.0
0.0 0.0 0.0 0.0 0.0 0.0 0.0 0.0
0.0 0.0 0.0 0.0 0.0 0.0 0.0 0.0
0.0 0.0 0.0 0.0 0.0 0.0 0.0 0.0
0.0 0.0 0.0 0.0 0.0 0.0 0.0 0.0
0.0 0.0 0.0 0.0 0.0 0.0 0.0 0.0
0.0 0.0 0.0 0.0 0.0 0.0 0.0 0.0
0.0 0.0 0.0 0.0 0.0 0.0 0.0 0.0
0.0 0.0 0.0 0.0 0.0 0.0 0.0 0.0
0.0 0.0 0.0 0.0 0.0 0.0 0.0 0.0
0.0 0.0 0.0 0.0 0.0 0.0 0.0 0.0
0.0 0.0 0.0 0.0 0.0 0.0 0.0 0.0
0.0 0.0 0.0 0.0 0.0 0.0 0.0 0.0
0.0 0.0 0.0 0.0 0.0 0.0 0.0 0.0
0.0 0.0 0.0 0.0 0.0 0.0 0.0 0.0
0.0 0.0 0.0 0.0 0.0 0.0 0.0 0.0
0.0 0.0 0.0 0.0 0.0 0.0 0.0 0.0
0.0 0.0 0.0 0.0 0.0 0.0 0.0 0.0
0.0 0.0 0.0 0.0 0.0 0.0 0.0 0.0
0.0 0.0 0.0 0.0 0.0 0.0 0.0 0.0
0.0 0.0 0.0 0.0 0.0 0.0 0.0 0.0
0.0 0.0 0.0 0.0 0.0 0.0 0.0 0.0
0.0 0.0 0.0 0.0 0.0 0.0 0.0 0.0
0.0 0.0 0.0 0.0 0.0 0.0 0.0 0.0
0.0 0.0 0.0 0.0 0.0 0.0 0.0 0.0
0.0 0.0 0.0 0.0 0.0 0.0 0.0 0.0
0.0 0.0 0.0 0.0 0.0 0.0 0.0 0.0
0.0 0.0 0.0 0.0 0.0 0.0 0.0 0.0
0.0 0.0 0.0 0.0 0.0 0.0 0.0 0.0
0.0 0.0 0.0 0.0 0.0 0.0 0.0 0.0
0.0 0.0 0.0 0.0 0.0 0.0 0.0 0.0

blocks.0.ffn.0.weight f4 [96, 32]
00000000: f6c0 963f da0a c93e 50f9 9e3f 6000 9a3f
00000010: 7662 7e3f fe7a 333f 4af6 673f 1f60 823f
00000020: 4f01 5b3f 61d5 9c3e 668f d23f 7455 813f
00000030: 5713 853f dd11 863f 2b0a 6a3f 3bd9 563f
00000040: 143e a03f d70e 953f 514d 903f d6d7 863f
00000050: bef4 2e3f 16cd 833f 2326 4c3f 2596 903f
00000060: 29be 903f 71e3 9a3f 4418 803f 443e 8d3f
00000070: 6cf5 603f f747 073f 8b4d d63e 8bc4 933f
00000080: 4327 5a3f 5dbd 593f c6ea 533f 2785 6e3f
00000090: 064e b83f fcff 123f f9a3 903e e728 493f
000000a0: 480d 453f fa9f 4b3f 2e59 2a3f 756a 7a3f
000000b0: 87d7 803f e22b 5f3f c98b ce3e 197b 893f
000000c0: 5476 403f 5ec7 863f 46cf 6a3f 9b26 933f
000000d0: 76db 953f b0d2 7b3f e7e7 b73d aecf cd3e
000000e0: 273f 743f 0257 453f f221 183f d79c 8f3f
000000f0: e8bd 143f c7a8 863f a7ea 5e3f 629a 803f
00000100: a634 893f 7fce 823f 913e 7b3f 9589 593f
00000110: e7bf 813f 4893 723f f547 463f f929 913f
00000120: 182e 2d3f f87c 8e3f aee7 933f 910b 493e
00000130: 425a 3a3f e8a2 883f 78e8 043f 91cc 763f
00000140: 10fe 393f 07be 473f 3219 983f a818 573f
00000150: be26 703f 16b2 573f 50b8 4d3f 683e 233f
00000160: 6325 783f 7566 9c3f fe94 043f c992 693f
00000170: 98b0 893f d0b8 863f b3a7 a13f e146 a63f
00000180: 9e82 b73f ffc7 993f 2008 943f d0a3 3d3f
00000190: 0c23 6b3f 0044 c73f 7b77 7b3f 4ce6 613f
000001a0: 502b 693f 58dd 9e3f d3e5 3a3f 36b5 3b3f
000001b0: 425c 583f c5e5 883f b89f 8d3f 71c4 453f
000001c0: 1007 8f3f d72c 673f 8a5c 913f 81a6 353f
000001d0: dcb6 fd3e f594 a83f 331d 913f abc1 903f
000001e0: c3b6 8c3f f9a1 763f 3dac 4c3f e613 5a3f
000001f0: e070 a83f 121a 613f 9ec8 623f 70eb 863f
00000200: f524 7c3f 6fb0 6c3f 8bbf 8a3f 49b6 883f
00000210: 20bb 6a3f 9877 083f b877 873f 15e5 883f
00000220: df17 4b3f 9ccd 743f 7b60 853f 72ff a33f
00000230: ab49 733f 8daa 683f 791d 7e3f feb8 7e3f
00000240: 3ec6 6b3f e75a 913f 676d 723f 619f 773f
00000250: 77c5 853f 4bf8 7e3f d156 073f c0eb 633f
00000260: 37d8 5f3f b2ff 643f 01df 193f 9966 7d3f
00000270: c87b 4c3f 7496 523f f3da 443f f0c6 663f
00000280: 1576 9f3f cb0d 5e3f 0b05 893f a99c a33f
00000290: c580 763f 87d2 573f 8dd9 ba3f 4848 413f
000002a0: dfa2 733f 3e6a 9b3f 06a2 873f 447c 943f
000002b0: 44d5 683f 2c77 683f c645 8a3f 81c4 993f
000002c0: b96b 593f c97f c03f 4f70 fd3e ab6a 473f
000002d0: 9c7b 7b3f dc5b 5d3f 63f9 903f 2ced 6f3f
000002e0: 205e 993f 2331 263f 0eb0 953f 9416 623f
000002f0: 1b29 8d3f 8cd2 a53f 0250 813f feb6 553f
00000300: 3f88 603f fe1a 713f 83a7 2a3f 582b 9b3f
00000310: 015c 883f dc23 a83f a6bb 753f f70d 3b3f
00000320: 7c34 4a3f f15c 9e3f 188e 8f3f 41d7 673f
00000330: 5e6b 8f3f d447 7d3f 538e 533f 630b ad3f
00000340: 1847 723f 0dd4 683f b934 a83f 62a7 af3f
00000350: dd87 483f 0819 943f 5e13 7b3f ef10 923f
00000360: 2666 503f f112 4a3f 32b9 853f d9f2 293f
00000370: 35ac 4d3f 31f8 c03f 6598 353f e798 753f
00000380: e8bb 6c3f 7b0b 3e3f ac5d 823f b3e9 323f
00000390: ce89 703f 9a52 4d3f 7e4a 983f 3b46 733f
000003a0: 24e9 163f da06 a73f f04f 8c3f 9c79 5f3f
000003b0: 56e8 4c3f eedf 843f 1aa8 8a3f fc8d 673f
000003c0: 92ff 7c3f b8ad 963f c000 813f 9d0e 383f
000003d0: ca3b 593f ae09 3e3f 4bbc 653f 316a 473f
000003e0: c25b 793f 8095 503f 822a 723f 4c1b 2c3f
000003f0: 4c6f 543f 75ec 773f 5336 a43f d019 ab3f
1.1777637 0.39266092 1.2419834 1.2031364 0.9936899 0.70109546 0.9061018 1.0185584
0.8554887 0.30631545 1.6450012 1.0104203 1.0396527 1.0474201 0.91421765 0.8392522
1.2518945 1.1645154 1.1273595 1.0534618 0.68342197 1.0296962 0.7974569 1.129582
1.1308032 1.210066 1.0007405 1.1034627 0.87874484 0.52844185 0.41856036 1.1544355
0.8521616 0.8505457 0.8278011 0.93171924 1.4398811 0.5742185 0.282501 0.7857804
0.7697339 0.7954098 0.6654233 0.9781869 1.0065774 0.87176335 0.40341023 1.0740691
0.75180554 1.0529592 0.91722524 1.1496156 1.1707599 0.9836836 0.08979779 0.4019751
0.9540886 0.7708589 0.59426796 1.1219739 0.58102274 1.0520257 0.870768 1.0047114
1.0719192 1.0219268 0.98142344 0.8497556 1.0136689 0.94755983 0.7745355 1.1340934
0.6764846 1.1131887 1.1555078 0.19633318 0.7279397 1.0674715 0.5191722 0.96405894
0.72653294 0.78024334 1.1882689 0.84022 0.93809116 0.8425611 0.80359364 0.637671
0.9693205 1.2218767 0.51789844 0.912396 1.0757017 1.052515 1.2629303 1.299038
1.4336736 1.2014159 1.156498 0.74078083 0.9185035 1.5567627 0.9822919 0.8824203
0.91081715 1.2411299 0.73006934 0.7332338 0.84515774 1.069512 1.1064367 0.7725287
1.117403 0.90302795 1.1356366 0.7095719 0.49553573 1.3170458 1.1337036 1.1309103
1.0993274 0.963409 0.79950315 0.8518661 1.3159447 0.87930405 0.8858737 1.05406
0.9849389 0.92456716 1.0839704 1.0680629 0.9169178 0.53307486 1.058341 1.069491
0.793333 0.95626235 1.0420069 1.2812331 0.95034283 0.9088524 0.9926372 0.99501026
0.9209937 1.1355866 0.94698185 0.9672757 1.0450886 0.99597615 0.52866846 0.890316
0.8743929 0.8945266 0.601059 0.98984677 0.79876375 0.82260823 0.7689659 0.90147305
1.2457911 0.86739796 1.0704664 1.2782184 0.96290237 0.84305614 1.4597641 0.7550092
0.95170397 1.2141798 1.0596321 1.1600423 0.9095042 0.9080684 1.0802543 1.2013093
0.84929997 1.5038997 0.49499747 0.7789714 0.9823549 0.8646829 1.1326107 0.9372127
1.198185 0.64918727 1.1694353 0.883157 1.1028169 1.2954879 1.0102541 0.8348235
0.87707895 0.9418181 0.6666185 1.2122602 1.0653077 1.3135943 0.95989454 0.73068184
0.78986335 1.2372113 1.1215239 0.90562826 1.1204641 0.98937726 0.82639045 1.35191
0.9463973 0.90948564 1.314109 1.3722956 0.7833231 1.1570139 0.98076427 1.1411418
0.81405866 0.7893515 1.0447142 0.6638618 0.8034089 1.5075742 0.7093566 0.95936435
0.9247422 0.7423627 1.0184836 0.69887847 0.93960273 0.80204165 1.1897733 0.9502904
0.58949494 1.3048966 1.0961895 0.87294936 0.80042017 1.0380838 1.083255 0.90451026
0.9882747 1.1771765 1.0078354 0.718973 0.84856856 0.7423352 0.8974044 0.7789641
0.97405636 0.8147812 0.9459611 0.6722915 0.82982326 0.9684518 1.2829078 1.3367252

blocks.0.ffn.0.bias f4 [96, 32]
00000000: a026 003e 257e a6be 3330 dcbe 9cbb 2c3e
00000010: 11f1 df3e 5043 943e 02f2 903e 36ab ba3d
00000020: 5c83 52bd 2808 9a3e bb8f 26be 19c0 dabe
00000030: 4c37 f13d c6a5 2b3d a181 a03d 793a ebbd
00000040: 0e4b 0dbe 5458 98be 1c89 2fbf 476c 493e
00000050: ddf2 dfbd b080 4f3e bbd6 abbe 860d 173e
00000060: 9d04 313e 3adf cab9 8370 14bd f5db 1abe
00000070: ad62 a73c 4f7a 53bd 4875 9dbd b941 93be
00000080: 4b29 53bc 917d c3bc 8d6b b03d d8d6 e3bd
00000090: 9f46 293e 5d8d 8d3e 4e4c 3a3f 0801 b4bd
000000a0: 4485 76be 5860 d73d a401 9abd b143 5e3d
000000b0: 7158 e2bd dae0 5b3c 6f51 93be 43a7 603e
000000c0: 38c9 f0be d84d 103e a226 c03c 102f 933d
000000d0: 82f5 b73e d30f ae3e 7c10 dabe 662b 123f
000000e0: 52ed 4cbe 258b 3cbe dda4 e93c e2c2 88be
000000f0: a75b 18bd 8a86 383d 0e83 77be 08e2 e9bd
00000100: 4fc7 9bbe cfb2 b23c 954d 683e eddb 27be
00000110: 4ddc f5be 9e89 c33d 44a9 183d 76f4 073e
00000120: 5e00 603e f3e9 82be 6c37 81be a8f0 123f
00000130: 979b 8f3e 5c8f c73d 394f 61be b336 02be
00000140: 9c83 1abd 9b06 e03c 434d b9be 27be 843e
00000150: 3c87 80be 33c9 c53c 6c9f c8bd a52d 033f
00000160: 91c7 d4bb b56b b13e 328a 9a3e 56be a43d
00000170: 485d 1d3e 25bd f8bd 3708 233e bd9b eebe
00000180: 9b30 0f3f 35e5 003f e0a8 06bf 8db4 f4bd
00000190: 35ca 293f d87a 263f 8af2 0abe c0c5 4cbf
000001a0: e7b6 0d3f 4ac0 2cbf 7888 1d3d 44b0 17bf
000001b0: 1d8c 97be 8710 e43e 5cfb 66be 323b e9bd
000001c0: 61f3 7ebe f2f4 14be 24cf 41be 8b94 42be
000001d0: 9f7b adbe cad6 e73e 2f22 2abe 5b0b 06be
000001e0: 2098 cd3e 4249 773e 7339 fe3e cf09 953d
000001f0: d11d 03be c3e1 7bbe 487b 97be 2fd6 843c
00000200: 8cc7 883e cf56 9a3e 61d8 a0be c81c 7f3e
00000210: fadc 89be 5819 a6be 8a0b abbd cd22 cfbe
00000220: 0e12 60be 15d0 aabd 9895 5d3e 5364 ccbe
00000230: af55 93be aeec 023e 65a0 7dbe af2e a23c
00000240: 2dd2 a0bd a8ce 59bc f5ff ff3d 2e51 85be
00000250: 8432 f03d 51cd 37be d07b 963c 7a92 a8be
00000260: 7b67 0e3e d10a 9dbc e82f 31be 3a66 a03e
00000270: 93ed 593d 5edd 033e ebc9 b4bd 3c13 1e3e
00000280: d8e6 cfbe 5cf4 c0bd 1701 52be c8e0 ef3e
00000290: 6a6b 963d 2121 7b3e d06e 87be 5fe7 78be
000002a0: 0510 49bd 4706 d7be c0fc f63c 7cdc 62be
000002b0: 7e0c 223c 6f6e 9bbd d1c5 f93e f69b e1be
000002c0: f4de 8c3d 558b d5be a0c6 453e 8a3a eb3d
000002d0: 4c36 ccbe 3c70 f33c 99de c93e cd6d 9c3d
000002e0: c855 d73e 1274 65be d7d9 4ebe ad47 adbc
000002f0: 6b13 65be 507c babe 35df 45be 961d 62bc
00000300: 2b04 053d 2ae9 d53d c540 b13d 57b5 c2bd
00000310: bf0c 093e 7b95 d03e cd2a e43b 16a3 f93c
00000320: 45b8 4bbd eac4 12bf d540 c53e f60a c3be
00000330: 1054 ee3d 7d1e b3bd a1b3 51bd e6c9 d33e
00000340: 18fc 8bbe 6166 31be 2d61 143f c859 7a3e
00000350: 6c8f 6ebe ba56 613e 6b00 a5bd 4b78 ac3d
00000360: a099 78bd 5981 803e 5489 443e ca89 3d3e
00000370: bf5b 9bbc e278 083f f185 b5bd e983 943d
00000380: bf39 83bd f170 aabd 82d8 66bf 0cdf 3fbe
00000390: 4125 fbbd 2f6f 07be 8c2b ebbe cd46 f8bc
000003a0: 5c45 c4bd fc32 24bf 7f84 43bf c9ec debe
000003b0: c2a4 853e 9ec0 05bf 3f3e 713e 97f1 383e
000003c0: d4c0 e1bc 9339 20be 2f59 963d 2a40 793e
000003d0: 7c3f 27bf 9df5 b3be 59f7 3d3f 28ff 11be
000003e0: 601c 133d ed20 8cbe c30a a2be d766 0e3f
000003f0: fa25 f33e 434c ddbe 5c7c 4e3e 06b6 9dbd
0.12514734 -0.32518116 -0.43005523 0.16868442 0.43738607 0.28957605 0.28309637 0.09114687
-0.051394805 0.30084348 -0.16265766 -0.42724684 0.11778125 0.04190614 0.07837225 -0.11485762
-0.13798162 -0.2975489 -0.6856859 0.19670211 -0.10934994 0.20263934 -0.33562264 0.14751253
0.17286916 -0.0003869476 -0.036240112 -0.1512297 0.020432794 -0.051630314 -0.07688385 -0.2876108
-0.012888263 -0.023863586 0.08614264 -0.111249626 0.16530846 0.27646914 0.7277268 -0.08789259
-0.24074274 0.10516423 -0.07519844 0.054263774 -0.11052025 0.013420308 -0.28773066 0.21938805
-0.47028518 0.14092195 0.023455922 0.07186711 0.35929495 0.33996448 -0.42590702 0.5709747
-0.20012406 -0.18412454 0.028520996 -0.26711184 -0.03719678 0.04505018 -0.24171087 -0.11420065
-0.30425498 0.021813778 0.22685845 -0.16392489 -0.4801964 0.09547733 0.0372708 0.13276848
0.2187514 -0.25569114 -0.25237596 0.5739846 0.28048393 0.097441405 -0.22002877 -0.12716179
-0.03772317 0.0273469 -0.3619176 0.25926325 -0.25103176 0.02414379 -0.09796032 0.51241523
-0.0064935167 0.34652486 0.3018356 0.08044116 0.15367615 -0.121454515 0.15921102 -0.46603194
0.5593354 0.5034974 -0.5260143 -0.119485 0.6632417 0.65031195 -0.13569084 -0.7998924
0.5535721 -0.6748091 0.038460225 -0.59253335 -0.29599085 0.4454386 -0.22556823 -0.11388244
-0.24897529 -0.14546564 -0.18926674 -0.19001977 -0.33883378 0.4528106 -0.16614603 -0.1309027
0.40155125 0.2414904 0.49653205 0.072772615 -0.12804343 -0.2459784 -0.29586244 0.016215412
0.26714742 0.30144355 -0.31415084 0.24913323 -0.26926404 -0.3244121 -0.0835181 -0.40456238
-0.21881887 -0.0834047 0.21639097 -0.3992029 -0.2877631 0.12785599 -0.24768217 0.019797651
-0.07852588 -0.0132939 0.12499992 -0.26038498 0.11728385 -0.17949416 0.018369585 -0.32924253
0.13906662 -0.019170197 -0.17303431 0.31327993 0.053205084 0.12877414 -0.08827575 0.15437025
-0.40605807 -0.09421608 -0.20508228 0.46851182 0.07344706 0.24524356 -0.2645173 -0.24307011
-0.049087543 -0.41996977 0.030149817 -0.2215442 0.009890674 -0.07589423 0.48783734 -0.440643
0.068784624 -0.41707864 0.1931405 0.11485775 -0.39885175 0.029716603 0.3942764 0.0763813
0.42057633 -0.22407559 -0.20200287 -0.021152342 -0.22370689 -0.36422968 -0.19323428 -0.013800999
0.032474678 0.10444863 0.08654932 -0.09507244 0.13383768 0.40739045 0.00696311 0.030473273
-0.04973628 -0.57331717 0.38526025 -0.380943 0.116371274 -0.087460496 -0.051196698 0.41364974
-0.2734077 -0.1732421 0.5796078 0.24448311 -0.23296899 0.2200574 -0.0805672 0.084213816
-0.060693383 0.25098684 0.19193012 0.18509594 -0.018964646 0.5330945 -0.08863438 0.07251722
-0.064074986 -0.08322323 -0.90174115 -0.1873743 -0.12262965 -0.13226007 -0.4593166 -0.030307198
-0.09583542 -0.64140296 -0.7637405 -0.43540028 0.26102263 -0.52247036 0.23558901 0.18060909
-0.027557768 -0.15646963 0.07341229 0.24340883 -0.65331244 -0.35148326 0.7420555 -0.1425749
0.035915732 -0.2736887 -0.31648836 0.5562567 0.4748991 -0.43222246 0.20164627 -0.07700734
