models/experiment_POLAR_N64_K32_transformer_d=32_N=2_mask_lr=0.0003_epochs=200.pth (torch, 310320 bytes, 32 tensors)

embedding f4 [96, 32]
-0.14573915 -0.1307543 -0.1890238 -0.03703556 -0.102338955 -0.19581224 -0.22354737 -0.031851158
-0.020787776 -0.00094964844 -0.1561721 0.05980622 0.2297176 -0.08568221 0.06240444 0.012984877
0.30863652 -0.21205318 0.074036054 0.068919666 -0.046626464 0.33665833 0.14774643 0.12937829
-0.06524966 -0.32342497 0.21976557 -0.3102858 0.07977497 -0.05207487 -0.0664957 -0.05591128
0.041079685 0.15603803 -0.29691893 -0.248223 -0.04176084 0.09787395 -0.28769296 -0.0852388
0.31613392 0.084725 -0.27337715 0.06540208 0.3129801 0.051789507 -0.057746436 -0.12634374
0.14868581 -0.048174452 -0.04905019 0.06616732 0.038689487 0.2469742 0.07689693 -0.017133078
-0.2489385 -0.24575509 0.25427023 -0.413686 -0.020677768 -0.15903524 -0.23168364 -0.056159187
-0.0060027055 0.15639181 0.26518518 0.38578558 -0.26101333 0.106262885 -0.055931196 -0.060379606
0.0024734715 -0.08287669 -0.17696422 0.31984022 -0.13295752 0.07428019 -0.13179849 -0.2644762
-0.010836279 0.15009393 -0.14560682 -0.034224983 0.093551524 0.15759946 0.07600897 -0.075797796
-0.22861734 0.1088487 0.13028894 0.035264738 -0.31738758 -0.14600326 0.055873375 0.016028281
0.15219972 0.11328393 0.024288712 0.26837415 -0.1747767 0.11268445 -0.31494305 0.0359056
0.04640101 -0.03165782 -0.014427694 -0.008339589 0.12986337 -0.00052175793 -0.06542355 -0.05220366
-0.11012744 -0.15432148 0.19751923 0.20012775 -0.111605324 0.19321686 0.0657384 0.0862548
0.0024839614 -0.15444417 -0.17787363 0.021166971 -0.18324155 -0.11914796 -0.30138576 0.13011782
0.22105044 0.041247383 0.2636702 0.034651175 -0.071500786 -0.110145025 -0.14757176 -0.2698688
-0.087362446 -0.3426311 -0.09593813 0.11784424 -0.10767601 -0.06644517 -0.21186316 -0.16076615
0.18441865 0.035173066 0.09273219 0.2473676 0.2826829 -0.15188026 0.10697872 0.119688086
-0.13116337 -0.20682774 0.19199774 0.20113225 -0.13348892 0.022396846 0.12076164 0.22467609
0.054866318 0.014829513 -0.04680915 0.21568118 -0.22194938 -0.08252219 -0.14321105 0.10290671
0.01381381 -0.037047118 -0.15895307 -0.2284616 0.08030255 0.018896215 -0.062005837 -0.09351154
0.07578515 0.020743234 0.107373 0.06562143 0.054317024 0.19067605 0.14486197 0.08403624
0.12780555 -0.072819345 -0.051728263 0.059192266 -0.105396174 -0.19233121 -0.2775398 0.20437983
0.3191756 0.06484327 0.13212304 0.3163069 -0.29996908 0.05924945 -0.035765763 0.12764286
-0.168038 -0.22200356 -0.07445836 -0.19824736 0.17798412 0.06603769 -0.046221487 -0.19465245
-0.25812012 0.042251732 -0.00042209143 0.054736137 0.1578529 -0.017336423 0.13445047 0.042677287
-0.06008877 -0.10882003 -0.22857344 0.15787725 -0.089554645 -0.047239415 -0.07229278 -0.009331298
0.05949621 0.06512106 -0.055768084 0.06655072 0.028528277 0.16528106 -0.17732102 -0.01602535
0.021261746 -0.14768161 -0.1745289 0.03042345 0.21667963 -0.053896878 0.25144365 -0.21123135
-0.024715733 0.13797688 0.20640631 0.17691205 -0.12768109 0.1713828 0.086992465 -0.077763215
-0.009847745 -0.24322176 -0.1352798 -0.13783717 -0.10460733 0.033771116 -0.33138812 0.28033996
00000000: a53c 15be 75e4 05be 748f 41be 99b2 17bd
00000010: 1697 d1bd 0183 48be 9ae9 64be 5c76 02bd
00000020: 204b aabc d4f1 78ba 94eb 1fbe 5ef7 743d
00000030: 173b 6b3e 287a afbd cc9b 7f3d 86be 543c
00000040: 9b05 9e3e 7824 59be 37a0 973d c125 8d3d
00000050: 64fb 3ebd 7b5e ac3e d74a 173e be7b 043e
00000060: 9da1 85bd f597 a5be 3a0a 613e c8dd 9ebe
00000070: 0f61 a33d 754c 55bd e62e 88bd 3a03 65bd
00000080: 2c43 283d 6fc8 1f3e c205 98be 2c2e 7ebe
00000090: 6a0d 2bbd 2372 c83d 7e4c 93be ae91 aebd
000000a0: 4edc a13e 4d84 ad3d 17f8 8bbe 87f1 853d
000000b0: ed3e a03e 3c21 543d 8787 6cbd 4160 01be
000000c0: 1841 183e 9352 45bd dae8 48bd bb82 873d
000000d0: de78 1e3d cee6 7c3e 237c 9d3d ab5a 8cbc
000000e0: bce9 7ebe 39a7 7bbe b52f 823e a7ce d3be
000000f0: 6c64 a9bc 22da 22be 7a3e 6dbe 2d07 66bd
00000100: 58b2 c4bb 2d25 203e 5ac6 873e b085 c53e
00000110: 8aa3 85be 5ba0 d93d 1c18 65bd 9b50 77bd
00000120: f719 223b 41bb a9bd 1c36 35be 19c2 a33e
00000130: 0426 08be 3620 983d 2ff6 06be 6d69 87be
00000140: a68a 31bc 39b2 193e f419 15be 7f2f 0cbd
00000150: f197 bf3d c161 213e 97aa 9b3d e03b 9bbd
00000160: aa1a 6abe 11ec de3d 776a 053e c271 103d
00000170: a080 a2be e181 15be 7bdb 643d be4d 833c
00000180: 3eda 1b3e 6801 e83d 1ff9 c63c 5668 893e
00000190: aaf8 32be 1bc7 e63d 3740 a1be c011 133d
000001a0: fc0e 3e3d a1ab 01bd 2262 6cbc c6a2 08bc
000001b0: e7fa 043e 95c6 08ba c8fc 85bd 81d3 55bd
000001c0: 7f8a e1bd 7306 1ebe 7b42 4a3e 4aee 4c3e
000001d0: 5591 e4bd a4da 453e dba1 863d 5ba6 b03d
000001e0: f5c9 223b 9d26 1ebe 8124 36be 5b66 ad3c
000001f0: aca3 3bbe d803 f4bd 3c4f 9abe 9b3d 053e
00000200: 0c5b 623e 04f3 283d c8ff 863e 64ee 0d3d
00000210: 016f 92bd b793 e1bd 0d1d 17be 3e2c 8abe
00000220: 15eb b2bd 586d afbe 367b c4bd 5258 f13d
00000230: 3d85 dcbd 6814 88bd a8f2 58be e29f 24be
00000240: 3ed8 3c3e a211 103d 60ea bd3d ef4d 7d3e
00000250: d0bb 903e 8086 1bbe a917 db3d 071f f53d
00000260: b14f 06be a7ca 53be 0e9b 443e 9df5 4d3e
00000270: 52b1 08be 9779 b73c e151 f73d 7d11 663e
00000280: 81bb 603d 7cf7 723c f4ba 3fbd 87db 5c3e
00000290: b346 63be 6501 a9bd eba5 12be c1c0 d23d
000002a0: 5253 623c b8be 17bd 98c4 22be d6f1 69be
000002b0: aa75 a43d 3ccc 9a3c d5f9 7dbd fa82 bfbd
000002c0: 3f35 9b3d b7ed a93c 60e6 db3d 8764 863d
000002d0: 877b 5e3d 9540 433e b256 143e 311b ac3d
000002e0: 75df 023e 4f22 95bd 04e1 53bd 9773 723d
000002f0: f3d9 d7bd 79f2 44be b219 8ebe f248 513e
00000300: fc6a a33e 8ccc 843d 434b 073e faf2 a13e
00000310: 8c95 99be 8daf 723d 1f7f 12bd cfb4 023e
00000320: 2712 2cbe e754 63be a07d 98bd 5b01 4bbe
00000330: 7841 363e c53e 873d be52 3dbd f952 47be
00000340: 5228 84be 2710 2d3d 274c ddb9 0033 603d
00000350: 31a4 213e 1d05 8ebc 62ad 093e 61ce 2e3d
00000360: a41f 76bd 09dd debd 280f 6abe 93aa 213e
00000370: 6d68 b7bd 1e7e 41bd 3d0e 94bd 4de2 18bc
00000380: 4cb2 733d 315e 853d 136d 64bd be4b 883d
00000390: 22b4 e93c 703f 293e a493 35be 9847 83bc
000003a0: 1d2d ae3c d939 17be b4b7 32be 993a f93c
000003b0: 44e1 5d3e f9c2 5cbd 39bd 803e 084d 58be
000003c0: a678 cabc d049 0d3e 2d5c 533e 6f28 353e
000003d0: d5be 02be f97e 2f3e 1b29 b23d 5242 9fbd
000003e0: 7058 21bc 200f 79be ca86 0abe 3025 0dbe
000003f0: 5e3c d6bd 9553 0a3d b4ab a9be b888 8f3e

blocks.0.W_QKV f4 [32, 96]
-0.08323699 -0.0213728 -0.06058983 0.034593876 0.013175467 0.11703775 -0.14701886 -0.24764712
0.070579395 0.021559894 0.11720781 0.014494714 0.15661821 -0.26519957 -0.24461287 0.06960435
0.040944092 -0.068636306 -0.32151264 -0.032588188 0.31372005 0.037818983 0.01966412 0.16816853
0.041400194 0.09455156 0.0063066264 -0.004101915 0.013391924 0.04531997 0.1050386 0.0645115
-0.0119328415 0.2570608 0.16838403 -0.11475815 -0.032962054 0.09698022 -0.051654078 -0.28763193
0.029014107 -0.07228038 0.48171902 -0.5063463 -0.3813838 0.17261626 0.21223208 -0.23197007
0.27842104 -0.22585808 -0.06115698 -0.34455228 -0.017430866 -0.12179832 0.42047992 0.12915525
-0.106674954 -0.05877223 0.0409532 0.27551383 0.12900814 -0.028173435 0.14608917 -0.19291367
0.26506162 0.38602814 0.07683248 0.299716 -0.21914963 -0.070113584 -0.15563795 0.046798687
-0.05980252 -0.40223375 -0.336136 -0.39034143 0.13975017 0.15963306 0.36382112 -0.14169408
0.06500289 0.22595628 -0.16071709 -0.021246491 -0.15341671 0.41184828 0.1501317 -0.19731312
-0.079716705 0.28106245 -0.09580513 -0.27542382 -0.32006606 -0.07259166 0.07117499 -0.2570719
-0.13149434 0.21386945 -0.07056167 -0.10002379 -0.26285928 0.23352478 0.20415597 0.17088237
0.08283105 0.36310887 0.15763853 -0.3168596 -0.23350635 0.24487856 0.3336704 -0.15233026
-0.06055255 -0.3305832 -0.25086978 -0.11517034 0.022076339 -0.33639604 0.05437706 -0.31901354
0.03502722 -0.2670348 -0.11549769 0.09669016 -0.07260604 0.20892382 0.006580085 0.006119082
0.3633585 0.07529129 0.040372398 -0.2660749 0.08741606 0.11399426 -0.18397966 0.27823123
-0.061460093 0.26484132 -0.112657905 -0.14217229 0.13642779 -0.10760674 -0.20769094 0.21466309
-0.06290247 -0.20842808 0.12926799 -0.101326086 -0.24646245 -0.07087942 0.25956565 0.16064987
-0.22856796 0.051733013 0.32204062 0.15864764 0.233858 -0.018519424 0.16833341 -0.2261001
0.060346823 -0.20980638 -0.2226902 -0.1847693 0.105853766 0.018028622 -0.105737865 -0.2568021
0.19225366 -0.3067842 -0.08144288 -0.117907934 0.034978643 0.049662884 0.3241161 0.22663334
0.10344013 -0.5131858 0.114784025 0.18043837 0.08253313 0.25339115 0.12630963 0.31043792
0.08090416 -0.15437043 -0.17678843 0.12486561 0.076114476 -0.23683251 0.18092598 0.0064147823
-0.24465089 -0.1258651 0.11616092 -0.21071774 0.07830416 -0.0077671497 -0.1993484 -0.24901122
0.04523714 0.2271384 -0.023238894 -0.17851369 0.02487637 -0.046947345 -0.21903987 0.09177807
0.27935508 -0.1234959 -0.12378337 -0.16291328 0.010863453 -0.18037115 0.0348947 0.047567192
0.13222693 -0.055579934 -0.015753102 0.040568814 -0.04955371 0.10843975 0.21564934 -0.058523104
0.21996273 -0.4044575 0.2607215 -0.15676159 0.587121 0.19552116 0.4903739 0.12731923
-0.015311796 0.43285894 -0.14276622 -0.24600458 0.093963996 -0.35172933 -0.37117895 -0.023281045
-0.08334052 -0.3778714 -0.4655578 0.38176173 -0.019393843 0.32313824 -0.20527816 -0.15214156
-0.1670792 -0.038008094 -0.019941831 -0.16984855 -0.0016742869 0.13646927 -0.03664865 0.13316502
00000000: 2878 aabd 0316 afbc 0b2d 78bd 4fb2 0d3d
00000010: eadd 573c 7db1 ef3d 1d8c 16be 3597 7dbe
00000020: ee8b 903d 609e b03c a60a f03d 3d7b 6d3c
00000030: 8660 203e 3dc8 87be cc7b 7abe ba8c 8e3d
00000040: feb4 273d 3191 8cbd 4e9d a4be 317b 05bd
00000050: ea9f a03e 14e8 1a3d a616 a13c 5f34 2c3e
00000060: 4093 293d 40a4 c13d d1a7 ce3b 5b69 86bb
00000070: cd69 5b3c 6fa1 393d 7a1e d73d 9b1e 843d
00000080: f781 43bc 799d 833e dd6c 2c3e 5206 ebbd
00000090: 3803 07bd 919d c63d 3a93 53bd 7e44 93be
000000a0: feae ed3c bc07 94bd e0a3 f63e e99f 01bf
000000b0: bd44 c3be 51c2 303e 5e53 593e 9089 6dbe
000000c0: 348d 8e3e 5747 67be be7f 7abd 2869 b0be
000000d0: 2dcb 8ebc 6671 f9bd 2549 d73e 4641 043e
000000e0: 6678 dabd 26bb 70bd 8bbe 273d 2610 8d3e
000000f0: b61a 043e facb e6bc 6698 153e 298b 45be
00000100: 28b6 873e 7ba5 c53e 595a 9d3d 6074 993e
00000110: c368 60be b697 8fbd 8e5f 1fbe fbaf 3f3d
00000120: 7df3 74bd 95f1 cdbe 051a acbe d5da c7be
00000130: ab1a 0f3e d976 233e c346 ba3e 4118 11be
00000140: 3c20 853d 1561 673e 0593 24be 1f0d aebc
00000150: 4519 1dbe c7dd d23e 20bc 193e 730c 4abe
00000160: 8342 a3bd 6be7 8f3e 7b35 c4bd 5a04 8dbe
00000170: b3df a3be f0aa 94bd 31c4 913d ee9e 83be
00000180: 74a6 06be 9800 5b3e a382 90bd 46d9 ccbd
00000190: 7e95 86be 1f21 6f3e 430e 513e cafb 2e3e
000001a0: 53a3 a93d 68e9 b93e ff6b 213e 6c3b a2be
000001b0: 4a1c 6fbe 72c1 7a3e d9d6 aa3e 77fc 1bbe
000001c0: f305 78bd 3442 a9be 0172 80be 6dde ebbd
000001d0: 70d9 b43c 1a3c acbe 7bba 5e3d be55 a3be
000001e0: b478 0f3d c9b8 88be 0e8a ecbd 7e05 c63d
000001f0: 7ab2 94bd 20f0 553e c19d d73b 9582 c83b
00000200: 200a ba3e 5232 9a3d 875d 253d f83a 88be
00000210: 3107 b33d d375 e93d 2a65 3cbe 5374 8e3e
00000220: 94bd 7bbd 4899 873e 30b9 e6bd 9d95 11be
00000230: bab3 0b3e ec60 dcbd efac 54be a4d0 5b3e
00000240: 03d3 80bd 2c6e 55be d45e 043e 0d84 cfbd
00000250: a760 7cbe 3b29 91bd cae5 843e 6681 243e
00000260: b80d 6abe ffe5 533d 82e2 a43e 8774 223e
00000270: 7978 6f3e 0cb6 97bc 985f 2c3e c986 67be
00000280: 3b2e 773d 7cd7 56be e608 64be 2a34 3dbe
00000290: dcc9 d83d c3b0 933c 188d d8bd 917b 83be
000002a0: 25de 443e d212 9dbe 86cb a6bd b779 f1bd
000002b0: c445 0f3d 4f6b 4b3d 8cf2 a53e 9212 683e
000002c0: 6bd8 d33d 2560 03bf e313 eb3d d6c4 383e
000002d0: 2107 a93d 7cbc 813e 5057 013e b8f1 9e3e
000002e0: 15b1 a53d 4813 1ebe 0708 35be 8ab9 ff3d
000002f0: e8e1 9b3d 3984 72be a944 393e 1833 d23b
00000300: c385 7abe c8e2 00be c7e5 ed3d 64c6 57be
00000310: ee5d a03d 9383 febb fd21 4cbe ccfc 7ebe
00000320: 944a 393d f896 683e 7e5f bebc 4bcc 36be
00000330: 87c9 cb3c dc4b 40bd fd4b 60be 24f6 bb3d
00000340: a107 8f3e 6beb fcbd 2382 fdbd bdd2 26be
00000350: a0fc 313c 37b3 38be bfed 0e3d d1d5 423d
00000360: 7f66 073e c9a7 63bd a60c 81bc 7c2b 263d
00000370: d5f8 4abd a915 de3d 2ed3 5c3e ecb5 6fbd
00000380: e93d 613e 0e15 cfbe 4a7d 853e 1c86 20be
00000390: 904d 163f b336 483e 4a12 fb3e f95f 023e
000003a0: 54de 7abc b09f dd3e 4f31 12be a0e8 7bbe
000003b0: 3270 c03d de15 b4be 2b0b bebe e4b7 bebc
000003c0: 6fae aabd 5c78 c1be 985d eebe 4676 c33e
000003d0: d6df 9ebc 6072 a53e 7034 52be ffca 1bbe
000003e0: cf16 2bbe 60ae 1bbd 0d5d a3bc c7ec 2dbe
000003f0: bf73 dbba 9abe 0b3e e51c 16bd 695c 083e

blocks.0.mha.in_proj_weight f4 [96, 32]
-0.029743478 -0.0967247 -0.033880178 -0.11093159 -0.060038574 -0.07593028 0.19446123 0.10227193
-0.19205004 0.077522226 0.07469662 0.2219481 0.071433954 -0.042186767 -0.016632175 0.20202307
0.114032 0.17724738 -0.013438446 0.04992641 -0.21983802 -0.023492625 -0.048674457 0.033150084
-0.07841186 -0.044916842 -0.10176945 -0.021112308 0.0036024076 0.11458553 0.050565112 0.14373875
0.006714885 -0.103466436 0.09576855 0.06969231 -0.1554419 0.1350927 0.1533167 0.036557503
-0.12707771 0.193988 0.13049234 0.27914542 -0.119961925 0.11524922 0.050548397 0.16647676
-0.26139268 0.20275253 0.06823903 0.061843358 -0.044971894 0.20043513 -0.18318444 -0.05751522
-0.08386204 0.1147266 -0.104435325 0.11627643 -0.030594695 0.1528649 0.06943131 0.1842193
-0.025226468 -0.16581945 0.12155922 -0.12780863 0.088510856 -0.21277201 0.052229296 0.21816605
0.01529509 0.10581895 -0.123348065 0.29944164 0.029299397 -0.16488796 0.26165763 -0.10748452
-0.084288575 0.17867042 -0.0564941 -0.08370344 -0.020290898 0.029170316 0.10427797 -0.12493904
-0.08388932 -0.0998513 -0.05062289 -0.019624615 0.13930814 0.06931463 -0.1278042 0.18109685
-0.008443295 -0.01600389 -0.10528922 0.07113377 0.1944261 0.09839907 -0.14289032 0.12510039
0.019533021 -0.039331075 -0.032629784 0.048873626 -0.22863932 0.1489224 -0.21480127 0.14204784
-0.11371243 -0.03831877 -0.1346954 0.02838994 0.03649542 -0.08169891 0.08559458 0.13227138
0.0628014 0.20691288 0.18236908 -0.12433718 0.09515606 0.0070548384 -0.102020025 -0.24328731
0.03625141 -0.05383468 -0.026279205 -0.042141147 0.03975203 -0.01602228 0.006050765 0.20149724
0.090916574 -0.20933488 -0.24302123 -0.14309178 -0.054283053 -0.01596316 -0.07259377 -0.02440912
-0.13888402 -0.08550382 -0.05722287 0.17620604 -0.11476922 -0.26791877 0.098539986 0.018650595
0.14172684 0.24952008 0.26349366 -0.20013298 0.114907525 0.012518301 -0.008650211 0.060152605
0.109564856 -0.03709718 0.08671435 -0.0972387 -0.23481134 0.040807594 0.1271409 -0.02989926
0.08423308 -0.040907245 0.19430718 0.20349804 0.028990995 0.09530568 0.2279662 -0.0049736504
0.13372244 0.011590622 0.22343609 -0.13178338 -0.031600043 0.08306118 0.00070393295 0.024648102
-0.07352966 -0.12475744 -0.067114316 -0.095789626 -0.02479538 0.12746021 -0.07845549 0.07313374
-0.1427013 -0.04813411 -0.03305346 -0.1842914 -0.11912107 0.23327692 -0.06469445 0.15453553
-0.030442027 0.17919488 0.068842575 -0.0026996909 -0.07358359 0.17006792 -0.11196209 -0.03371452
0.1971275 0.038430147 -0.17782228 0.10540669 -0.01410756 -0.16558404 -0.19673792 -0.02350568
-0.06937792 0.0038043226 -0.18957452 0.08257965 0.21073897 0.14664516 0.052667946 0.05046627
0.0677078 -0.02362758 -0.01929959 0.07765405 -0.07479535 0.17037754 0.07870784 -0.25535065
0.014112624 -0.138268 -0.011636748 0.021723755 0.059784092 -0.024314621 0.16283908 0.055234
-0.24878411 -0.11410435 0.0662465 0.08465823 -0.18912607 0.04536651 0.09316251 -0.078295365
0.014314555 0.08872248 0.09009536 -0.055588804 -0.0053091706 -0.036245417 -0.02255242 0.04773363
00000000: 98a8 f3bc 9917 c6bd f1c5 0abd 1a30 e3bd
00000010: 02eb 75bd 5681 9bbd d820 473e f273 d13d
00000020: c4a8 44be f9c3 9e3d 8bfa 983d 5d46 633e
00000030: f74b 923d 08cc 2cbd 3340 88bc 23df 4e3e
00000040: 9c89 e93d 5680 353e ee2c 5cbc a37f 4c3d
00000050: 381d 61be 9b73 c0bc de5e 47bd 62c8 073d
00000060: 6696 a0bd b9fa 37bd 806c d0bd b8f3 acbc
00000070: 5f16 6c3b d1ab ea3d 5d1d 4f3d 4030 133e
00000080: 8a08 dc3b 36e6 d3bd 4d22 c43d d8ba 8e3d
00000090: 292c 1fbe be55 0a3e 0eff 1c3e 52bd 153d
000000a0: a920 02be caa4 463e c99f 053e 26ec 8e3e
000000b0: 99ae f5bd c807 ec3d d60b 4f3d e278 2a3e
000000c0: 43d5 85be 5c9e 4f3e e8c0 8b3d 764f 7d3d
000000d0: 7334 38bd de3e 4d3e b494 3bbe 1495 6bbd
000000e0: dcbf abbd c8f5 ea3d 30e2 d5bd 5622 ee3d
000000f0: baa1 fabc 9e88 1c3e 0132 8e3d fca3 3c3e
00000100: bda7 cebc 93cc 29be 0af4 f83d 44e0 02be
00000110: 2e45 b53d e8e0 59be 63ee 553d ec66 5f3e
00000120: 4298 7a3c 9bb7 d83d e99d fcbd 6a50 993e
00000130: 4a05 f03c 64d8 28be fdf7 853e d820 dcbd
00000140: 7d9f acbd 61f5 363e 5b66 67bd b66c abbd
00000150: 1939 a6bc 96f6 ee3c b08f d53d 0ae0 ffbd
00000160: 2ace abbd d77e ccbd f359 4fbd cdc3 a0bc
00000170: cba6 0e3e d4f4 8d3d 1bdf 02be 7471 393e
00000180: bf55 0abc 971a 83bc e0a1 d7bd 95ae 913d
00000190: a317 473e 7485 c93d d751 12be 511a 003e
000001a0: b703 a03c 9f19 21bd cfa6 05bd b62f 483d
000001b0: 6d20 6abe 1d7f 183e ddf4 5bbe fd74 113e
000001c0: 10e2 e8bd 24f4 1cbd 97ed 09be 0592 e83c
000001d0: 397c 153d c251 a7bd 364c af3d 2672 073e
000001e0: 059e 803d f8e0 533e f6be 3a3e 7ea4 febd
000001f0: 2ee1 c23d 462c e73b e0ef d0bd 4f20 79be
00000200: 5c7c 143d c181 5cbd 7d47 d7bc 329c 2cbd
00000210: 06d3 223d 2841 83bc 7f45 c63b 4b55 4e3e
00000220: 7832 ba3d e25b 56be 8fda 78be a786 12be
00000230: e857 5ebd 2cc5 82bc 0bac 94bd a3f5 c7bc
00000240: 9d37 0ebe a01c afbd 8762 6abd 5b6f 343e
00000250: 200c ebbd a62c 89be 55cf c93d 22c9 983c
00000260: d720 113e 3182 7f3e a4e8 863e a9ef 4cbe
00000270: a354 eb3d 8f19 4d3c 9db9 0dbc 9462 763d
00000280: 8a63 e03d 36f3 17bd 4b97 b13d 1525 c7bd
00000290: 6272 70be dd25 273d 3931 023e 4bef f4bc
000002a0: 6582 ac3d 5b8e 27bd 76f8 463e ca61 503e
000002b0: 867e ed3c a02f c33d f96f 693e 01fa a2bb
000002c0: 89ee 083e 98e6 3d3c 6ecc 643e 39f2 06be
000002d0: 0c6f 01bd fb1b aa3d 2488 383a d1ea c93c
000002e0: b896 96bd d480 ffbd 3b73 89bd 5a2d c4bd
000002f0: ae1f cbbc ee84 023e 46ad a0bd 24c7 953d
00000300: 4a20 12be 4628 45bd 1163 07bd e2b6 3cbe
00000310: bff5 f3bd 25e0 6e3e 867e 84bd 903e 1e3e
00000320: 8f61 f9bc dd7e 373e 56fd 8c3d 4ced 30bb
00000330: feb2 96bd 4926 2e3e 614c e5bd 3d18 0abd
00000340: cbdb 493e ee68 1d3d 0b17 36be 76df d73d
00000350: 6523 67bc dd8e 29be aa75 49be fc8e c0bc
00000360: 0316 8ebd f151 793b d31f 42be 851f a93d
00000370: f5cb 573e 262a 163e 58ba 573d b8b5 4e3d
00000380: 63aa 8a3d a08e c1bc 2c1a 9ebc 1609 9f3d
00000390: 4e2e 99bd 7377 2e3e 9331 a13d 52bd 82be
000003a0: a338 673c 2096 0dbe 0fa8 3ebc 04f6 b13c
000003b0: 2ae0 743d 752f c7bc 4abf 263e 0c3d 623d
000003c0: 43c1 7ebe 8baf e9bd 3fac 873d 4b61 ad3d
000003d0: 44aa 41be 3cd2 393d fccb be3d 5259 a0bd
000003e0: 9887 6a3c 22b4 b53d eb83 b83d 16b1 63bd
000003f0: 8df8 adbb 1376 14bd dabf b8bc 5784 433d

blocks.0.mha.in_proj_bias f4 [96]
0.39945388 -0.22824645 -0.2422846 -0.016808249 -0.24570571 0.12143008 0.084783085 0.35715845
0.8884249 -0.38059676 0.65027165 0.4821832 -0.27506918 -0.70566684 -0.33443815 -0.6238716
0.0029922 0.24318998 -0.20792635 -0.30675247 -0.02259359 -0.052013524 0.0061579947 0.03189027
-0.47551027 0.7773673 1.1299628 0.5199953 0.27090612 0.49065608 -0.18094069 0.33194423
0.0002539217 -3.08195e-05 1.5963895e-05 -0.00012226272 -0.00032003212 0.00034938642 -0.00018181614 -9.1623624e-05
-0.00022171484 -0.00035830634 0.00039902216 -8.2218496e-05 4.0358736e-06 0.0013617838 0.0011341886 0.0014699524
0.00021326393 -0.00012121218 -0.0007554661 -5.5045704e-05 -0.00026577385 0.00019995075 -0.00033526606 0.00017855498
-0.0001389918 -0.0015666876 -0.0013754088 0.00011072909 -0.00024793812 -0.00059473136 0.00012757174 0.000679197
0.058171943 -0.032658167 0.11160829 -0.10077157 -0.1473403 -0.12093342 -0.07765083 0.06623811
-0.17633097 0.01038226 -0.06943304 -0.09283611 0.07199971 -0.032577924 -0.05700244 0.14161041
-0.05166306 -0.12612753 -0.030263666 0.052292064 -0.076161005 -0.036594205 -0.015085504 0.053876292
0.14396118 0.012906658 -0.04118323 0.060686205 -0.027452767 -0.10130656 -0.17399544 0.27728885
00000000: 3885 cc3e 70b9 69be 7419 78be 74b1 89bc
00000010: 479a 7bbe 55b0 f83d c1a2 ad3d 79dd b63e
00000020: d06f 633f 94dd c2be 3478 263f b7e0 f63e
00000030: ded5 8cbe 95a6 34bf 7a3b abbe 0db6 1fbf
00000040: c918 443b cb06 793e a5ea 54be a90e 9dbe
00000050: 3116 b9bc 220c 55bd 01c9 c93b 5f9f 023d
00000060: 1576 f3be 8b01 473f 9fa2 903f 691e 053f
00000070: 35b4 8a3e 4637 fb3e 8448 39be 98f4 a93e
00000080: cb20 8539 3044 01b8 34ea 8537 a633 00b9
00000090: fcc9 a7b9 da2d b739 e6a5 3eb9 0f26 c0b8
000000a0: 207c 68b9 10db bbb9 d933 d139 b86c acb8
000000b0: e46b 8736 e27d b23a 0ea9 943a 6bab c03a
000000c0: 9a9f 5f39 4b33 feb8 790a 46ba e0e0 66b8
000000d0: 9057 8bb9 dfa9 5139 a6c6 afb9 7d3a 3b39
000000e0: 54be 11b9 5059 cdba 1047 b4ba 3a37 e838
000000f0: b1fd 81b9 bfe7 1bba c7c4 0539 240c 323a
00000100: b445 6e3d 92c4 05bd e392 e43d 5361 cebd
00000110: 60e0 16be f1ab f7bd 6607 9fbd d9a7 873d
00000120: 1b90 34be 5b1a 2a3c e932 8ebd dc20 bebd
00000130: 9574 933d 6e70 05bd 647b 69bd 5202 113e
00000140: a59c 53bd 9327 01be 82eb f7bc 3430 563d
00000150: 4dfa 9bbd cee3 15bd 3129 77bc 63ad 5c3d
00000160: 8f6a 133e 7376 533c bfaf 28bd 1992 783d
00000170: a0e4 e0bc d079 cfbd dc2b 32be cef8 8d3e

blocks.0.mha.out_proj.weight f4 [32, 32]
0.024457697 0.17732625 -0.10848943 -0.11553377 -0.05511882 0.05389588 -0.086333424 -0.08635219
-0.03996771 -0.11621928 0.09689557 0.07135199 0.16786838 0.08554288 -0.07008277 -0.13232775
0.09576884 -0.028052572 0.0031406975 0.009165859 -0.09352577 -0.033295866 -0.027520105 0.0030238682
-0.12878712 -0.112259865 -0.10136743 -0.12180861 0.07593015 -0.27353498 0.08642479 -0.23689455
0.019935647 0.15291668 -0.1445807 0.2161554 0.08985598 -0.14261103 0.081912704 0.15737185
0.005060838 0.111912236 0.017158011 0.17976299 0.13269128 -0.121661976 0.10103589 -0.0016711996
-0.09168317 -0.0752708 -0.2145145 0.0048074736 -0.11023268 0.23446788 0.2115993 -0.07190087
0.0056778216 -0.027452148 0.10171268 -0.005483547 0.15858537 0.15530802 0.28477564 -0.34809163
0.15990779 0.14092341 0.035648514 -0.012551221 -0.30276066 -0.05508136 0.30876443 -0.103618585
0.24024642 -0.32577026 -0.2628326 -0.295664 -0.41321763 -0.1488727 -0.5929862 -0.27930337
-0.31748384 0.22256166 0.20369977 0.058025807 0.03690235 -0.08398041 0.08387479 -0.0116075
-0.5707434 0.034716498 -0.4909641 -0.17239901 0.11993812 -0.09720306 -0.18907441 -0.09382107
0.12915438 0.041334506 -0.26403838 -0.14361529 -0.041798506 0.12859243 0.12037506 -0.29471526
-0.004995224 -0.008845926 -0.14203674 0.069204256 0.0046391482 -0.16123806 0.29337317 0.16082916
-0.009361506 -0.08341587 0.11344978 -0.009038418 0.10406721 -0.17032222 -0.04421514 -0.03411758
0.278719 -0.3855271 0.02649764 -0.053104285 -0.26090816 -0.044016566 0.11899178 -0.19178262
0.27596903 0.08885868 0.27499872 0.03264369 -0.095771074 0.2252402 0.1430985 -0.16088444
-0.04857531 -0.4134301 0.06862426 -0.34547368 0.17245051 -0.21815933 0.32847023 0.06150291
-0.028220067 0.26433522 0.24983056 0.12244161 0.19112906 -0.13794309 -0.1612176 0.11020315
-0.07773018 0.0073975325 0.10184993 -0.227608 -0.026331313 0.07139499 -0.06697628 -0.21065746
0.017895726 0.27396333 0.2599767 0.09877225 0.0070960214 0.001856475 0.108794235 0.26002622
-0.02813319 -0.4332342 0.40535936 -0.42479816 0.3130879 0.002323075 0.3674148 0.43973973
-0.121589184 0.091191374 0.101082005 -0.2438256 0.09493442 0.029623762 0.11140119 -0.07377096
0.22918384 0.017903725 0.24241555 -0.22387257 -0.05574081 0.1063618 0.017746568 0.014548053
0.118416324 0.06742105 0.104658514 -0.06311999 -0.19055685 0.014498261 0.12343897 0.07591596
-0.1548361 0.16336763 0.011724104 0.12377281 0.022732949 -0.051941264 0.17056942 -0.013069585
0.06647124 0.0003520082 0.12255767 0.20479394 -0.012978483 -0.094183855 -0.00094014744 0.090607606
0.18705209 -0.110865854 0.14507635 0.110260375 -0.22484429 0.08800384 -0.088388525 -0.24981397
-0.2090991 0.18175022 -0.0039775786 0.08683329 -0.14068416 -0.22588006 -0.09553325 0.06400706
0.28204384 0.054028213 -0.18464692 -0.1903568 0.08216938 -0.59405553 -0.18308052 -0.102906354
-0.01575526 -0.17963791 0.009083696 -0.20963088 -0.19391285 -0.045931995 -0.085039414 0.06477758
0.27128208 -0.11228488 -0.16743897 -0.10679895 -0.21331684 -0.25719824 0.106894545 -0.14738241
00000000: 825b c83c 0395 353e b52f debd f89c ecbd
00000010: 46c4 61bd edc1 5c3d 94cf b0bd 6bd9 b0bd
00000020: 2eb5 23bd 6004 eebd 2f71 c63d fe20 923d
00000030: b0e5 2b3e 1b31 af3d 8e87 8fbd ed80 07be
00000040: 7422 c43d 82ce e5bc 29d4 4d3b 662c 163c
00000050: 708a bfbd 3f61 08bd d871 e1bc 172c 463b
00000060: c5e0 03be 80e8 e5bd ba99 cfbd cb76 f9bd
00000070: 4481 9b3d c70c 8cbe 7bff b03d 7c94 72be
00000080: 1550 a33c 3196 1c3e f70c 14be d757 5d3e
00000090: 6906 b83d a008 12be d9c1 a73d 1626 213e
000000a0: 63d5 a53b 3e32 e53d f58e 8c3c ca13 383e
000000b0: 39e0 073e ea29 f9bd e8eb ce3d 270c dbba
000000c0: 63c4 bbbd 9427 9abd b0a9 5bbe 0388 9d3b
000000d0: acc1 e1bd 5918 703e 7dad 583e c340 93bd
000000e0: 050d ba3b 54e3 e0bc bd4e d03d 54af b3bb
000000f0: 3464 223e 1109 1f3e 1dce 913e 1139 b2be
00000100: debe 233e 3a4e 103e 2d04 123d a3a3 4dbc
00000110: 7203 9bbe fe9c 61bd 5f16 9e3e fb35 d4bd
00000120: 2803 763e 5ccb a6be ff91 86be 4661 97be
00000130: 4391 d3be 1672 18be f2cd 17bf da00 8fbe
00000140: 3e8d a2be 34e7 633e ac96 503e 78ac 6d3d
00000150: eb26 173d ecfd abbd 8cc6 ab3d 622d 3ebc
00000160: 3d1c 12bf e332 0e3d a65f fbbe 5e89 30be
00000170: 1ea2 f53d 6612 c7bd b99c 41be 4325 c0bd
00000180: 0c41 043e 5f4e 293d 0a30 87be e30f 13be
00000190: e934 2bbd bcad 033e 3387 f63d ebe4 96be
000001a0: faae a3bb 81ee 10bc 1472 11be f6ba 8d3d
000001b0: ff03 983b 971b 25be 0235 963e 66b0 243e
000001c0: 0161 19bc f1d5 aabd 5c58 e83d df15 14bc
000001d0: 3021 d53d f368 2ebe ef1a 35bd e0be 0bbd
000001e0: 42b4 8e3e cf63 c5be 9411 d93c e183 59bd
000001f0: c195 85be b74a 34bd f6b1 f33d aa62 44be
00000200: d04b 8d3e 8afb b53d a2cc 8c3e 64b5 053d
00000210: a023 c4bd 5ea5 663e 6a88 123e e4be 24be
00000220: e7f6 46bd 1cad d3be e08a 8c3d ede1 b0be
00000230: de96 303e 2965 5fbe 402d a83e 7aea 7b3d
00000240: c52d e7bc f256 873e 95d3 7f3e abc2 fa3d
00000250: 56b7 433e f440 0dbe 3a16 25be 30b2 e13d
00000260: 0031 9fbd 0067 f23b b296 d03d 1212 69be
00000270: c4b4 d7bc 8937 923d dc2a 89bd 97b6 57be
00000280: 0f9a 923c ec44 8c3e ab1b 853e 1b49 ca3d
00000290: be85 e83b f754 f33a 83cf de3d 2822 853e
000002a0: 9377 e6bc e0d0 ddbe 438b cf3e 257f d9be
000002b0: 0f4d a03e bb3e 183b cb1d bc3e 9125 e13e
000002c0: c003 f9bd 8bc2 ba3d 1504 cf3d 6bad 79be
000002d0: fa6c c23d 88ad f23c 4f26 e43d 3b15 97bd
000002e0: 2baf 6a3e d5aa 923c c83b 783e da3e 65be
000002f0: 7a50 64bd 37d4 d93d 4061 913c f55a 6e3c
00000300: 4284 f23d 0c14 8a3d 3457 d63d 0e45 81bd
00000310: 5621 43be 1d8a 6d3c 92cd fc3d d479 9b3d
00000320: 5b8d 1ebe d849 273e 7516 403c 997c fd3d
00000330: 733a ba3c 5dc0 54bd c0a9 2e3e d021 56bc
00000340: 1322 883d be8d b839 84ff fa3d 81b5 513e
00000350: b4a3 54bc 77e3 c0bd 3a74 76ba 7b90 b93d
00000360: 958a 3f3e a30d e3bd e58e 143e 31d0 e13d
00000370: 953d 66be 5b3b b43d 0b05 b5bd 3ccf 7fbe
00000380: 131e 56be bb1c 3a3e 5956 82bb a7d5 b13d
00000390: 820f 10be 1a4d 67be f0a6 c3bd 2216 833d
000003a0: 0d68 903e b04c 5d3d 1514 3dbe e5ec 42be
000003b0: 6b48 a83d 0614 18bf 7679 3bbe 91c0 d2bd
000003c0: 2d11 81bc 00f3 37be c8d3 143c 7aa9 56be
000003d0: 1791 46be 3023 3cbd 2529 aebd 1caa 843d
000003e0: 7ce5 8a3e 9df5 e5bd 1f75 2bbe 68b9 dabd
000003f0: bb6f 5abe 7daf 83be 87eb da3d 6aeb 16be

blocks.0.mha.out_proj.bias f4 [32]
-0.34752125 -0.09753165 0.069678076 -0.09905347 0.07294732 -0.008061844 0.069621876 0.007830911
-0.0068944627 0.08690145 -0.10121774 0.13522737 0.07872659 -0.021257654 0.14109018 -0.2773819
-0.1047609 -0.052503135 0.11758026 0.08145089 0.17018573 0.1043419 0.07945296 -0.08824324
0.074718244 -0.08343811 -0.0153399585 0.057675377 0.03537993 0.05808524 0.11699774 -0.052632406
00000000: 4eee b1be acbe c7bd 61b3 8e3d 8cdc cabd
00000010: 6865 953d d315 04bc ea95 8e3d 394d 003c
00000020: f2ea e1bb 63f9 b13d 3f4b cfbd 0b79 0a3e
00000030: 683b a13d 8824 aebc f279 103e 0005 8ebe
00000040: e28c d6bd 870d 57bd ebcd f03d b9cf a63d
00000050: 2b45 2e3e 35b1 d53d 3cb8 a23d dfb8 b4bd
00000060: e105 993d 9ae1 aabd 7354 7bbc 043d 6c3d
00000070: 8cea 103d caea 6d3d 839c ef3d 1495 57bd

blocks.0.ln.weight f4 [96, 32]
1.0 1.0 1.0 1.0 1.0 1.0 1.0 1.0
1.0 1.0 1.0 1.0 1.0 1.0 1.0 1.0
1.0 1.0 1.0 1.0 1.0 1.0 1.0 1.0
1.0 1.0 1.0 1.0 1.0 1.0 1.0 1.0
1.0 1.0 1.0 1.0 1.0 1.0 1.0 1.0
1.0 1.0 1.0 1.0 1.0 1.0 1.0 1.0
1.0 1.0 1.0 1.0 1.0 1.0 1.0 1.0
1.0 1.0 1.0 1.0 1.0 1.0 1.0 1.0
1.0 1.0 1.0 1.0 1.0 1.0 1.0 1.0
1.0 1.0 1.0 1.0 1.0 1.0 1.0 1.0
1.0 1.0 1.0 1.0 1.0 1.0 1.0 1.0
1.0 1.0 1.0 1.0 1.0 1.0 1.0 1.0
1.0 1.0 1.0 1.0 1.0 1.0 1.0 1.0
1.0 1.0 1.0 1.0 1.0 1.0 1.0 1.0
1.0 1.0 1.0 1.0 1.0 1.0 1.0 1.0
1.0 1.0 1.0 1.0 1.0 1.0 1.0 1.0
1.0 1.0 1.0 1.0 1.0 1.0 1.0 1.0
1.0 1.0 1.0 1.0 1.0 1.0 1.0 1.0
1.0 1.0 1.0 1.0 1.0 1.0 1.0 1.0
1.0 1.0 1.0 1.0 1.0 1.0 1.0 1.0
1.0 1.0 1.0 1.0 1.0 1.0 1.0 1.0
1.0 1.0 1.0 1.0 1.0 1.0 1.0 1.0
1.0 1.0 1.0 1.0 1.0 1.0 1.0 1.0
1.0 1.0 1.0 1.0 1.0 1.0 1.0 1.0
1.0 1.0 1.0 1.0 1.0 1.0 1.0 1.0
1.0 1.0 1.0 1.0 1.0 1.0 1.0 1.0
1.0 1.0 1.0 1.0 1.0 1.0 1.0 1.0
1.0 1.0 1.0 1.0 1.0 1.0 1.0 1.0
1.0 1.0 1.0 1.0 1.0 1.0 1.0 1.0
1.0 1.0 1.0 1.0 1.0 1.0 1.0 1.0
1.0 1.0 1.0 1.0 1.0 1.0 1.0 1.0
1.0 1.0 1.0 1.0 1.0 1.0 1.0 1.0
00000000: 0000 803f 0000 803f 0000 803f 0000 803f
00000010: 0000 803f 0000 803f 0000 803f 0000 803f
00000020: 0000 803f 0000 803f 0000 803f 0000 803f
00000030: 0000 803f 0000 803f 0000 803f 0000 803f
00000040: 0000 803f 0000 803f 0000 803f 0000 803f
00000050: 0000 803f 0000 803f 0000 803f 0000 803f
00000060: 0000 803f 0000 803f 0000 803f 0000 803f
00000070: 0000 803f 0000 803f 0000 803f 0000 803f
00000080: 0000 803f 0000 803f 0000 803f 0000 803f
00000090: 0000 803f 0000 803f 0000 803f 0000 803f
000000a0: 0000 803f 0000 803f 0000 803f 0000 803f
000000b0: 0000 803f 0000 803f 0000 803f 0000 803f
000000c0: 0000 803f 0000 803f 0000 803f 0000 803f
000000d0: 0000 803f 0000 803f 0000 803f 0000 803f
000000e0: 0000 803f 0000 803f 0000 803f 0000 803f
000000f0: 0000 803f 0000 803f 0000 803f 0000 803f
00000100: 0000 803f 0000 803f 0000 803f 0000 803f
00000110: 0000 803f 0000 803f 0000 803f 0000 803f
00000120: 0000 803f 0000 803f 0000 803f 0000 803f
00000130: 0000 803f 0000 803f 0000 803f 0000 803f
00000140: 0000 803f 0000 803f 0000 803f 0000 803f
00000150: 0000 803f 0000 803f 0000 803f 0000 803f
00000160: 0000 803f 0000 803f 0000 803f 0000 803f
00000170: 0000 803f 0000 803f 0000 803f 0000 803f
00000180: 0000 803f 0000 803f 0000 803f 0000 803f
00000190: 0000 803f 0000 803f 0000 803f 0000 803f
000001a0: 0000 803f 0000 803f 0000 803f 0000 803f
000001b0: 0000 803f 0000 803f 0000 803f 0000 803f
000001c0: 0000 803f 0000 803f 0000 803f 0000 803f
000001d0: 0000 803f 0000 803f 0000 803f 0000 803f
000001e0: 0000 803f 0000 803f 0000 803f 0000 803f
000001f0: 0000 803f 0000 803f 0000 803f 0000 803f
00000200: 0000 803f 0000 803f 0000 803f 0000 803f
00000210: 0000 803f 0000 803f 0000 803f 0000 803f
00000220: 0000 803f 0000 803f 0000 803f 0000 803f
00000230: 0000 803f 0000 803f 0000 803f 0000 803f
00000240: 0000 803f 0000 803f 0000 803f 0000 803f
00000250: 0000 803f 0000 803f 0000 803f 0000 803f
00000260: 0000 803f 0000 803f 0000 803f 0000 803f
00000270: 0000 803f 0000 803f 0000 803f 0000 803f
00000280: 0000 803f 0000 803f 0000 803f 0000 803f
00000290: 0000 803f 0000 803f 0000 803f 0000 803f
000002a0: 0000 803f 0000 803f 0000 803f 0000 803f
000002b0: 0000 803f 0000 803f 0000 803f 0000 803f
000002c0: 0000 803f 0000 803f 0000 803f 0000 803f
000002d0: 0000 803f 0000 803f 0000 803f 0000 803f
000002e0: 0000 803f 0000 803f 0000 803f 0000 803f
000002f0: 0000 803f 0000 803f 0000 803f 0000 803f
00000300: 0000 803f 0000 803f 0000 803f 0000 803f
00000310: 0000 803f 0000 803f 0000 803f 0000 803f
00000320: 0000 803f 0000 803f 0000 803f 0000 803f
00000330: 0000 803f 0000 803f 0000 803f 0000 803f
00000340: 0000 803f 0000 803f 0000 803f 0000 803f
00000350: 0000 803f 0000 803f 0000 803f 0000 803f
00000360: 0000 803f 0000 803f 0000 803f 0000 803f
00000370: 0000 803f 0000 803f 0000 803f 0000 803f
00000380: 0000 803f 0000 803f 0000 803f 0000 803f
00000390: 0000 803f 0000 803f 0000 803f 0000 803f
000003a0: 0000 803f 0000 803f 0000 803f 0000 803f
000003b0: 0000 803f 0000 803f 0000 803f 0000 803f
000003c0: 0000 803f 0000 803f 0000 803f 0000 803f
000003d0: 0000 803f 0000 803f 0000 803f 0000 803f
000003e0: 0000 803f 0000 803f 0000 803f 0000 803f
000003f0: 0000 803f 0000 803f 0000 803f 0000 803f

blocks.0.ln.bias f4 [96, 32]
0.0 0.0 0.0 0.0 0.0 0.0 0.0 0.0
0.0 0.0 0.0 0.0 0.0 0.0 0.0 0.0
0.0 0.0 0.0 0.0 0.0 0.0 0.0 0.0
0.0 0.0 0.0 0.0 0.0 0.0 0.0 0.0
0.0 0.0 0.0 0.0 0.0 0.0 0.0 0.0
0.0 0.0 0.0 0.0 0.0 0.0 0.0 0.0
0.0 0.0 0.0 0.0 0.0 0.0 0.0 0.0
0.0 0.0 0.0 0.0 0.0 0.0 0.0 0.0
0.0 0.0 0.0 0.0 0.0 0.0 0.0 0.0
0.0 0.0 0.0 0.0 0.0 0.0 0.0 0.0
0.0 0.0 0.0 0.0 0.0 0.0 0.0 0.0
0.0 0.0 0.0 0.0 0.0 0.0 0.0 0.0
0.0 0.0 0.0 0.0 0.0 0.0 0.0 0.0
0.0 0.0 0.0 0.0 0.0 0.0 0.0 0.0
0.0 0.0 0.0 0.0 0.0 0.0 0.0 0.0
0.0 0.0 0.0 0.0 0.0 0.0 0.0 0.0
0.0 0.0 0.0 0.0 0.0 0.0 0.0 0.0
0.0 0.0 0.0 0.0 0.0 0.0 0.0 0.0
0.0 0.0 0.0 0.0 0.0 0.0 0.0 0.0
0.0 0.0 0.0 0.0 0.0 0.0 0.0 0.0
0.0 0.0 0.0 0.0 0.0 0.0 0.0 0.0
0.0 0.0 0.0 0.0 0.0 0.0 0.0 0.0
0.0 0.0 0.0 0.0 0.0 0.0 0.0 0.0
0.0 0.0 0.0 0.0 0.0 0.0 0.0 0.0
0.0 0.0 0.0 0.0 0.0 0.0 0.0 0.0
0.0 0.0 0.0 0.0 0.0 0.0 0.0 0.0
0.0 0.0 0.0 0.0 0.0 0.0 0.0 0.0
0.0 0.0 0.0 0.0 0.0 0.0 0.0 0.0
0.0 0.0 0.0 0.0 0.0 0.0 0.0 0.0
0.0 0.0 0.0 0.0 0.0 0.0 0.0 0.0
0.0 0.0 0.0 0.0 0.0 0.0 0.0 0.0
0.0 0.0 0.0 0.0 0.0 0.0 0.0 0.0
00000000: 0000 0000 0000 0000 0000 0000 0000 0000
00000010: 0000 0000 0000 0000 0000 0000 0000 0000
00000020: 0000 0000 0000 0000 0000 0000 0000 0000
00000030: 0000 0000 0000 0000 0000 0000 0000 0000
00000040: 0000 0000 0000 0000 0000 0000 0000 0000
00000050: 0000 0000 0000 0000 0000 0000 0000 0000
00000060: 0000 0000 0000 0000 0000 0000 0000 0000
00000070: 0000 0000 0000 0000 0000 0000 0000 0000
00000080: 0000 0000 0000 0000 0000 0000 0000 0000
00000090: 0000 0000 0000 0000 0000 0000 0000 0000
000000a0: 0000 0000 0000 0000 0000 0000 0000 0000
000000b0: 0000 0000 0000 0000 0000 0000 0000 0000
000000c0: 0000 0000 0000 0000 0000 0000 0000 0000
000000d0: 0000 0000 0000 0000 0000 0000 0000 0000
000000e0: 0000 0000 0000 0000 0000 0000 0000 0000
000000f0: 0000 0000 0000 0000 0000 0000 0000 0000
00000100: 0000 0000 0000 0000 0000 0000 0000 0000
00000110: 0000 0000 0000 0000 0000 0000 0000 0000
00000120: 0000 0000 0000 0000 0000 0000 0000 0000
00000130: 0000 0000 0000 0000 0000 0000 0000 0000
00000140: 0000 0000 0000 0000 0000 0000 0000 0000
00000150: 0000 0000 0000 0000 0000 0000 0000 0000
00000160: 0000 0000 0000 0000 0000 0000 0000 0000
00000170: 0000 0000 0000 0000 0000 0000 0000 0000
00000180: 0000 0000 0000 0000 0000 0000 0000 0000
00000190: 0000 0000 0000 0000 0000 0000 0000 0000
000001a0: 0000 0000 0000 0000 0000 0000 0000 0000
000001b0: 0000 0000 0000 0000 0000 0000 0000 0000
000001c0: 0000 0000 0000 0000 0000 0000 0000 0000
000001d0: 0000 0000 0000 0000 0000 0000 0000 0000
000001e0: 0000 0000 0000 0000 0000 0000 0000 0000
000001f0: 0000 0000 0000 0000 0000 0000 0000 0000
00000200: 0000 0000 0000 0000 0000 0000 0000 0000
00000210: 0000 0000 0000 0000 0000 0000 0000 0000
00000220: 0000 0000 0000 0000 0000 0000 0000 0000
00000230: 0000 0000 0000 0000 0000 0000 0000 0000
00000240: 0000 0000 0000 0000 0000 0000 0000 0000
00000250: 0000 0000 0000 0000 0000 0000 0000 0000
00000260: 0000 0000 0000 0000 0000 0000 0000 0000
00000270: 0000 0000 0000 0000 0000 0000 0000 0000
00000280: 0000 0000 0000 0000 0000 0000 0000 0000
00000290: 0000 0000 0000 0000 0000 0000 0000 0000
000002a0: 0000 0000 0000 0000 0000 0000 0000 0000
000002b0: 0000 0000 0000 0000 0000 0000 0000 0000
000002c0: 0000 0000 0000 0000 0000 0000 0000 0000
000002d0: 0000 0000 0000 0000 0000 0000 0000 0000
000002e0: 0000 0000 0000 0000 0000 0000 0000 0000
000002f0: 0000 0000 0000 0000 0000 0000 0000 0000
00000300: 0000 0000 0000 0000 0000 0000 0000 0000
00000310: 0000 0000 0000 0000 0000 0000 0000 0000
00000320: 0000 0000 0000 0000 0000 0000 0000 0000
00000330: 0000 0000 0000 0000 0000 0000 0000 0000
00000340: 0000 0000 0000 0000 0000 0000 0000 0000
00000350: 0000 0000 0000 0000 0000 0000 0000 0000
00000360: 0000 0000 0000 0000 0000 0000 0000 0000
00000370: 0000 0000 0000 0000 0000 0000 0000 0000
00000380: 0000 0000 0000 0000 0000 0000 0000 0000
00000390: 0000 0000 0000 0000 0000 0000 0000 0000
000003a0: 0000 0000 0000 0000 0000 0000 0000 0000
000003b0: 0000 0000 0000 0000 0000 0000 0000 0000
000003c0: 0000 0000 0000 0000 0000 0000 0000 0000
000003d0: 0000 0000 0000 0000 0000 0000 0000 0000
000003e0: 0000 0000 0000 0000 0000 0000 0000 0000
000003f0: 0000 0000 0000 0000 0000 0000 0000 0000

blocks.0.ffn.0.weight f4 [96, 32]
1.3100204 0.94424945 1.0601445 1.1226915 0.87048614 1.0997031 1.1357366 0.7913134
0.77631855 0.88294613 1.3220104 1.1878452 0.7797136 0.6548959 0.92332095 0.64366186
0.74024045 0.8443884 0.7485658 0.7315496 0.865224 0.880843 0.5738983 0.8331812
0.85375166 0.91917247 0.7941469 0.76183563 1.0012754 0.6369855 0.996497 0.8852017
0.9615033 0.5196478 0.99892884 1.1965661 0.78914607 0.8827192 0.7240648 0.9025469
0.81378376 1.2862574 0.7573138 1.0113055 0.87501824 0.71914154 0.7604191 0.5524035
1.2624327 1.2657936 1.0205294 0.6662743 1.2841781 0.8378436 1.1378012 0.38568127
0.98426276 0.86788386 1.1383781 0.94430447 0.6664635 1.0932171 0.64729446 0.78138554
1.2423954 0.9137134 0.797683 1.2622948 0.91141313 0.6949409 0.39990056 0.710264
1.1775254 1.0348237 0.7763842 0.84016985 0.74649715 0.9518923 1.1160462 1.0916114
0.8406118 0.9887822 1.0204427 0.3464987 1.3746378 0.90885913 0.8978748 0.3115336
0.89571506 0.7365706 1.0801532 1.2048812 0.94168335 0.8404034 0.75334644 0.4865143
0.90550345 0.87579465 1.3035899 1.2046092 1.4824551 1.4623022 0.8484979 1.0680212
1.6436125 1.2491066 1.7703747 1.2835442 0.9624671 0.73513615 0.9520682 0.46101558
0.9736294 0.94337624 1.335817 1.0465896 1.3155558 0.78729784 0.9573858 0.8206929
1.0813855 1.0205555 1.2877781 1.2108655 1.5129253 1.0223259 0.92320096 0.71018517
1.1071106 0.94801193 1.0392658 1.0564964 0.8020131 0.92063993 0.7442067 0.95774364
0.6168847 1.1658076 0.95549697 0.7590814 1.1352915 0.5343663 0.90137154 1.017956
1.06967 1.3877425 1.1158197 0.48629606 1.1990497 0.50270873 0.31138217 0.90157807
1.0340872 0.6813512 0.6790981 1.1033912 0.05544251 1.2270453 0.66964406 0.69948506
0.8739768 0.8963853 1.2944883 1.5099115 1.3483591 1.4509093 0.68959475 0.7079831
1.5150502 1.1648685 1.519671 1.1460593 0.8358605 0.70329994 1.0857751 0.6279578
0.7011297 0.86223537 1.4887329 1.0187981 1.5056657 0.7540903 1.0365419 0.9194822
1.2643032 0.9920539 1.3030417 1.2539847 1.4868295 0.9330641 0.85222113 0.6903804
0.943082 0.9346439 1.1231668 1.557755 0.9966979 1.4188315 1.3051804 1.1671575
1.0829817 1.0688199 1.8587732 0.9032656 1.0992551 0.9302431 0.91185915 0.52507657
0.8574799 0.8776911 1.3024802 1.3269075 1.0764918 1.0789366 0.9070935 1.1104832
1.2508014 1.3577775 1.1192349 1.168057 0.97928244 0.9715243 1.0056596 1.0551233
0.73790765 1.0652446 0.92181456 1.327616 1.0982066 1.03732 0.8880605 0.88850915
1.2272961 1.2326173 1.5030161 1.504324 1.2054093 0.6495598 0.41975927 1.2930546
1.1305345 1.2369736 1.0400022 0.96269673 1.262662 1.1075469 1.2421957 1.073919
1.229567 1.4161798 1.1375177 0.8019254 0.7818891 0.71801573 1.2488141 1.0873394
00000000: c0ae a73f 55ba 713f d1b2 873f 5bb4 8f3f
00000010: 2ed8 5e3f 12c3 8c3f d15f 913f 8493 4a3f
00000020: d0bc 463f c208 623f a337 a93f 500b 983f
00000030: 4f9b 473f 42a7 273f c35e 6c3f 06c7 243f
00000040: 6680 3d3f d729 583f 02a2 3f3f d646 3b3f
00000050: 527f 5d3f ed7e 613f 00eb 123f 5d4b 553f
00000060: 788f 5a3f e34e 6b3f 364d 4b3f a907 433f
00000070: cb29 803f 7b11 233f 6d1a 7f3f 949c 623f
00000080: 1525 763f a307 053f cdb9 7f3f 1429 993f
00000090: 7a05 4a3f e3f9 613f 505c 393f 500d 673f
000000a0: 2254 503f 15a4 a43f 51df 413f 7572 813f
000000b0: 3201 603f a919 383f d3aa 423f 516a 0d3f
000000c0: 6597 a13f 8605 a23f b5a0 823f f490 2a3f
000000d0: f35f a43f eb7c 563f 78a3 913f 0478 c53e
000000e0: a5f8 7b3f a32d 5e3f 60b6 913f f0bd 713f
000000f0: 5a9d 2a3f 8aee 8b3f 17b5 253f e208 483f
00000100: d006 9f3f 1fe9 693f f434 4c3f e092 a13f
00000110: 5f52 693f a6e7 313f c4bf cc3e ddd3 353f
00000120: 27b9 963f 1a75 843f 1dc1 463f 5f15 573f
00000130: 701a 3f3f 37af 733f 9ada 8e3f ecb9 8b3f
00000140: 5632 573f d520 7d3f de9d 823f 4768 b13e
00000150: 22f4 af3f feaa 683f 1fdb 653f 5581 9f3e
00000160: 954d 653f e48f 3c3f 7642 8a3f 8c39 9a3f
00000170: 2912 713f ad24 573f 50db 403f 6718 f93e
00000180: 13cf 673f 1434 603f 09dc a63f a230 9a3f
00000190: 17c1 bd3f b82c bb3f 2937 593f ebb4 883f
000001a0: e561 d23f bae2 9f3f a39b e23f 2d4b a43f
000001b0: 3e64 763f e231 3c3f beba 733f 3c0a ec3e
000001c0: c73f 793f 1b81 713f 0dfc aa3f a6f6 853f
000001d0: 2264 a83f 5a8c 493f 3c17 753f ee18 523f
000001e0: d76a 8a3f 90a1 823f ead5 a43f a4fd 9a3f
000001f0: 89a7 c13f 93db 823f e656 6c3f b2ce 353f
00000200: cdb5 8d3f e9b0 723f a906 853f 463b 873f
00000210: bb50 4d3f 0faf 6b3f 5584 3e3f b02e 753f
00000220: 28ec 1d3f 2f39 953f 739b 743f 2953 423f
00000230: 3b51 913f 3bcc 083f 49c0 663f 624c 823f
00000240: f2ea 883f 8ca1 b13f 2ed3 8e3f ccfb f83e
00000250: 767a 993f 85b1 003f 7c6d 9f3e d2cd 663f
00000260: f85c 843f 086d 2e3f 60d9 2d3f ec3b 8d3f
00000270: af17 633d d20f 9d3f cb6d 2b3f 7411 333f
00000280: f2bc 5f3f 8279 653f cbb1 a53f c844 c13f
00000290: 0897 ac3f 65b7 b93f 4889 303f 613e 353f
000002a0: 2aed c13f 691a 953f 9484 c23f 12b2 923f
000002b0: f4fa 553f 770b 343f aefa 8a3f d8c1 203f
000002c0: 3c7d 333f 75bb 5c3f cd8e be3f fa67 823f
000002d0: a7b9 c03f 100c 413f 68ad 843f 2f63 6b3f
000002e0: b0d4 a13f 3ff7 7d3f 12ca a63f 9282 a03f
000002f0: 6e50 be3f 4add 6e3f 2a2b 5a3f c5bc 303f
00000300: d26d 713f d344 6f3f eec3 8f3f 8464 c73f
00000310: 9827 7f3f 459c b53f 2710 a73f 6b65 953f
00000320: 259f 8a3f 17cf 883f 48ec ed3f 6a3c 673f
00000330: 64b4 8c3f 6924 6e3f 9a6f 693f 6b6b 063f
00000340: cd83 5b3f 5db0 603f acb7 a63f 1bd8 a93f
00000350: 7cca 893f 981a 8a3f 4837 683f 5024 8e3f
00000360: 431a a03f a7cb ad3f 1743 8f3f e482 953f
00000370: 41b2 7a3f d1b5 783f 74b9 803f 480e 873f
00000380: 84e7 3c3f ef59 883f 0afc 6b3f 52ef a93f
00000390: 0992 8c3f e7c6 843f ef57 633f 5675 633f
000003a0: 0a18 9d3f 67c6 9d3f d562 c03f b08d c03f
000003b0: da4a 9a3f 8d49 263f b0ea d63e d082 a53f
000003c0: 5bb5 903f 2755 9e3f cb1e 853f 4b73 763f
000003d0: e99e a13f 19c4 8d3f 4500 9f3f 2e76 893f
000003e0: 7462 9d3f 6145 b53f 2e9a 913f fc4a 4d3f
000003f0: e229 483f e1cf 373f 24d9 9f3f f02d 8b3f

blocks.0.ffn.0.bias f4 [96, 32]
-0.20703988 0.08383221 -0.003940959 -0.15227765 -0.08172317 -0.08253397 -0.2148577 0.057277832
0.034661684 -0.21008961 -0.01119024 0.1072239 -0.047290366 -0.45462424 -0.05323524 -0.26320603
-0.2098814 -0.16101708 -0.08161874 0.11218184 -0.15434508 -0.39839822 0.10728667 0.27360025
0.22850814 -0.099738866 -0.03348608 0.12356343 -0.13942604 0.07938527 -0.4474355 -0.30041113
0.12252944 0.21677943 0.49211434 -0.4879849 0.07326224 -0.31638667 0.16080174 0.28098023
0.16576974 -0.4068662 -0.09250042 0.08633066 0.2272502 -0.5459509 0.07688257 -0.2797748
0.022963092 -0.28700748 0.04260833 0.3317633 -0.43672827 -0.22254793 0.25480002 -0.051028382
0.07825143 -0.01564364 0.19371215 -0.34709582 -0.028472379 -0.15166838 -0.23610824 -0.10078073
0.0729086 0.06406836 -0.09175658 -0.0987047 -0.28775436 -0.4655018 -0.06452142 0.08729113
-0.06535938 -0.21017042 0.057013705 -0.017861621 0.33401313 -0.2579242 -0.14080735 -0.37351453
0.21503933 -0.3263289 -0.08608772 0.19699942 -0.2315776 -0.30063537 0.11233004 -0.059002224
0.14036804 -0.3514631 0.22288895 0.089152716 -0.44469908 0.22019723 -0.3275462 -0.1867309
0.20634343 0.32138577 0.08208135 -0.2377883 -0.49354005 -0.14040327 0.27418375 -0.015425726
-0.020007228 -0.38998428 -0.09873285 -0.2510384 0.08308356 -0.34929857 -0.10766923 -0.112281196
-0.035759762 -0.0316682 0.052521747 0.16879624 -0.22636555 -0.07349748 -0.033482146 0.32074106
0.13009167 -0.04629237 0.08567556 -0.13102001 0.03255779 -0.017754134 -0.32803893 -0.23615389
0.0587162 0.11563477 0.12541334 -0.31009516 0.012315469 -0.31657273 -0.038778625 0.28395647
0.34668446 -0.1863953 0.035640467 0.07999767 0.12808035 -0.45661697 -0.14257248 -0.38710007
0.3274954 -0.19997092 0.291001 0.24985705 -0.33696088 -0.54978204 0.6314354 -0.09277797
0.18482693 -0.19844952 0.37085047 -0.06606564 -0.037143886 0.18882132 -0.4641944 -0.32326892
0.1257624 0.22725312 0.047115423 -0.21659963 -0.43423817 -0.14985257 0.37432262 0.052758344
0.025572542 -0.44182935 -0.14794688 -0.2989867 0.031753898 -0.2449135 -0.039408267 -0.08854056
-0.08928831 -0.057259742 0.020348368 0.14739014 -0.27449176 -0.03489281 -0.005863431 0.35258138
0.08128989 -0.0566721 0.13736333 -0.10178259 0.00852619 0.10697927 -0.17709774 -0.22527148
0.050215967 0.27476934 0.14897926 -0.15918754 -0.056494936 -0.080918446 0.14862819 0.2592041
-0.07223019 -0.53008 -0.08420162 -0.18769433 0.10540174 -0.079569004 0.026661344 -0.22983018
0.22449772 -0.016968284 0.07258103 0.06842054 -0.44182876 -0.22519572 0.2027659 0.37006998
0.13800213 0.0765321 0.10655786 -0.1675811 -0.04647525 0.21810235 -0.108439125 -0.29149824
0.13301256 0.14759547 0.060131393 -0.09554637 -0.13854465 -0.10488423 0.16305773 0.25398183
-0.14997685 -0.30025116 -0.02994125 -0.10650527 0.036722884 0.21728338 0.036591686 -0.5919314
0.07653583 0.1018456 0.18483025 0.10967851 -0.1144193 0.004464338 -0.122268975 0.1583595
0.06249451 -0.022772796 0.014283876 -0.06556581 -0.017772615 0.33990273 -0.24092445 -0.037459016
00000000: 4302 54be 39b0 ab3d 2923 81bb acee 1bbe
00000010: 7a5e a7bd 9207 a9bd a803 5cbe 299c 6a3d
00000020: 69f9 0d3d bb21 57be 4557 37bc 3498 db3d
00000030: 8bb3 41bd 82c4 e8be 320d 5abd f1c2 86be
00000040: 26eb 56be a9e1 24be ba27 a7bd 98bf e53d
00000050: a30c 1ebe dafa cbbe 1db9 db3d 5515 8c3e
00000060: 0afe 693e e443 ccbd b328 09bd d30e fd3d
00000070: b3c5 0ebe bf94 a23d 4416 e5be 7dcf 99be
00000080: b7f0 fa3d 6dfb 5d3e 69f6 fb3e 28d9 f9be
00000090: 830a 963d 6ffd a1be 36a9 243e a4dc 8f3e
000000a0: 8bbf 293e c450 d0be dc70 bdbd 21ce b03d
000000b0: 47b4 683e 70c3 0bbf 9c74 9d3d a53e 8fbe
000000c0: 181d bc3c a5f2 92be 1286 2e3d e1dc a93e
000000d0: d99a dfbe 9be3 63be 2675 823e 2303 51bd
000000e0: 4942 a03d 1727 80bc 7a5c 463e 8bb6 b1be
000000f0: e83e e9bc f54e 1bbe 5cc6 71be 2166 cebd
00000100: 1b51 953d 4636 833d e0ea bbbd b125 cabd
00000110: 8a54 93be 4056 eebe ce23 84bd b1c5 b23d
00000120: 23db 85bd ea36 57be 3487 693d 8952 92bc
00000130: c503 ab3e a40e 84be cd2f 10be 4c3d bfbe
00000140: 4533 5c3e 9514 a7be c24e b0bd 37ba 493e
00000150: ae22 6dbe e1ec 99be 4b0d e63d 51ac 71bd
00000160: a4bc 0f3e f9f2 b3be 003d 643e b395 b63d
00000170: 99af e3be 627b 613e 23b4 a7be 6336 3fbe
00000180: b14b 533e ad8c a43e 441a a83d c77e 73be
00000190: 48b1 fcbe e0c5 0fbe d061 8c3e 2fbc 7cbc
000001a0: 33e6 a3bc 05ac c7be 7334 cabd 1b88 80be
000001b0: b727 aa3d 43d7 b2be af81 dcbd aff3 e5bd
000001c0: d478 12bd 84b6 01bd 0b21 573d ecd8 2c3e
000001d0: 5fcc 67be d985 96bd 9324 09bd 2c38 a43e
000001e0: c036 053e 119d 3dbd ab76 af3d 1c2a 06be
000001f0: 515b 053d 1e71 91bc b8f4 a7be 53d2 71be
00000200: 6680 703d ecd1 ec3d 5b6c 003e cbc4 9ebe
00000210: d2c6 493c d215 a2be 56d6 1ebd be62 913e
00000220: a080 b13e 69de 3ebe bdfb 113d d2d5 a33d
00000230: 7f27 033e b3c9 e9be 85fe 11be fb31 c6be
00000240: 7aad a73e 2dc5 4cbe 15fe 943e 87da 7f3e
00000250: 2386 acbe 84be 0cbf c0a5 213f 6002 bebd
00000260: 4543 3d3e 5a36 4bbe 1de0 bd3e 6c4d 87bd
00000270: 3024 18bd 605a 413e e3aa edbe 8183 a5be
00000280: dcc7 003e 0bb5 683e 1afc 403d 4bcc 5dbe
00000290: 7754 debe f472 19be 37a7 bf3e 2219 583d
000002a0: 827d d13c 7537 e2be 637f 17be c914 99be
000002b0: 6010 023d 9bca 7abe 906a 21bd c154 b5bd
000002c0: cadc b6bd 3189 6abd 9fb1 a63c 71ed 163e
000002d0: 2f8a 8cbe c3eb 0ebd 0622 c0bb 8c85 b43e
000002e0: 507b a63d 0121 68bd f9a8 0c3e 6473 d0bd
000002f0: 6fb1 0b3c f317 db3d 1c59 35be 91ad 66be
00000300: 42af 4d3d 91ae 8c3e 058e 183e 0f02 23be
00000310: 3c67 67bd 92b8 a5bd fd31 183e 66b6 843e
00000320: 6ced 93bd 53b3 07bf e671 acbd f132 40be
00000330: dedc d73d 13f5 a2bd e468 da3c 9a58 6bbe
00000340: bbe2 653e 1201 8bbc 5da5 943d 1120 8c3d
00000350: 6137 e2be b599 66be dda1 4f3e d079 bd3e
00000360: 6e50 0d3e ddbc 9c3d 023b da3d 619a 2bbe
00000370: d55c 3ebd 3956 5f3e 5515 debd 423f 95be
00000380: 7234 083e 4423 173e 564c 763d d1ad c3bd
00000390: a6de 0dbe 8bcd d6bd 9bf8 263e e809 823e
000003a0: 8893 19be 85ba 99be 5a47 f5bc 6f1f dabd
000003b0: bc6a 163d 897f 5e3e 2ae1 153d d188 17bf
000003c0: d1be 9c3d 6d94 d03d 2444 3d3e 209f e03d
000003d0: aa54 eabd 9549 923b 2868 fabd fe28 223e
000003e0: 3efa 7f3d 048e babc eb06 6a3c 5e47 86bd
000003f0: e097 91bc bb07 ae3e e6b4 76be a06e 19bd
